NIPS_GNN/trained_models/model.pt (torch, 271078 bytes, 26 tensors)

embed_fingerprint.weight f4 [651, 50]
0.03303672 -0.42052963 0.0016443159 -0.83190936 -0.057145126 0.5795719 -0.20254014 -0.45954505
-0.14352848 0.96546555 -0.8218644 -0.27347103 -0.35344023 -1.46992 0.2489772 -1.1154203
0.708816 0.04459601 -0.7804051 -1.5660503 0.3481772 0.61597645 -0.5167979 -0.7255776
-0.039180126 -1.6138802 0.21439886 0.21583918 -1.2548223 0.68628025 -0.6661484 1.2327728
-1.4167393 0.78957105 -1.2788688 -0.87071973 -0.68044287 -0.35135022 -2.2752428 0.5450617
1.0234361 0.11180528 -0.38436165 -1.1399125 1.9355456 -1.1179854 1.1169962 0.21386753
1.7056378 -0.051245898 -1.4541013 -2.012799 -1.5242846 0.38852036 -1.2252645 0.6277514
1.3229736 1.8048548 0.631283 0.7061639 0.04654658 -1.6816684 -1.8698521 0.7107415
0.9179484 0.94814914 0.1906639 -0.060101226 0.33001328 -1.0649344 0.19572663 0.61747354
0.053081833 -0.30953872 -1.800532 0.87019527 0.76216835 -0.11062552 -0.91231024 0.73922193
0.15871379 -0.69905925 -0.5654592 -0.7285241 0.44454685 0.27909783 -0.27739632 0.2202618
0.86399513 -1.3884737 -0.12614109 -0.7617783 0.28330904 2.6021278 -1.6995698 0.1729849
0.7525896 1.5775092 -0.19827539 -0.18215975 1.3131931 1.618918 -1.0581547 -0.32836503
-0.6788431 -0.11799009 -1.666268 1.198717 0.5648745 0.08767272 -0.03677385 0.89247906
0.97128 -0.54790324 2.6075482 2.1423817 -0.87144864 -0.71599716 1.3908795 1.021388
0.15447652 -0.8797717 -0.3699749 1.6052412 0.68919194 -0.5783004 0.9084648 0.47303787
-0.23760028 -0.54238486 -1.620485 0.895405 1.2748821 0.3080214 -0.5952409 -1.512915
-1.9979043 0.6905815 -0.65573484 -0.8434096 0.5103648 -0.5326908 0.8154388 1.1268231
-0.5823296 0.2350392 0.41895565 -1.7028586 -1.2358321 -0.73415625 0.9175405 0.411116
-1.4924875 -0.39262542 0.96154004 -2.1813383 -0.82925594 -0.44450778 -0.22302921 -2.1211166
-0.20296656 -0.88477373 -0.96887344 0.75230634 0.33690482 0.2603666 -0.02072407 0.59136695
-1.9390303 -1.2767826 1.2240762 0.6926742 -0.021782922 -0.31059083 -0.62840235 -0.017325904
0.07322446 -0.64953893 -0.631274 -0.73643464 0.307226 -0.25382096 -0.64158285 0.9103392
0.7088124 0.24301368 -0.21089746 0.8537367 -0.052040387 2.0576227 -0.9886263 1.4317344
-0.808782 0.623561 -0.26939213 1.6420362 1.3435316 0.58873713 0.23587723 -0.90878314
0.71723735 -0.7517791 1.5293584 -1.0069408 -0.027250664 -0.8640166 -0.9585486 -1.9379919
0.25495014 -1.093731 -1.232037 -0.7470529 -0.9816132 0.8000983 -0.24295485 0.17143658
0.68805647 -0.43477094 0.7964214 -0.616881 0.93192005 1.583663 -0.09796694 -0.27708206
0.5613757 0.07213101 -0.09131386 3.02432 0.18660806 -0.15704593 1.0761265 0.07751443
0.3822889 -2.3677802 -1.4183015 0.87566197 -0.23660886 0.10471868 -1.092938 0.22012636
-0.24327065 0.60477716 0.026285307 0.021211416 0.38466424 0.71986735 -0.48038706 -1.0906347
-0.016171848 0.044960767 -1.0532203 0.036827706 -1.0390214 -0.19712949 0.86647785 -0.40627635
00000000: 8351 073d a94f d7be 1686 d73a 03f8 54bf
00000010: 0211 6abd d35e 143f af66 4fbe 7d49 ebbe
00000020: 21f9 12be c028 773f b565 52bf 6504 8cbe
00000030: 1ef6 b4be 5726 bcbf e1f3 7e3e 18c6 8ebf
00000040: f774 353f 4eaa 363d a1c8 47bf 5674 c8bf
00000050: 4844 b23e a2b0 1d3f de4c 04bf 74bf 39bf
00000060: 577b 20bd a093 cebf 608b 5b3e f204 5d3e
00000070: 049e a0bf 10b0 2f3f b488 2abf 80cb 9d3f
00000080: b757 b5bf 5421 4a3f f9b1 a3bf 7de7 5ebf
00000090: 8131 2ebf 2de4 b3be 949d 11c0 2a89 0b3f
000000a0: f4ff 823f 2bfa e43d 0dcb c4be a7e8 91bf
000000b0: f5bf f73f 251a 8fbf bbf9 8e3f 1700 5b3e
000000c0: 5752 da3f 38e7 51bd fe1f babf b3d1 00c0
000000d0: c21b c3bf 24ec c63e 78d5 9cbf 51b4 203f
000000e0: 3357 a93f 7b05 e73f c39b 213f 28c7 343f
000000f0: a0a7 3e3d e940 d7bf 5057 efbf 28f3 353f
00000100: abfe 6a3f e7b9 723f 663d 433e b42c 76bd
00000110: 80f7 a83e c54f 88bf 906c 483e bf12 1e3f
00000120: 566c 593d dc7b 9ebe d577 e6bf 1ec5 5e3f
00000130: 771d 433f a28f e2bd 2a8d 69bf a63d 3d3f
00000140: de85 223e 8cf5 32bf efc1 10bf 8e80 3abf
00000150: a59b e33e e9e5 8e3e e406 8ebe 4f8c 613e
00000160: c92e 5d3f 82b9 b1bf 212b 01be e703 43bf
00000170: e20d 913e 4389 2640 818b d9bf f422 313e
00000180: b6a9 403f d2eb c93f b408 4bbe 1688 3abe
00000190: b616 a83f b438 cf3f 9d71 87bf 761f a8be
000001a0: a9c8 2dbf caa4 f1bd 4548 d5bf 8f6f 993f
000001b0: 9d9b 103f c18d b33d 2da0 16bd 8279 643f
000001c0: cea5 783f 6343 0cbf 12e2 2640 c81c 0940
000001d0: 4217 5fbf 974b 37bf 5708 b23f d8bc 823f
000001e0: 182f 1e3e b838 61bf 5a6d bdbe 8b78 cd3f
000001f0: e26e 303f 7f0b 14bf 2691 683f 0532 f23e
00000200: 7d4d 73be bcd9 0abf 0d6c cfbf 4339 653f
00000210: 562f a33f fbb4 9d3e b561 18bf 33a7 c1bf
00000220: 54bb ffbf f3c9 303f 3dde 27bf b1e9 57bf
00000230: 44a7 023f 6d5e 08bf 99c0 503f bd3b 903f
00000240: 8d13 15bf 1eae 703e 5b81 d63e 45f7 d9bf
00000250: bf2f 9ebf aaf1 3bbf efe3 6a3f cc7d d23e
00000260: d509 bfbf 3306 c9be 7d27 763f 0c9b 0bc0
00000270: 1e4a 54bf 8696 e3be c561 64be 60c0 07c0
00000280: 77d6 4fbe 8880 62bf 1708 78bf 2697 403f
00000290: ca7e ac3e c54e 853e 86c5 a9bc d363 173f
000002a0: 2532 f8bf 9d6d a3bf 87ae 9c3f 1953 313f
000002b0: 1972 b2bc c305 9fbe fade 20bf 0eef 8dbc
000002c0: b5f6 953d 2f48 26bf 2c9b 21bf fb86 3cbf
000002d0: ba4c 9d3e d2f4 81be c63e 24bf fd0b 693f
000002e0: bb74 353f 94d8 783e 81f5 57be 7d8e 5a3f
000002f0: 4d28 55bd 17b0 0340 9d16 7dbf 1343 b73f
00000300: 560c 4fbf b2a1 1f3f c4ed 89be 3e2e d23f
00000310: d8f8 ab3f 7ab7 163f cd89 713e 03a6 68bf
00000320: de9c 373f 9874 40bf 04c2 c33f 70e3 80bf
00000330: c93c dfbc 3130 5dbf 7163 75bf 1e10 f8bf
00000340: d388 823e 61ff 8bbf 63b3 9dbf dc3e 3fbf
00000350: 014b 7bbf 3ed3 4c3f 28c9 78be 128d 2f3e
00000360: 7824 303f 4c9a debe 46e2 4b3f eaeb 1dbf
00000370: 5092 6e3f 78b5 ca3f e4a2 c8bd b3dd 8dbe
00000380: 51b6 0f3f 6cb9 933d c302 bbbd 758e 4140
00000390: 2f16 3f3e a6d0 20be 83be 893f e3bf 9e3d
000003a0: 5fbb c33e b689 17c0 e78a b5bf 622b 603f
000003b0: 9849 72be bf76 d63d 64e5 8bbf ce68 613e
000003c0: f11b 79be add2 1a3f 4954 d73c 90c3 ad3c
000003d0: b6f2 c43e 3a49 383f 4bf5 f5be eb99 8bbf
000003e0: d37a 84bc c828 383d eccf 86bf a6d8 163d
000003f0: a7fe 84bf 50dc 49be 7ed1 5d3f 7403 d0be

W_fingerprint.0.weight f4 [50, 50]
-0.012621522 -0.14283647 -0.14109479 -0.09932838 0.036799103 -0.10172662 -0.0419897 0.1019575
-0.09523604 0.022872325 -0.052909218 0.0015656615 0.012857226 -0.113866046 0.07029585 0.14304842
-0.10705335 -0.10714138 0.08194199 -0.10300287 0.0047918707 -0.08816781 0.020887185 0.074253894
-0.035660807 -0.06079484 0.13817295 -0.014655419 -0.053657863 -0.12811005 -0.03185437 -0.060203914
-0.11518565 0.054360397 0.011204677 -0.15325001 0.033535313 -0.13345936 -0.053399425 -0.047732413
0.09107458 -0.07958838 -0.011212064 -0.1692659 0.07635198 -0.0720702 0.10182584 0.11107673
-0.09067268 0.060502972 -0.15086706 0.078464076 0.09288786 0.12455387 0.16840778 0.0044942717
-0.10280503 -0.07597355 0.0077367076 -0.10576396 0.11764138 0.06852187 0.029186513 -0.0663682
0.00095436635 0.01827289 0.092674054 0.05057721 -0.06946087 0.025618743 0.13053492 -0.09571604
-0.111559674 0.020838998 0.11159077 -0.035178684 0.08886021 -0.020945728 -0.09737114 -0.05921192
-0.011972709 -0.11828726 0.12445281 0.037627876 -0.017688882 0.004918157 -0.048128627 0.011774296
0.067712486 -0.09368034 -0.06599326 -0.048273433 0.10926588 -0.053656437 0.09052378 0.021360634
-0.015427148 -0.12367482 0.047636155 0.00648416 0.108162165 0.0037973558 -0.08699328 0.043337952
0.12937744 0.11883591 -0.008700202 -0.005095095 -0.012272869 -0.10037984 -0.053647682 0.054965377
0.022437226 -0.14705043 -0.11842564 -0.12312932 -0.13000488 0.110888876 -0.110095136 0.042144075
-0.019080605 0.047932982 0.09794485 -0.093092956 0.14672558 -0.08108208 -0.105139025 0.013079092
0.052850816 -0.08682009 0.14579827 0.08382863 0.07707842 -0.019264186 -0.12179978 0.019943586
-0.12124408 -0.045747876 -0.06299837 -0.015975626 0.13821377 0.06884026 0.05243107 -0.07719627
0.1474727 -0.033789303 -0.006073678 0.049552657 0.17291814 -0.049072854 -0.03517769 -0.06253994
0.003988162 0.013264723 0.06488764 -0.07197231 0.0076689874 -0.10745408 0.042541254 0.10134829
0.07526225 -0.030035257 -0.029388644 -0.07574417 0.007828186 0.09073834 -0.10199973 -0.08317737
0.08306548 0.11415281 0.13329116 -0.060362116 0.12811103 0.1254707 0.046675578 -0.12650311
0.022295935 0.064490706 -0.11795415 0.043068603 -0.12610851 0.12497442 -0.14309669 0.14742778
-0.02071161 0.09171456 -0.041157383 0.12979548 0.12516256 -0.10726884 0.06146301 -0.038375326
0.10718232 -0.019614076 -0.034928408 0.04111641 -0.0040461933 0.07065262 -0.024359744 0.12576637
-0.016102828 -0.10502127 -0.03880385 -0.14997704 -0.13422462 -0.09727465 0.06061991 -0.019167205
0.10203852 -0.06610931 -0.13559207 -0.11112834 -0.15065302 0.022045635 0.10961059 0.03885988
-0.1095757 -0.051635962 0.13018247 -0.039719097 -0.0075065996 0.06482168 0.024679244 0.13170871
0.033938706 -0.08031661 -0.09496247 -0.13726082 0.14096741 -0.06181772 -0.032007363 -0.104894504
-0.09375883 -0.031947028 0.050015934 -0.059606407 -0.08800674 -0.05971027 0.0763421 0.059340965
0.07210138 0.11056394 0.031273484 -0.025956595 0.017671322 0.06019929 0.11346126 -0.12036326
0.06682289 0.060387097 0.06348231 -0.008490128 -0.027334014 -0.0149167515 -0.09522344 0.012234748
00000000: 80ca 4ebc b943 12be 277b 10be ad6c cbbd
00000010: a8ba 163d 0c56 d0bd 64fd 2bbd 18cf d03d
00000020: 1d0b c3bd be5e bb3c 56b7 58bd e236 cd3a
00000030: 1da7 523c 9a32 e9bd 45f7 8f3d 497b 123e
00000040: c93e dbbd f16c dbbd 34d1 a73d 2bf3 d2bd
00000050: 2005 9d3b 5391 b4bd 9a1b ab3c 6d12 983d
00000060: 1111 12bd 0304 79bd 367d 0d3e 481d 70bc
00000070: 59c8 5bbd 482f 03be ba79 02bd 6198 76bd
00000080: 74e6 ebbd 02a9 5e3d d293 373c 92ed 1cbe
00000090: 535c 093d 92a9 08be 5bb9 5abd 1083 43bd
000000a0: 4f85 ba3d 3cff a2bd ceb2 37bc 0a54 2dbe
000000b0: 6d5e 9c3d 8b99 93bd 118a d03d 327c e33d
000000c0: 99b2 b9bd f7d1 773d e57c 1abe c6b1 a03d
000000d0: fe3b be3d 1916 ff3d 1773 2c3e af44 933b
000000e0: 728b d2bd 0598 9bbd 3584 fd3b c69a d8bd
000000f0: f7ed f03d 3255 8c3d 8e18 ef3c 0dec 87bd
00000100: 712e 7a3a 07b1 953c e5cb bd3d 0c2a 4f3d
00000110: 8041 8ebd 66de d13c f2aa 053e c506 c4bd
00000120: 6679 e4bd 8cb6 aa3c b489 e43d 8617 10bd
00000130: 57fc b53d 6096 abbc 856a c7bd 3388 72bd
00000140: 2e29 44bc 9740 f2bd 1de1 fe3d b01f 1a3d
00000150: 46e8 90bc 7e28 a13b 8622 45bd fae8 403c
00000160: d8ac 8a3d 7adb bfbd 7927 87bd 5dba 45bd
00000170: cac6 df3d dac6 5bbd 8864 b93d 7ffc ae3c
00000180: 26c2 7cbc 3949 fdbd 211e 433d 1479 d43b
00000190: 2084 dd3d 0fdd 783b 8829 b2bd 2383 313d
000001a0: 857b 043e 3e60 f33d 4b8b 0ebc c1f4 a6bb
000001b0: 2514 49bc f293 cdbd acbd 5bbd 6023 613d
000001c0: 46ce b73c 6394 16be 2489 f2bd 3a2b fcbd
000001d0: 0020 05be b519 e33d 8f79 e1bd 449f 2c3d
000001e0: ee4e 9cbc 6055 443d 4f97 c83d 85a7 bebd
000001f0: 3b3f 163e 5d0e a6bd 2153 d7bd b049 563c
00000200: 197a 583d bbce b1bd 244c 153e 58ae ab3d
00000210: 4adb 9d3d edcf 9dbc 2a72 f9bd bb60 a33c
00000220: d14e f8bd 2062 3bbd 4a05 81bd 51df 82bc
00000230: e987 0d3e 1ffc 8c3d f6c1 563d 1419 9ebd
00000240: 1503 173e a766 0abd b405 c7bb baf7 4a3d
00000250: 7411 313e 9e00 49bd 7b16 10bd f114 80bd
00000260: 21af 823b 4854 593c d0e3 843d 3866 93bd
00000270: 214c fb3b e210 dcbd bd3f 2e3d b18f cf3d
00000280: 1823 9a3d 800c f6bc 74c0 f0bc c21f 9bbd
00000290: cb41 003c 06d5 b93d 3ce5 d0bd e658 aabd
000002a0: 3c1e aa3d f3c8 e93d 7a7d 083e 443e 77bd
000002b0: 8a2f 033e 647b 003e e42e 3f3d 088a 01be
000002c0: f7a5 b63c b413 843d f291 f1bd b468 303d
000002d0: 9722 01be 97f2 ff3d f087 12be 4ff7 163e
000002e0: 65ab a9bc d8d4 bb3d a594 28bd 1be9 043e
000002f0: 9d2a 003e c4af dbbd a3c0 7b3d 722f 1dbd
00000300: 6782 db3d b3ad a0bc 1711 0fbd ae69 283d
00000310: ee95 84bb 52b2 903d 168e c7bc e6c8 003e
00000320: 14ea 83bc 6415 d7bd c9f0 1ebd 9593 19be
00000330: 2e72 09be ef37 c7bd 954c 783d 8b04 9dbc
00000340: 92f9 d03d 5164 87bd a6d8 0abe 4197 e3bd
00000350: c944 1abe 0c99 b43c 847b e03d 8a2b 1f3d
00000360: 3969 e0bd 3b80 53bd 8e4e 053e 7eb0 22bd
00000370: ecf9 f5bb 3bc1 843d 202c ca3c a6de 063e
00000380: 5003 0b3d 097d a4bd af7b c2bd 1a8e 0cbe
00000390: c359 103e 9434 7dbd 271a 03bd eed2 d6bd
000003a0: a104 c0bd e3da 02bd 82dd 4c3d d925 74bd
000003b0: e13c b4bd c292 74bd 3f59 9c3d 830f 733d
000003c0: e3a9 933d 596f e23d a018 003d eda2 d4bc
000003d0: 73c3 903c 8893 763d 615e e83d 0381 f6bd
000003e0: 70da 883d 7658 773d 0303 823d 2e1a 0bbc
000003f0: 95eb dfbc 6465 74bc 8204 c3bd 4174 483c

W_fingerprint.0.bias f4 [50]
0.1274927 0.11107062 -0.058921754 -0.045527842 -0.04736658 -0.024509078 -0.027746608 0.0003450582
0.0939636 0.08435329 -0.0061984384 -0.08360272 -0.057848517 0.049237113 -0.1170625 -0.008810148
0.09102179 0.05659109 0.069307424 -0.118558496 0.041242328 -0.059778225 -0.0022358736 -0.059614547
-0.047980536 0.0031740612 0.06906869 -0.14097098 0.0102727655 -0.10953952 -0.002980371 -0.06707559
-0.09566044 -0.05574246 -0.060390882 0.09299127 0.100470036 0.0076618013 0.05284476 -0.13435052
0.08435931 -0.030640803 -0.06339043 0.045130864 0.036139227 -0.13069214 -0.06500739 -0.07975366
0.026495572 -0.007268898
00000000: 728d 023e fe78 e33d f057 71bd 677b 3abd
00000010: 7603 42bd 43c7 c8bc db4c e3bc ede8 b439
00000020: fd6f c03d 6bc1 ac3d 451c cbbb e737 abbd
00000030: 91f2 6cbd dbac 493d 77be efbd 7058 10bc
00000040: a269 ba3d 0fcc 673d 0df1 8d3d ccce f2bd
00000050: b7ed 283d 03da 74bd bc87 12bb 622e 74bd
00000060: 3d87 44bd e903 503b e373 8d3d b25a 10be
00000070: 1a4f 283c 4256 e0bd 5452 43bb ed5e 89bd
00000080: 9fe9 c3bd 3552 64bd 6e5c 77bd 3572 be3d
00000090: 3cc3 cd3d d90f fb3b bf73 583d 2f93 09be
000000a0: 93c4 ac3d 6c02 fbbc d7d2 81bd 24db 383d
000000b0: ba06 143d 29d4 05be 9822 85bd e355 a3bd
000000c0: 3e0d d93c f02f eebb

W_fingerprint.1.weight f4 [50, 50]
-0.071795635 0.09774789 -0.011584286 -0.044257835 -0.041549597 0.009300745 -0.13091655 0.0032427597
-0.10230313 0.05920598 -0.0074068503 0.05241932 0.0925232 0.075088866 -0.13532907 -0.00014418385
0.005906983 -0.098327495 0.118360795 0.033829264 -0.06203587 0.0682846 0.14107285 -0.029954797
-0.026636504 0.16294615 0.0059803072 0.06754832 0.12737225 0.094083115 -0.08760567 0.14447342
-0.032896273 -0.10863728 -0.06626741 0.074861676 -0.08845718 -0.022764036 0.15262337 -0.1143303
0.08369919 -0.014725399 -0.10803773 -0.07963736 -0.09291761 0.11353868 -0.026327807 -0.03155022
-0.08136301 0.014559356 -0.047273003 -0.13063298 -0.124706194 -0.050443705 -0.027612688 0.04520424
-0.12144833 -0.13054167 0.059669346 -0.055388406 -0.085301034 -0.15536016 0.14133629 -0.02682528
0.012067483 -0.03544729 -0.17102067 0.10702246 0.069982015 0.09776911 -0.07956606 -0.09934376
0.03734899 0.033166546 0.08825182 0.0607584 -0.10909073 0.060607065 -0.09330239 0.12533446
0.038425405 -0.017030723 -0.06666105 -0.07247004 0.07552829 0.09108353 -0.105068706 0.07563531
-0.1005028 -0.09816291 0.07936963 0.096606195 -0.098894194 -0.13636896 0.08862753 0.10884091
-0.05367892 0.017089127 0.04863851 -0.06870782 -0.072384804 -0.055995815 0.029387124 0.075947516
0.06798631 -0.13758332 -0.054901138 0.0996977 -0.03111523 0.11115317 0.04266012 -0.0010482548
0.050155904 0.037869856 -0.1680759 0.123980656 -0.12351374 -0.054577883 -0.035347838 -0.032545734
0.13411362 0.05688187 -0.09867579 0.11364833 0.12999973 0.0165688 -0.07179796 -0.08997269
0.020894045 0.0057464004 0.13246831 0.05560095 -0.046199553 0.097782895 -0.08055453 0.0382224
0.016028563 -0.14988135 -0.016304728 0.03163598 0.06857753 0.08997127 -0.14715824 0.107386306
-0.034642912 -0.067625955 0.09159919 -0.09834574 -0.04545455 0.07921348 -0.15617675 0.0064099343
0.06670263 -0.05003056 -0.06830428 -0.14377351 -0.03653355 0.08710979 -0.14176963 0.09674344
-0.014054982 -0.041012544 0.10276525 0.08578225 -0.08269194 0.071876384 -0.055665497 -0.0632789
-0.004758959 0.12513033 0.08143287 0.07333391 -0.0074247243 -0.021474298 0.052672878 -0.056540146
0.10539099 0.031883143 0.0854787 0.036209516 -0.04120994 -0.005439984 0.044377524 -0.13258584
-0.034195744 0.008347377 0.09597886 -0.11785623 -0.13720448 0.10291619 0.07073368 -0.14395526
-0.048575524 0.06645659 -0.13046701 -0.019051531 0.079485394 -0.012155486 0.09768083 0.022318024
-0.15514317 -0.07550501 0.08353058 0.050114635 0.10887163 -0.119229555 -0.14280257 0.088105015
-0.06314559 -0.05714367 -0.020132914 -0.048180103 0.046836603 -0.115048215 0.08919457 -0.06412408
0.1020287 0.0126401 0.11401081 0.078521475 0.044262495 0.0048734667 0.121122465 -0.09488705
-0.11040158 0.0882734 -0.05362879 0.054496348 -0.0046958053 0.022829346 0.07399821 -0.044233304
0.11109228 0.07688286 -0.0038579144 -0.022471705 0.077602714 0.10304721 0.015479913 0.114777856
-0.0731064 -0.03860652 0.13572736 0.114220195 -0.078364596 0.030114744 -0.019033575 0.108722545
0.110060945 0.09450205 -0.048522133 -0.027822578 -0.037296224 0.021849941 -0.08221062 -0.13327177
00000000: 9709 93bd 0c30 c83d 04cc 3dbc b447 35bd
00000010: e92f 2abd 2762 183c fd0e 06be 7b84 543b
00000020: 4e84 d1bd f881 723d 2ab5 f2bb a4b5 563d
00000030: ce7c bd3d 31c8 993d b493 0abe 0f30 17b9
00000040: 5d8f c13b ed5f c9bd 2567 f23d 8e90 0a3d
00000050: 5319 7ebd ccd8 8b3d 6775 103e c363 f5bc
00000060: cc34 dabc 5bdb 263e 74f6 c33b c656 8a3d
00000070: df6d 023e a6ae c03d 9a6a b3bd d7f0 133e
00000080: 3ebe 06bd 397d debd 35b7 87bd 1451 993d
00000090: 0a29 b5bd a57b babc 4d49 1c3e 0126 eabd
000000a0: 7b6a ab3d cd42 71bc e342 ddbd ea18 a3bd
000000b0: 974b bebd f886 e83d 6aad d7bc ce3a 01bd
000000c0: a6a1 a6bd 5d8a 6e3c 56a1 41bd a7c4 05be
000000d0: f665 ffbd 0f9e 4ebd 0134 e2bc 1528 393d
000000e0: e7b9 f8bd b7ac 05be d867 743d f4de 62bd
000000f0: 4fb2 aebd bc16 1fbe 76ba 103e b1c0 dbbc
00000100: b1b6 453c 2d31 11bd 0b20 2fbe 972e db3d
00000110: bb52 8f3d 2c3b c83d 88f3 a2bd be74 cbbd
00000120: 41fb 183d a5d9 073d 5fbd b43d cddd 783d
00000130: f66a dfbd 1d3f 783d 5315 bfbd ad57 003e
00000140: f563 1d3d 0484 8bbc 9785 88bd 2c6b 94bd
00000150: 93ae 9a3d 008a ba3d 432e d7bd afe6 9a3d
00000160: 69d4 cdbd a309 c9bd 8b8c a23d 78d9 c53d
00000170: 0a89 cabd 4ea4 0bbe 5a82 b53d fce7 de3d
00000180: 6dde 5bbd 7ffe 8b3c 2d39 473d afb6 8cbd
00000190: 7c3e 94bd de5b 65bd 44bd f03c 5f8a 9b3d
000001a0: 683c 8b3d a4e2 0cbe 04e0 60bd 4f2e cc3d
000001b0: 5ee5 febc 46a4 e33d 61bc 2e3d 9865 89ba
000001c0: 4770 4d3d 6c1d 1b3d 171c 2cbe 92e9 fd3d
000001d0: c6f4 fcbd 0f8d 5fbd e5c8 10bd ad4e 05bd
000001e0: 1555 093e f7fc 683d 8816 cabd 75c0 e83d
000001f0: a61e 053e 4bbb 873c cf0a 93bd 9a43 b8bd
00000200: fd29 ab3c 4d4c bc3b c6a5 073e d2bd 633d
00000210: be3b 3dbd 6642 c83d c6f9 a4bd 178f 1c3d
00000220: 554e 833c 7f7a 19be 7e91 85bc bb94 013d
00000230: 6072 8c3d db42 b83d a6b0 16be 5aed db3d
00000240: bae5 0dbd 7a7f 8abd 5b98 bb3d 7e69 c9bd
00000250: 8d2e 3abd ad3a a23d ccec 1fbe 6d0a d23b
00000260: 639b 883d d8ec 4cbd 1de3 8bbd 5d39 13be
00000270: 34a4 15bd 9e66 b23d 0f2c 11be 6d21 c63d
00000280: de46 66bc c5fc 27bd 9676 d23d 9bae af3d
00000290: 645a a9bd ed33 933d 8101 64bd 5e98 81bd
000002a0: 0bf1 9bbb 2a22 003e 47c6 a63d 1730 963d
000002b0: 1a4b f3bb deea afbc 84bf 573d a496 67bd
000002c0: 3bd7 d73d e697 023d 750f af3d 6e50 143d
000002d0: c1cb 28bd e541 b2bb 35c5 353d 95c4 07be
000002e0: d610 0cbd 70c3 083c 9190 c43d 9b5e f1bd
000002f0: 557f 0cbe b9c5 d23d d2dc 903d 0269 13be
00000300: 21f7 46bd 651a 883d 2599 05be f511 9cbc
00000310: 3dc9 a23d ce27 47bc e30c c83d 4ad4 b63c
00000320: dadd 1ebe 5fa2 9abd 1512 ab3d 0145 4d3d
00000330: 17f8 de3d a02e f4bd d63a 12be 6770 b43d
00000340: 7a52 81bd 7b0f 6abd c8ed a4bc 8058 45bd
00000350: bdd7 3f3d 669e ebbd a5ab b63d 7c53 83bd
00000360: 6cf4 d03d 6c18 4f3c 807e e93d decf a03d
00000370: 974c 353d 9ab1 9f3b 0e0f f83d 2454 c2bd
00000380: 391a e2bd afc8 b43d dda9 5bbd 9037 5f3d
00000390: 45df 99bb 9c04 bb3c 608c 973d fb2d 35bd
000003a0: 5984 e33d c374 9d3d 10d5 7cbb 9516 b8bc
000003b0: 2cee 9e3d 6a0a d33d 769f 7d3c a710 eb3d
000003c0: cfb8 95bd df21 1ebd 1dfc 0a3e 47ec e93d
000003d0: 9e7d a0bd 32b3 f63c 4dec 9bbc eda9 de3d
000003e0: a267 e13d 4a8a c13d 25bf 46bd 2dec e3bc
000003f0: edc3 18bd a6fe b23c 0b5e a8bd 6578 08be

W_fingerprint.1.bias f4 [50]
-0.03226766 0.04925473 -0.042542376 0.044721585 -0.043190468 -0.08503078 -0.08291837 -0.08997186
-0.016592598 0.00043076984 0.00726297 0.0121138645 0.011467057 -0.019526787 -0.065391526 0.0865469
-0.13114572 0.05314962 -0.065044045 0.036594074 -0.004090471 0.045308057 0.014412053 -0.13165273
-0.11852382 0.13570234 0.022340521 0.040820938 0.10287433 0.050904706 0.068157956 0.06355005
-0.12651691 0.041978993 0.11926039 0.03462196 0.072479755 0.13107829 0.042939264 0.038766377
0.10711019 0.0045480696 -0.10783393 -0.04556566 -0.03167102 0.022563566 0.015285517 -0.06991005
0.13588414 -0.125426
00000000: 182b 04bd 54bf 493d ea40 2ebd fb2d 373d
00000010: 7de8 30bd 9e24 aebd 1bd1 a9bd 2b43 b8bd
00000020: 33ed 87bc f3d8 e139 35fe ed3b 3b79 463c
00000030: 53e0 3b3c a4f6 9fbc feeb 85bd 803f b13d
00000040: 104b 06be 6ab3 593d d035 85bd abe3 153d
00000050: 5c09 86bb f194 393d 8820 6c3c f9cf 06be
00000060: 9ebc f2bd 8ef5 0a3e 7803 b73c db33 273d
00000070: c7af d23d 7481 503d 6696 8b3d 8726 823d
00000080: a68d 01be 2af2 2b3d cb3e f43d c2cf 0d3d
00000090: 4470 943d 6339 063e 15e1 2f3d 7ec9 1e3d
000000a0: 965c db3d f907 953b 09d8 dcbd 0fa3 3abd
000000b0: 79b9 01bd 3ad7 b83c 1b70 7a3c 002d 8fbd
000000c0: 3625 0b3e ac6f 00be

W_fingerprint.2.weight f4 [50, 50]
0.025411736 0.04633077 -0.09705652 -0.013982335 -0.08501695 -0.092191085 0.13470574 0.026064996
-0.025947152 0.038255207 -0.018506281 0.07231505 0.07957468 -0.08313796 0.036234543 0.01160482
-0.0859862 -0.0662917 -0.06897826 -0.0073371883 0.10199718 -0.059758198 -0.12235868 0.13047673
-0.103759155 0.11671634 -0.12112347 -0.16124071 0.123373635 -0.09078027 0.05146057 0.13013174
0.019985078 0.11495268 0.03377382 0.07679702 -0.05496885 0.06028153 -0.03279808 -0.10068007
-0.09786139 -0.027924037 0.08765555 -0.048623502 -0.054030817 0.14197715 0.0974947 -0.13297462
-0.064459845 0.11096727 -0.0038898624 0.017927641 0.15953945 0.014121058 0.0030259013 -0.013888853
0.07560863 0.14924955 -0.0367187 0.14374988 0.044974633 -0.10775289 -0.013549796 -0.076384984
0.14283837 -0.076857165 0.052201424 0.010004335 0.09950986 -0.041836996 -0.11717566 -0.08501936
0.013017109 0.09241033 -0.028488252 -0.009987333 -0.14348353 0.11695633 -0.08892683 -0.009084198
0.06286646 -0.0043037212 0.06012704 0.079366006 0.13096417 -0.09557617 -0.11742641 0.08516121
-0.10840363 0.10499651 -0.033015642 0.080649935 -0.1299189 -0.07041711 -0.12813967 0.062929966
-0.077993356 0.051774606 -0.05006906 0.11427744 -0.12788154 -0.068743825 0.116839685 -0.0048661595
-0.039160207 0.10715002 0.1497204 0.013320185 0.10213914 -0.05226345 -0.010954418 0.038662713
0.06801554 -0.114192516 0.0998604 -0.09067456 0.0692161 -0.04236984 0.060318142 -0.06239327
-0.16617924 0.10778333 0.1285114 -0.0332305 -0.053285927 0.058493055 0.053839073 0.020861493
0.14216007 0.13432212 -0.1379159 0.12749869 -0.04682317 0.055939186 0.0078559555 0.074196085
-0.045643732 0.14358194 0.119054854 0.03209829 -0.117286116 -0.044147164 0.11416094 -0.04299044
-0.026910128 0.066427864 0.12121056 0.04466682 -0.034633614 -0.051962975 0.07782783 -0.02552603
0.12629843 -0.124613255 -0.066867955 0.12552358 -0.028503323 -0.101024576 0.15389614 0.1033805
-0.066548735 0.1592527 0.11886156 0.10154866 -0.0068303905 0.07448412 -0.07287279 -0.084084034
0.06657872 0.049222216 -0.034964804 0.044349667 0.05603655 -0.1190521 -0.064912744 -0.012073722
-0.009090962 -0.047912825 -0.094193004 -0.08569401 -0.09062892 -0.09104107 -0.09012095 -0.053272493
-0.021219388 -0.033128414 0.038768414 0.07048342 -0.08957854 -0.028834056 -0.0700256 0.03571792
0.11956894 -0.052622005 0.0685731 -0.101811305 -0.060060453 0.04580096 0.09313283 0.040022563
0.045087792 0.03451815 0.032296237 0.04505591 -0.12523799 -0.1006602 0.0018756461 0.05227359
-0.10280949 0.099458635 0.10125854 -0.08302636 -0.12835155 0.01793463 -0.039763812 -0.12135277
0.03295179 0.08509103 -0.004524246 0.006423927 0.08007959 0.0165359 0.0123788165 -0.08597662
0.07493216 0.1327255 -0.010922563 -0.102094345 0.00065009855 0.001034749 -0.0023612143 0.054165944
-0.0812386 0.053115062 0.12798758 0.102704465 0.008540219 -0.13245302 -0.13217148 0.13869531
-0.06172985 0.025093198 -0.051626 0.041915454 -0.07689655 -0.023040988 0.075371645 -0.15711176
-0.009524382 0.09455189 -0.08192203 -0.09669088 -0.14728586 0.076130584 -0.044105396 -0.06235606
00000000: 462c d03c 55c5 3d3d 92c5 c6bd 2a16 65bc
00000010: 5e1d aebd aece bcbd 4df0 093e 4286 d53c
00000020: 1f8f d4bc 7eb1 1c3d 7c9a 97bc ea19 943d
00000030: 0df8 a23d 3c44 aabd ac6a 143d 2522 3e3c
00000040: 8819 b0bd f1c3 87bd 7944 8dbd cc6c f0bb
00000050: e6e3 d03d 03c5 74bd 3097 fabd b19b 053e
00000060: ae7f d4bd fa08 ef3d 950f f8bd 491c 25be
00000070: 51ab fc3d 02eb b9bd 52c8 523d 4141 053e
00000080: bfb7 a33c 506c eb3d 6b56 0a3d c247 9d3d
00000090: 0427 61bd c4e9 763d 4857 06bd 5a31 cebd
000000a0: 8d6b c8bd f3c0 e4bc c184 b33d 7029 47bd
000000b0: 6b4f 5dbd 7562 113e 4dab c73d 802a 08be
000000c0: 8603 84bd cf42 e33d 10ed 7ebb fddc 923c
000000d0: 4f5e 233e 035c 673c 334e 463b 128e 63bc
000000e0: b3d8 9a3d e0d4 183e 5966 16bd 2b33 133e
000000f0: 5237 383d 8cad dcbd f7ff 5dbc bb6f 9cbd
00000100: 3944 123e 4a67 9dbd 29d1 553d 39e9 233c
00000110: d3cb cb3d 455d 2bbd cbf9 efbd a11e aebd
00000120: b645 553c a141 bd3d 3260 e9bc e9a1 23bc
00000130: 59ed 12be cd86 ef3d 451f b6bd e3d5 14bc
00000140: 21c0 803d 3b06 8dbb c547 763d a58a a23d
00000150: 791b 063e 70bd c3bd 427d f0bd 0069 ae3d
00000160: b902 debd 6908 d73d 693b 07bd cb2b a53d
00000170: 7609 05be d936 90bd 0c37 03be 6de1 803d
00000180: fbba 9fbd 9c11 543d 3715 4dbd 4a0a ea3d
00000190: 61f3 02be 90c9 8cbd a549 ef3d 4e74 9fbb
000001a0: 7466 20bd 7871 db3d 4e50 193e e83c 5a3c
000001b0: 532e d13d 3312 56bd 297a 33bc cb5c 1e3d
000001c0: bb4b 8b3d c4dd e9bd 9c83 cc3d 95b3 b9bd
000001d0: 2cc1 8d3d ff8b 2dbd 2810 773d 1690 7fbd
000001e0: e42a 2abe 82bd dc3d 7e98 033e b41c 08bd
000001f0: 5842 5abd 6a96 6f3d 5c86 5c3d b9e5 aa3c
00000200: 6992 113e bd8b 093e d339 0dbe 048f 023e
00000210: a7c9 3fbd 7d20 653d 44b6 003c 1ef4 973d
00000220: ecf4 3abd 2507 133e 08d3 f33d 7f79 033d
00000230: b433 f0bd a8d3 34bd 36cd e93d be16 30bd
00000240: a172 dcbc 550b 883d 3e3d f83d 8ef4 363d
00000250: fadb 0dbd 21d7 54bd 3364 9f3d f71b d1bc
00000260: 6054 013e 3c35 ffbd 11f2 88bd 4189 003e
00000270: cd7f e9bc f9e5 cebd f396 1d3e 28b9 d33d
00000280: b44a 88bd 2413 233e b16d f33d bef8 cf3d
00000290: 78d1 dfbb 218b 983d 543e 95bd 4034 acbd
000002a0: 6d5a 883d 3c9d 493d 4137 0fbd ffa7 353d
000002b0: 9586 653d 96d1 f3bd f9f0 84bd dcd0 45bc
000002c0: 42f2 14bc 3d40 44bd 43e8 c0bd 5780 afbd
000002d0: a89b b9bd be73 babd 5591 b8bd 4234 5abd
000002e0: 48d4 adbc a9b1 07bd a1cb 1e3d 9c59 903d
000002f0: f474 b7bd 6635 ecbc 9569 8fbd f44c 123d
00000300: 8fe0 f43d 2c8a 57bd 0e70 8c3d 7282 d0bd
00000310: f301 76bd ca99 3b3d 6dbc be3d b3ee 233d
00000320: faad 383d e762 0d3d 0f49 043d 8c8c 383d
00000330: 633e 00be ef26 cebd 3dd8 f53a d51c 563d
00000340: c88d d2bd f8b0 cb3d a360 cf3d b909 aabd
00000350: 976e 03be a5eb 923c 61df 22bd cd87 f8bd
00000360: 75f8 063d 3544 ae3d 2040 94bb ce7f d23b
00000370: c500 a43d 4c76 873c 85d0 4a3c 8314 b0bd
00000380: 0876 993d 32e9 073e 8df4 32bc d716 d1bd
00000390: 606b 2a3a 6aa0 873a 9abe 1abb 1cdd 5d3d
000003a0: 6c60 a6bd 2e8f 593d 2d0f 033e b856 d23d
000003b0: 46ec 0b3c c4a1 07be f657 07be 2506 0e3e
000003c0: 70d8 7cbd 4090 cd3c c975 53bd 8aaf 2b3d
000003d0: f07b 9dbd 74c0 bcbc 735c 9a3d e8e1 20be
000003e0: 270c 1cbc 6ca4 c13d bdc6 a7bd de05 c6bd
000003f0: 1bd2 16be 5aea 9b3d dca7 34bd 1169 7fbd

W_fingerprint.2.bias f4 [50]
0.035420638 0.09268995 0.056537915 -0.02492242 0.002469612 -0.07728834 -0.04499678 0.03107899
-0.044099126 0.11319675 -0.09652785 -0.077814594 0.084993884 -0.027620621 0.00072135247 -0.0343719
-0.06580553 0.093181394 0.13664542 -0.02262795 -0.06796176 -0.066349186 0.05130325 0.03608003
-0.06426153 -0.038846187 0.06857329 -0.0802284 0.11088714 -0.12930033 -0.07168061 -0.12274245
-0.09330982 -0.11098131 0.09570499 -0.06393992 -0.11796177 0.07334126 0.12781695 -0.11480761
-0.062090367 -0.0032853105 -0.12753996 -0.053704984 0.10451859 0.011157156 0.12468246 0.085590295
-0.1384159 -0.11745699
00000000: 3b15 113d 3ad4 bd3d 4d94 673d 1a2a ccbc
00000010: 37d9 213b 5949 9ebd 8b4e 38bd 5e99 fe3c
00000020: 49a1 34bd b3d3 e73d 65b0 c5bd 425d 9fbd
00000030: 4611 ae3d a444 e2bc 2519 3d3a 8dc9 0cbd
00000040: 0dc5 86bd e3d5 be3d c7ec 0b3e 405e b9bc
00000050: 892f 8bbd 15e2 87bd 5b23 523d a7c8 133d
00000060: 8d9b 83bd 2e1d 1fbd 2770 8c3d ca4e a4bd
00000070: cc18 e33d 4e67 04be 49cd 92bd 6560 fbbd
00000080: 3819 bfbd 2b4a e3bd fa00 c43d eff2 82bd
00000090: f195 f1bd f133 963d 72e2 023e 4120 ebbd
000000a0: 7852 7ebd 5d4e 57bb d699 02be c2f9 5bbd
000000b0: d80d d63d 81cc 363c 8559 ff3d f749 af3d
000000c0: e6bc 0dbe 4a8d f0bd

W_fingerprint.3.weight f4 [50, 50]
-0.09473457 0.13481681 -0.043244254 -0.03388337 0.018164804 0.020848783 -0.07247303 0.051069744
0.03917464 -0.014760333 -0.1189609 0.039029334 0.08220322 -0.069806784 -0.12003039 0.06805807
0.08752308 -0.09183699 0.0018355291 -0.07029324 -0.012460345 0.10564315 -0.07586094 -0.08388353
-0.11157094 0.07865779 0.010610655 0.092514075 0.04541394 0.039536797 -0.002659854 -0.08647212
0.10819048 -0.11142083 0.024338271 -0.046701122 0.096483715 -0.12837498 0.052405715 0.07749054
-0.04212551 -0.009817822 0.022255948 -0.048361488 -0.082532145 -0.05486473 -0.111097515 0.1273588
0.14091817 -0.07882218 0.068401076 0.11193812 0.025212115 -0.0034565139 0.038968433 -0.082976006
-0.053528003 -0.02038531 0.023194592 -0.07063418 0.11526552 0.07903708 0.1303404 -0.08620638
0.0071472838 -0.01822078 0.042146146 0.0827244 -0.09303751 -0.014571626 0.07880318 -0.14164169
0.06583269 0.07296608 0.11860305 0.065771036 0.09424834 -0.055340145 0.032690078 0.014575864
-0.07801984 -0.1378261 -0.113192335 0.0816887 -0.08123405 0.06259775 -0.00294216 0.0671234
-0.097931236 0.05188777 0.031951856 0.03593525 -0.0044212383 -0.09359192 0.02879223 -0.03463672
-0.021227203 0.08921818 -0.00496205 0.13091306 -0.10389356 -0.08650492 0.12310218 -0.013882402
0.09320406 0.024531364 0.09790737 -0.119447224 0.07515216 -0.07004621 0.03693616 0.054535773
0.16658507 -0.10369207 0.14054754 0.04504062 0.03251835 -0.0059552067 -0.06562841 -0.025842307
-0.0005732309 0.041814025 -0.004170854 0.009368171 0.19628377 -0.14160696 -0.05488084 0.016220484
0.028671691 0.026836367 0.055299297 0.08794686 -0.048799366 -0.00745099 0.06921604 -0.0406075
-0.070734486 -0.055918038 -0.059325207 -0.12034208 -0.014333374 0.0032380244 -0.06086801 0.008239431
-0.08113702 -0.03801086 0.13668826 -0.056687016 0.12195722 0.120832525 -0.119815424 0.118666954
-0.08175875 0.08332933 0.072205566 0.13155387 -0.08430656 0.05570566 0.058605902 0.13256545
0.038167868 0.05196041 -0.06944822 0.01631481 0.009677659 -0.030987898 0.002602433 -0.13856117
-0.09447299 0.014912685 0.118254736 -0.025995705 0.13850893 -0.086547785 -0.06900871 0.12485021
-0.08344641 0.084723465 0.12248893 -0.11747455 -0.0014021414 -0.033848085 -0.044665597 -0.11238668
-0.030406222 -0.123719245 0.075751476 0.1221817 -0.03802199 0.042242203 0.057475105 0.01213981
-0.09564146 -0.03693895 0.083098486 -0.12646107 -0.13257784 -0.08004189 0.017421754 -0.11723905
-0.078776814 -0.023417741 0.03454194 0.112732 0.062090397 0.04625938 0.0027100916 -0.06099562
0.067150295 -0.0482913 -0.023537729 -0.07646551 0.010782345 -0.07726784 -0.02602045 -0.03726513
-0.14545442 -0.12565714 0.011574809 -0.024290549 0.09998942 -0.1391158 -0.059648674 -0.14311112
-0.11690271 -0.13518189 0.102435805 0.018767454 0.0393712 0.09826607 -0.042440724 -0.101735085
-0.059686113 0.03948396 0.007717629 0.09014311 -0.08638094 -0.06954425 0.1162486 0.041882373
0.020040417 -0.14075585 -0.1234179 0.10689703 0.019484494 -0.017771658 -0.046032827 -0.09994593
-0.08810175 -0.10482131 -0.027360901 0.01086137 -0.052879583 -0.030207548 -0.11808316 0.10564133
00000000: 3304 c2bd 6b0d 0a3e e320 31bd 4ac9 0abd
00000010: 5bce 943c 11cb aa3c bd6c 94bd 822e 513d
00000020: 9675 203d 53d5 71bc c6a1 f3bd 39dd 1f3d
00000030: 295a a83d dcf6 8ebd 7ed2 f5bd 0862 8b3d
00000040: 4d3f b33d 0815 bcbd 2396 f03a e7f5 8fbd
00000050: 7a26 4cbc 705b d83d fb5c 9bbd 21cb abbd
00000060: 4e7f e4bd 5617 a13d 50d8 2d3c 0578 bd3d
00000070: f803 3a3d 56f1 213d f250 2ebb 4b18 b1bd
00000080: f892 dd3d 9b30 e4bd 0e61 c73c ad49 3fbd
00000090: 4199 c53d bb74 03be 60a7 563d 5cb3 9e3d
000000a0: cc8b 2cbd eeda 20bc 1b52 b63c b216 46bd
000000b0: 9d06 a9bd d7b9 60bd 1887 e3bd 586a 023e
000000c0: da4c 103e 866d a1bd dd15 8c3d d03f e53d
000000d0: a389 ce3c ae86 62bb 5d9d 1f3d 53ef a9bd
000000e0: 2e40 5bbd 18ff a6bc 9602 be3c a7a8 90bd
000000f0: 5410 ec3d 31de a13d f477 053e f88c b0bd
00000100: c333 ea3b bf43 95bc 70a1 2c3d 696b a93d
00000110: 738a bebd d4bd 6ebc 9063 a13d 850a 11be
00000120: 4ad3 863d 3d6f 953d 28e6 f23d f7b2 863d
00000130: 4605 c13d 59ac 62bd 08e6 053d 9bcf 6e3c
00000140: dec8 9fbd 4922 0dbe 62d1 e7bd 684c a73d
00000150: 0a5e a6bd 4033 803d 41d1 40bb fe77 893d
00000160: 2c90 c8bd 4588 543d f3df 023d d730 133d
00000170: 09e0 90bb 1fad bfbd afdd eb3c 3cdf 0dbd
00000180: ace4 adbc 05b8 b63d b198 a2bb 130e 063e
00000190: 26c6 d4bd 7e29 b1bd ff1c fc3d 0473 63bc
000001a0: c5e1 be3d 00f6 c83c a983 c83d bfa0 f4bd
000001b0: 60e9 993d 6374 8fbd 5f4a 173d e760 5f3d
000001c0: 4795 2a3e 825c d4bd b2eb 0f3e 837c 383d
000001d0: f631 053d e523 c3bb 3068 86bd 3fb3 d3bc
000001e0: e044 16ba 2f45 2b3d a9ab 88bb f57c 193c
000001f0: 9dfe 483e 6a01 11be bbca 60bd d2e0 843c
00000200: e5e0 ea3c f1d7 db3c 8481 623d 7c1d b43d
00000210: d8e1 47bd 6f27 f4bb 24c1 8d3d 0d54 26bd
00000220: 3edd 90bd 500a 65bd fdfe 72bd e975 f6bd
00000230: 87d6 6abc 0935 543b bc50 79bd aefe 063c
00000240: 2a2b a6bd 47b1 1bbd 02f8 0b3e a530 68bd
00000250: b5c4 f93d 0b77 f73d ca61 f5bd a907 f33d
00000260: 2271 a7bd 91a8 aa3d 83e0 933d 0fb6 063e
00000270: eba8 acbd 9e2b 643d be0c 703d 3dbf 073e
00000280: e955 1c3d 70d4 543d de3a 8ebd a3a6 853c
00000290: 0b8f 1e3c 55da fdbc 958d 2a3b fbe2 0dbe
000002a0: 0e7b c1bd 5654 743c 8a2f f23d f2f4 d4bc
000002b0: 49d5 0d3e f73f b1bd 7054 8dbd 78b1 ff3d
000002c0: f4e5 aabd 7f83 ad3d 7adb fa3d 7f96 f0bd
000002d0: 0fc8 b7ba 4aa4 0abd 46f3 36bd fd2a e6bd
000002e0: 7816 f9bc 8460 fdbd 9723 9b3d 663a fa3d
000002f0: f2bc 1bbd 2906 2d3d 046b 6b3d 0ee6 463c
00000300: abdf c3bd 4c4d 17bd 8a2f aa3d 037f 01be
00000310: 7cc2 07be 01ed a3bd 11b8 8e3c 071b f0bd
00000320: bd55 a1bd 90d6 bfbc d97b 0d3d 09e0 e63d
00000330: 8052 7e3d 7a7a 3d3d cb9b 313b 8bd6 79bd
00000340: 1886 893d 19cd 45bd 32d2 c0bc f399 9cbd
00000350: 6fa8 303c 9a3e 9ebd d728 d5bc 52a3 18bd
00000360: 01f2 14be 44ac 00be 45a4 3d3c f9fc c6bc
00000370: 41c7 cc3d 5f74 0ebe 2b52 74bd b98b 12be
00000380: b06a efbd 1f6d 0abe ddc9 d13d 34be 993c
00000390: b243 213d b93f c93d 53d6 2dbd 7c5a d0bd
000003a0: 6d79 74bd efb9 213d 2ae4 fc3b f39c b83d
000003b0: 7ee8 b0bd 376d 8ebd bf13 ee3d da8c 2b3d
000003c0: cd2b a43c 4d22 10be 86c2 fcbd d4ec da3d
000003d0: f29d 9f3c de95 91bc eb8c 3cbd 74b0 ccbd
000003e0: b16e b4bd 8eac d6bd f823 e0bc e3f3 313c
000003f0: 4398 58bd d275 f7bc 95d5 f1bd 7b5a d83d

W_fingerprint.3.bias f4 [50]
-0.09447427 -0.092374705 -0.005833442 -0.1368314 0.09356151 0.04790138 0.08924884 0.12697059
0.12795603 0.00021006847 -0.12136775 -0.06997697 0.12856892 -0.11244402 -0.013573769 -0.068435356
0.0448268 -0.08585659 -0.113640964 0.12372906 -0.034684516 0.07474838 -0.067135006 0.12636605
0.06567251 -0.011185754 0.028146649 -0.061870426 0.02101779 -0.023983777 -0.056888785 0.08495271
-0.09801965 0.042412356 -0.06185842 0.0027329633 -0.005980938 0.0192522 0.091674216 0.06720575
0.01868924 0.09217435 0.035102963 0.06909647 0.0659227 0.114829764 -0.04705209 0.0051032277
-0.12541124 0.07284636
00000000: ba7b c1bd f32e bdbd 7526 bfbb 881d 0cbe
00000010: 2d9d bf3d 3d34 443d 19c8 b63d 9404 023e
00000020: e806 033e d345 5c39 a88f f8bd 1650 8fbd
00000030: 92a7 033e 0d49 e6bd 8364 5ebc d627 8cbd
00000040: 4e9c 373d 94d5 afbd 98bc e8bd a965 fd3d
00000050: 5a11 0ebd ae15 993d 147e 89bd 1a66 013e
00000060: 4f7f 863d 7444 37bc cd93 e63c d86b 7dbd
00000070: 802d ac3c a079 c4bc 3704 69bd b0fb ad3d
00000080: 87be c8bd 94b8 2d3d 415f 7dbd 841b 333b
00000090: bffb c3bb cab6 9d3c b1bf bb3d 2ba3 893d
000000a0: 2d1a 993c e8c5 bc3d 20c8 0f3d 7382 8d3d
000000b0: 7b02 873d de2b eb3d b1b9 40bd fa38 a73b
000000c0: ce6b 00be 7930 953d

W_fingerprint.4.weight f4 [50, 50]
-0.07187871 -0.03285813 0.10998154 -0.10597264 0.14787582 0.077506624 0.14281145 0.037875798
-0.026877511 -0.1005719 0.076864935 -0.015610671 0.06995854 -0.02481878 0.08408485 -0.09582125
0.033826947 -0.043796614 0.0927747 -0.061821427 -0.124356225 -0.065826364 -0.042305432 0.11568021
-0.121913046 -0.019973991 0.034732345 -0.16510324 -0.10642248 0.008434263 -0.02682711 -0.05179911
-0.044942163 0.018891867 0.09989409 -0.09379715 -0.030880207 0.11781349 -0.10064388 -0.09866748
-0.07315378 -0.03871636 -0.039216954 -0.068256706 -0.03517149 -0.0666352 0.09639053 0.101509735
-0.059955414 0.05520893 0.14067176 -0.0066741225 0.0062657804 0.061459396 -0.06166066 0.0803038
0.13780072 0.035074677 -0.068324536 -0.09234157 0.04414348 -0.07459448 0.00610777 0.14128561
0.012840072 0.12822089 0.04600833 0.060276184 0.018013412 -0.12979338 -0.12863974 -0.0984471
0.034104586 0.062405087 -0.10490106 -0.06064328 0.105868466 0.11461982 -0.045174446 -0.124688074
0.052406777 0.124024846 -0.032046847 0.009976277 -0.03410766 0.1350742 -0.03655432 -0.11221628
-0.004553098 0.032279864 -0.107790776 -0.12542595 0.059088398 -0.062141966 0.07723553 -0.08256604
-0.08199262 0.10495136 -0.010035064 -0.10855746 0.010264579 0.004559046 0.11006666 -0.04060846
-0.12863065 -0.003595174 -0.03255845 0.11588046 0.12029553 -0.05624241 0.018276732 -0.052081708
0.087541424 0.12124593 0.07229894 -0.15942375 -0.040174842 -0.13554724 0.023840569 0.05487306
-0.11531803 0.12718047 0.097350284 0.060035467 0.014230689 -0.06481739 -0.12059077 0.025410766
0.066240266 -0.12821603 -0.124712355 -0.022764666 -0.09147765 -0.069886275 0.116107546 0.10726499
-0.05033221 0.07711193 0.027070038 -0.006804442 0.12038959 0.03706861 0.091063835 0.035525046
-0.097334184 0.014216239 -0.109060146 -0.15907292 -0.021996245 0.13702676 0.090416305 0.052479412
0.12474473 -0.0014497 -0.11711997 0.058281284 0.11875202 -0.015418725 -0.14113106 -0.023059031
-0.12497157 0.0125943385 0.11192014 -0.083872974 0.045670107 -0.12879635 -0.090504855 0.01454997
0.10651583 -0.12993152 -0.017638002 0.029734684 -0.105780296 0.016641162 -0.025870916 -0.11382436
0.004600029 0.11404275 -0.11636221 0.034363903 -0.07542528 -0.0005911505 0.051193 -0.07707654
-0.060115077 0.09001322 -0.025764583 0.085690364 -0.071683325 0.017509684 0.0510904 0.04489963
0.092562325 0.047811173 -0.031720128 0.015997624 0.09600352 -0.118657246 0.13446046 -0.095306724
-0.12927766 0.04561827 0.06566395 -0.121664114 -0.043321516 -0.10720772 -0.068145156 0.04721871
-0.058613557 -0.100099586 0.11033599 0.03631167 -0.09522579 0.047057703 0.065914854 0.015782239
-0.0376349 -0.00021188064 0.020283122 0.124214575 0.13926108 0.030466026 -0.028090294 0.05671706
0.030129366 -0.100816056 0.07836088 0.12295978 0.014908634 -0.054972824 -0.01929366 -0.09592133
0.036138278 0.01399753 0.019061774 -0.035942234 -0.079610996 -0.073010445 -0.117585845 -0.07578644
0.09434101 -0.14013392 0.11503726 0.11050304 -0.05845234 -0.14846481 0.014141955 -0.09647412
-0.04088221 -2.167162e-05 -0.048752256 0.08549366 -0.040971156 0.030277185 -0.007034859 -0.10281596
00000000: 2535 93bd 3f96 06bd 003e e13d 2f08 d9bd
00000010: c26c 173e cbbb 9e3d 2a3d 123e a723 1b3d
00000020: 3a2e dcbc a4f8 cdbd 5d6b 9d3d e6c3 7fbc
00000030: 6c46 8f3d c150 cbbc ae34 ac3d ee3d c4bd
00000040: 208e 0a3d 1464 33bd a900 be3d 7738 7dbd
00000050: 7aae febd f9cf 86bd 7648 2dbd bfe9 ec3d
00000060: 8cad f9bd 7fa0 a3bc 8143 0e3d d310 29be
00000070: 07f4 d9bd dd2f 0a3c 87c4 dbbc 4e2b 54bd
00000080: 4615 38bd 1ec3 9a3c 4695 cc3d b818 c0bd
00000090: 7df8 fcbc 3348 f13d 611e cebd 2d12 cabd
000000a0: a6d1 95bd 0c95 1ebd f5a1 20bd 2cca 8bbd
000000b0: fb0f 10bd 0978 88bd 6668 c53d 56e4 cf3d
000000c0: cf93 75bd c222 623d 420c 103e 99b2 dabb
000000d0: 2d51 cd3b d9bc 7b3d e38f 7cbd 5276 a43d
000000e0: a21b 0d3e 77aa 0f3d bced 8bbd 941d bdbd
000000f0: cbcf 343d fec4 98bd b023 c83b 2dad 103e
00000100: 2a5f 523c 564c 033e 3b73 3c3d 29e4 763d
00000110: dd90 933c 8ee8 04be 23ba 03be a29e c9bd
00000120: 40b1 0b3d 7a9c 7f3d 5ed6 d6bd 1765 78bd
00000130: 91d1 d83d ccbd ea3d d708 39bd 765c ffbd
00000140: 7da8 563d bd00 fe3d 8e43 03bd 8a73 233c
00000150: 79b4 0bbd e450 0a3e fcb9 15bd a6d1 e5bd
00000160: 2832 95bb e437 043d 69c1 dcbd a96f 00be
00000170: ad06 723d 9388 7ebd a92d 9e3d 6218 a9bd
00000180: bfeb a7bd bdf0 d63d 1c6a 24bc 6053 debd
00000190: c42c 283c 0d64 953b a16a e13d 0e55 26bd
000001a0: c1b7 03be 039d 6bbb 025c 05bd bc52 ed3d
000001b0: 815d f63d 715e 66bd 16b9 953c a153 55bd
000001c0: eb48 b33d c94f f83d 7711 943d fb3f 23be
000001d0: 608e 24bd e5cc 0abe 4c4d c33c 93c2 603d
000001e0: dc2b ecbd 993b 023e 965f c73d c0e7 753d
000001f0: d627 693c fbbe 84bd 4bf8 f6bd 3d2a d03c
00000200: faa8 873d 104b 03be 3169 ffbd f77c babc
00000210: a258 bbbd 8920 8fbd cbc9 ed3d bfad db3d
00000220: 2629 4ebd dcec 9d3d fcc1 dd3c ccf7 debb
00000230: d18e f63d 41d5 173d ad7f ba3d b682 113d
00000240: 2557 c7bd 3aeb 683c ed5a dfbd 03e4 22be
00000250: 7831 b4bc be50 0c3e 2f2c b93d a7f4 563d
00000260: 2a7a ff3d dc03 beba 98dc efbd 5bb8 6e3d
00000270: 4234 f33d d29e 7cbc a984 10be 4be6 bcbc
00000280: 18f1 ffbd 7c58 4e3c 6336 e53d 98c5 abbd
00000290: 9410 3b3d 31e3 03be 9c5a b9bd ff62 6e3c
000002a0: f924 da3d c50c 05be 927d 90bc 2796 f33c
000002b0: 57a3 d8bd 0c53 883c 3eef d3bc bf1c e9bd
000002c0: d7bb 963b 3f8f e93d 4f4f eebd 2ac1 0c3d
000002d0: 9278 9abd 70f7 1aba c0af 513d 4eda 9dbd
000002e0: 3a3b 76bd da58 b83d 3f10 d3bc 6e7e af3d
000002f0: b5ce 92bd 7870 8f3c 2b44 513d ade8 373d
00000300: 5191 bd3d a6d5 433d f7ec 01bd 730d 833c
00000310: 7e9d c43d 9202 f3bd 01b0 093e 2c30 c3bd
00000320: 5d61 04be 39da 3a3d d27a 863d 092b f9bd
00000330: e771 31bd b98f dbbd b08f 8bbd 6868 413d
00000340: c514 70bd 0301 cdbd d6f7 e13d 8cbb 143d
00000350: bd05 c3bd 94bf 403d 5efe 863d c149 813c
00000360: 0e27 1abd 472c 5eb9 ca28 a63c 3664 fe3d
00000370: 759a 0e3e e393 f93c 9e1d e6bc 2650 683d
00000380: dcd1 f63c a678 cebd ab7b a03d 56d2 fb3d
00000390: 5843 743c 2f2b 61bd bd0d 9ebc 6772 c4bd
000003a0: bb05 143d e555 653c 7027 9c3c 2a38 13bd
000003b0: 170b a3bd 8086 95bd d9d0 f0bd ec35 9bbd
000003c0: dc35 c13d 447f 0fbe a898 eb3d 6b4f e23d
000003d0: b96b 6fbd 2907 18be a9b3 673c 3994 c5bd
000003e0: 1b74 27bd 73cb b5b7 72b0 47bd 4d17 af3d
000003f0: 5fd1 27bd dc07 f83c ad84 e6bb 2d91 d2bd

W_fingerprint.4.bias f4 [50]
0.07104191 -0.09218247 0.091960244 -0.036420707 0.099182636 -0.072828576 0.022173448 -0.03901422
0.041271094 0.056051757 -0.114990905 0.07710407 0.026096385 -0.003205015 -0.10150816 -0.011224849
-0.11824621 0.080575876 0.002779162 0.1416697 -0.012529821 -0.09116116 -0.13661323 -0.0031436374
0.08777426 -0.04272025 -0.06426681 -0.021383092 -0.03923911 -0.09817325 -0.03743915 -0.10516597
0.0886055 -0.00792544 0.050133422 0.089544654 0.06222423 -0.024162732 0.04844449 -0.08479023
-0.09219466 0.020273225 0.05390576 -0.1283743 -0.06926418 0.0005846485 0.076541975 -0.06235117
-0.0047523277 0.10327258
00000000: 6c7e 913d 2aca bcbd a755 bc3d e12d 15bd
00000010: 4420 cb3d 2627 95bd 17a5 b53c 60cd 1fbd
00000020: e10b 293d 8796 653d 5a80 ebbd bde8 9d3d
00000030: 16c8 d53c 3b0b 52bb 83e3 cfbd 6ee8 37bc
00000040: 122b f2bd f704 a53d 9a22 363b dd11 113e
00000050: e149 4dbc b4b2 babd 57e4 0bbe 7c05 4ebb
00000060: fec2 b33d 6efb 2ebd 519e 83bd 982b afbc
00000070: 30b9 20bd 0f0f c9bd cb59 19bd 4261 d7bd
00000080: cd76 b53d b4d9 01bc b458 4d3d 3063 b73d
00000090: d6de 7e3d ecf0 c5bc bb6d 463d 80a6 adbd
000000a0: 8ed0 bcbd 0914 a63c 49cc 5c3d 8d74 03be
000000b0: 61da 8dbd 1943 193a 0ac2 9c3d f163 7fbd
000000c0: 6ab9 9bbb 9380 d33d

W_fingerprint.5.weight f4 [50, 50]
0.12800805 -0.08832319 0.06432728 -0.07526111 -0.029225977 -0.08193197 0.03947272 -0.1272577
-0.12398866 -0.09368232 0.1271721 0.08002353 -0.08136802 -0.053671874 -0.092145644 -1.4311462e-05
-0.021877225 -0.13968235 -0.10114761 0.028524384 -0.026725344 0.12487591 -0.019138396 0.07521505
0.024295509 0.027537875 0.11270364 0.13956526 0.079935916 -0.04709689 0.063366175 -0.042628467
0.010776267 0.050343014 -0.09415253 0.11053349 0.11761271 0.0891694 0.09203842 -0.06696921
-0.020427443 -0.03671377 -0.038879696 -0.01823696 -0.084182724 0.071051426 -0.09345622 0.15268977
0.0820583 0.062229574 0.07573162 -0.022051865 -0.005135913 -0.0349861 -0.046010043 -0.02007495
0.14916211 -0.039791346 -0.069594875 0.11027595 0.10202139 -0.048964698 -0.021267023 0.08851383
-0.1036738 0.075237 -0.002784662 -0.09000343 -0.06361792 0.078624986 0.094420396 0.03275875
-0.1353569 0.05928396 0.14219084 0.11328895 -0.12166173 -0.051026013 -0.113213256 -0.028632501
-0.056539893 0.00269892 0.009434527 0.11861325 0.083541475 0.07173922 -0.11349774 0.00040416524
-0.01957336 -0.03153964 -0.031216776 0.06302331 0.037254542 -0.0028888125 -0.1420268 0.107884586
-0.039665323 0.09190728 -0.13102502 0.009035292 0.076908864 0.1434299 -0.079817764 0.045580335
0.1186584 -0.08339264 0.09890857 -0.023204688 0.053974085 -0.1088834 -0.095619716 0.03767609
-0.059671465 -0.074732855 -0.13803364 -0.13665143 -0.006662574 -0.007755989 0.072213545 0.033283956
0.047019325 -0.11175497 0.03654594 -0.12066826 -0.029210176 -0.054132387 0.1119128 -0.03460231
0.049302164 0.13507228 0.016132386 0.11328585 -0.012211316 0.006202491 0.04403509 0.03364026
0.12251089 -0.104040846 0.061600767 -0.003339036 0.0558361 0.14616528 -0.05765567 -0.07392854
-0.07021723 0.09597492 0.13806185 -0.05105522 -0.037635677 0.11359449 -0.07030534 0.04639168
-0.06664258 -0.031026691 0.08599732 -0.0015274368 -0.016070334 0.055720806 0.046125136 -0.031150687
0.056413144 -0.030975766 0.12737362 -0.11677934 -0.091848776 -0.101962246 -0.08217165 0.1382624
0.17518958 0.040452354 -0.10852919 0.03846522 0.069328874 -0.015236035 -0.09452749 0.13621005
-0.0052668843 0.018202892 0.08980376 -0.114439934 -0.025838831 -0.042864464 0.05262652 0.02121402
0.1766324 0.0036174634 0.01963863 -0.08675448 0.07996816 0.026431547 -0.13371119 0.057718147
-0.06749383 -0.051528774 -0.091654815 -0.05440239 -0.013753761 0.071810804 -0.11854351 0.07964636
-0.016675953 -0.05077822 -0.04443179 0.15136386 0.0169577 -0.043291442 0.12601316 0.032702856
-0.06895641 -0.00208541 0.12741421 0.034727745 -0.05107854 0.02383542 -0.04752806 -0.04002661
0.009005794 -0.0305174 -0.033907145 0.1285382 0.08784788 0.021761281 -0.100613385 0.106051944
0.006454103 0.13759805 0.0011083537 -0.0909868 -0.12052659 0.046158124 -0.12663126 -0.03973477
-0.12230565 0.12358855 0.061044347 0.0252751 0.02096527 -0.04231744 -0.04162806 0.007043391
0.028314816 -0.119755715 0.04213186 -0.09490102 0.0401639 0.14490622 0.086926796 0.082640834
0.06496954 -0.116077356 0.004671237 0.08218549 -0.07382393 0.029165996 -0.02577071 -0.0136571005
00000000: 8b14 033e cae2 b4bd 05be 833d 7f22 9abd
00000010: 516b efbc f3cb a7bd 26ae 213d d84f 02be
00000020: c4ed fdbd 84dc bfbd 6739 023e 60e3 a33d
00000030: 47a4 a6bd 0ad7 5bbd dbb6 bcbd 431b 70b7
00000040: de37 b3bc e408 0fbe 7a26 cfbd f8ab e93c
00000050: 1cef dabc f1be ff3d 20c8 9cbc 590a 9a3d
00000060: 6007 c73c 1c97 e13c 2ad1 e63d 32ea 0e3e
00000070: 71b5 a33d abe8 40bd 20c6 813d 309b 2ebd
00000080: f18e 303c 7a34 4e3d 0bd3 c0bd 625f e23d
00000090: efde f03d 729e b63d a47e bc3d 2727 89bd
000000a0: 7457 a7bc 2e61 16bd 5140 1fbd ad65 95bc
000000b0: fe67 acbd 6983 913d fa65 bfbd b55a 1c3e
000000c0: 2f0e a83d 70e4 7e3d 2e19 9b3d 1da6 b4bc
000000d0: 294b a8bb 964d 0fbd 0775 3cbd 3974 a4bc
000000e0: f4bd 183e 40fc 22bd c287 8ebd 5bd8 e13d
000000f0: 97f0 d03d 358f 48bd 2e38 aebc bd46 b53d
00000100: ee52 d4bd db15 9a3d e07e 36bb b853 b8bd
00000110: 1d4a 82bd 2306 a13d 7b5f c13d 0a2e 063d
00000120: 009b 0abe bdd3 723d 7a9a 113e 0904 e83d
00000130: c929 f9bd a700 51bd 5adc e7bd b58e eabc
00000140: 6096 67bd 5de0 303b 4693 1a3c 81eb f23d
00000150: cb17 ab3d 03ec 923d 8171 e8bd 24e6 d339
00000160: 5058 a0bc b62f 01bd 53ba ffbc 5d12 813d
00000170: 3898 183d 3b52 3dbb 796f 11be 98f2 dc3d
00000180: 1b78 22bd e239 bc3d 6c2b 06be c308 143c
00000190: 6582 9d3d 4adf 123e 7f77 a3bd 72b2 3a3d
000001a0: 2d03 f33d c3c9 aabd 9490 ca3d c217 bebc
000001b0: ee13 5d3d 43fe debd 45d4 c3bd 3e52 1a3d
000001c0: 116a 74bd 8a0d 99bd b158 0dbe 5aee 0bbe
000001d0: b951 dabb f425 febb b2e4 933d c254 083d
000001e0: 5697 403d cadf e4bd 32b1 153d ec20 f7bd
000001f0: 2e4a efbc ecb9 5dbd 8a32 e53d 27bb 0dbd
00000200: 11f1 493d 6350 0a3e 1128 843c 6902 e83d
00000210: f911 48bc 443e cb3b 235e 343d 5fca 093d
00000220: fde6 fa3d 5e13 d5bd 1651 7c3d bad3 5abb
00000230: 65b4 643d 5aac 153e 5a28 6cbd d967 97bd
00000240: 0dce 8fbd 808e c43d 1660 0d3e 471f 51bd
00000250: de27 1abd 3aa4 e83d 3ffc 8fbd 3405 3e3d
00000260: e87b 88bd b02b febc 5d1f b03d 4634 c8ba
00000270: efa5 83bc 803b 643d b6ed 3c3d ba2f ffbc
00000280: 7811 673d e4c0 fdbc 3b6e 023e 022a efbd
00000290: 361b bcbd 95d1 d0bd 9c49 a8bd a994 0d3e
000002a0: e664 333e 5eb1 253d 8d44 debd b58d 1d3d
000002b0: 4cfc 8d3d 90a0 79bc a197 c1bd a67a 0b3e
000002c0: d495 acbb 3b1e 953c 09eb b73d 7c5f eabd
000002d0: f5ab d3bc a692 2fbd e88e 573d 06c9 ad3c
000002e0: 20df 343e f712 6d3b 31e1 a03c 55ac b1bd
000002f0: 59c6 a33d f986 d83c 96eb 08be dd69 6c3d
00000300: 353a 8abd d60f 53bd 85b5 bbbd 0ad5 5ebd
00000310: 7457 61bc 8b11 933d f1c6 f2bd a11d a33d
00000320: 029c 88bc d3fc 4fbd 1cfe 35bd 21ff 1a3e
00000330: e0ea 8a3c 5e52 31bd 9809 013e 6ef3 053d
00000340: 0539 8dbd 60ab 08bb df78 023e ae3e 0e3d
00000350: bb37 51bd 8042 c33c c8ac 42bd f1f2 23bd
00000360: 0a8d 133c a0ff f9bc 38e2 0abd 859f 033e
00000370: 97e9 b33d b744 b23c 640e cebd c331 d93d
00000380: f17c d33b 81e6 0c3e 2e46 913a 4a57 babd
00000390: a5d6 f6bd 4d10 3d3d a0ab 01be edc0 22bd
000003a0: 627b fabd fe1b fd3d a309 7a3d ba0d cf3c
000003b0: 5cbf ab3c 0d55 2dbd 2f82 2abd 3fcc e63b
000003c0: 79f4 e73c 7c42 f5bd 7592 2c3d 775b c2bd
000003d0: e782 243d 4c62 143e ad06 b23d 993f a93d
000003e0: c00e 853d f7b9 edbd 2d11 993b de50 a83d
000003f0: 0031 97bd 87ed ee3c 191d d3bc 08c2 5fbc
