MY_GNN/trained_models/rg/model_Rg_fold0.pt (torch, 562650 bytes, 23 tensors)

convs.0.bias f4 [128]
000000 24 12 26 39 89 a3 e9 38 64 f2 29 b9 ba b6 ea 36
       0.00015837752 0.000111407666 -0.00016207393 6.9950156e-06
000010 e2 3d af b8 db 98 75 38 14 cc 88 b7 bc 8b 0e 39
       -8.356177e-05 5.855491e-05 -1.6307495e-05 0.0001359423
000020 88 a9 aa b9 fe fd 05 39 67 bf a2 39 09 c8 8b 38
       -0.00032551237 0.00012778488 0.00031041654 6.665296e-05
000030 78 ed c6 39 f3 90 b6 b8 e9 3b 4d ba 2c 5b 97 37
       0.0003794243 -8.705435e-05 -0.00078290567 1.8043058e-05
000040 eb ff 75 b9 83 19 e4 b9 c7 95 33 39 49 70 a4 36
       -0.00023460358 -0.00043506557 0.00017126567 4.9006526e-06
000050 88 e0 c9 39 c7 88 32 b9 01 24 56 38 80 7c 0b b9
       0.00038504996 -0.00017026356 5.1055107e-05 -0.00013302453
000060 d9 53 f4 b8 23 27 58 39 38 21 fc b8 93 c8 77 38
       -0.000116504445 0.00020613945 -0.00012022484 5.907619e-05
000070 d7 b4 55 b9 3f ca 42 b8 0c 76 6b 39 f1 64 53 3a
       -0.00020380631 -4.644156e-05 0.00022455322 0.00080640527
000080 e2 dd f3 38 24 9e bf b6 95 bf b6 38 b6 91 4f 38
       0.00011628472 -5.7106536e-06 8.714121e-05 4.948835e-05
000090 bf 91 ec 38 75 7b f0 38 3f 3d a4 b8 b9 b8 3d ba
       0.00011280504 0.000114670875 -7.8315374e-05 -0.00072373037
0000a0 67 db cc 38 a2 4d 82 39 55 43 75 39 6f 9a ef ba
       9.768345e-05 0.00024853373 0.00023390104 -0.0018280278
0000b0 1b 66 4d b8 15 88 83 39 a0 8f 21 37 4a 1b fb 37
       -4.8970902e-05 0.00025087656 9.629788e-06 2.993424e-05
0000c0 a9 22 61 38 04 92 72 39 8f 4a 1b 39 eb 42 2d 39
       5.367646e-05 0.00023133314 0.00014809727 0.00016523495
0000d0 83 25 74 39 77 54 d2 b9 b9 80 30 39 68 20 a5 38
       0.00023283628 -0.00040117253 0.00016832621 7.873849e-05
0000e0 66 f6 4d b9 23 ec bb 3a 30 67 2c b9 0c 20 4b b9
       -0.00019642114 0.0014337342 -0.00016441639 -0.00019371527
0000f0 62 a5 9b 38 c3 72 58 39 44 91 aa 37 40 c9 9e 39
       7.421781e-05 0.00020642117 2.0333224e-05 0.0003028605
000100 ed ea e7 b9 c7 0d d8 b9 90 fd 65 b9 bd 62 94 39
       -0.00044234787 -0.00041208995 -0.00021933601 0.00028302326
000110 da 27 55 39 71 ea 82 b9 53 8f b3 b9 34 10 81 38
       0.00020328109 -0.00024970205 -0.00034248325 6.1542174e-05
000120 6e bd 56 39 45 21 c4 38 e3 69 d7 b8 88 90 d1 39
       0.00020479198 9.352205e-05 -0.00010271722 0.0003997127
000130 2a 61 53 37 29 af 83 b8 a0 28 91 36 37 78 17 3a
       1.2599203e-05 -6.279193e-05 4.326066e-06 0.0005778106
000140 90 f7 e4 38 2a f6 8b 38 e2 e8 04 3a 20 68 1c 38
       0.00010917999 6.673888e-05 0.00050701026 3.7290272e-05
000150 1e 37 b8 39 50 21 e5 38 95 5f 47 b9 cf d0 ee 38
       0.0003513628 0.00010925776 -0.00019013726 0.00011387618
000160 c6 52 01 39 27 04 58 b8 6e 18 91 38 36 3e ae b9
       0.00012333234 -5.150228e-05 6.918689e-05 -0.00033234217
000170 18 3d ad b7 a2 69 49 39 14 9d 35 39 4d f2 b4 b9
       -2.0651656e-05 0.00019208205 0.00017320021 -0.00034512804
000180 8b 4e 7b 37 91 d0 2b 39 d8 e2 31 37 e1 6e 84 b9
       1.4979053e-05 0.00016385528 1.0602838e-05 -0.00025259613
000190 db a2 e7 38 0f b3 c4 b8 3b 30 ef b8 20 4b d3 b9
       0.000110452725 -9.3793606e-05 -0.00011405392 -0.0004030103
0001a0 54 f9 af b8 e1 e7 cd b8 86 33 24 b8 0b 21 cf 37
       -8.391091e-05 -9.8183526e-05 -3.9148632e-05 2.469171e-05
0001b0 10 31 97 b8 78 55 0c b9 6e d6 13 39 9d 14 2c ba
       -7.20938e-05 -0.0001338328 0.00014098894 -0.0006564351
0001c0 1b 97 4c 39 f7 63 84 39 6d de a2 39 b0 25 00 b8
       0.00019511247 0.00025251482 0.00031064768 -3.0552677e-05
0001d0 03 06 1f 39 d9 49 a6 b8 f0 8a 7d 39 a7 7c 4e b8
       0.00015165661 -7.929252e-05 0.00024179718 -4.923032e-05
0001e0 e2 22 ca 3a c1 64 28 b9 57 9c 13 3a ce dd d7 b7
       0.0015421773 -0.00016059262 0.00056309014 -2.5733283e-05
0001f0 4e 96 8b b9 ad 24 e4 38 e6 0d 24 b9 26 aa 6d 39
       -0.00026624132 0.000108787186 -0.00015645436 0.00022665467

convs.0.lin.weight f4 [128, 19]
000000 0b 48 31 be f5 e8 19 3e b1 a1 eb bd 31 2f 20 3e
       -0.17312638 0.15030272 -0.115054496 0.15643002
000010 01 5e ce 3c d8 93 40 3d 02 c0 3f 3e 32 8b e8 bd
       0.025191309 0.047015995 0.18725589 -0.113546744
000020 4d a1 02 bd 58 9c 12 3d 91 20 93 3d fd 15 4a be
       -0.03189211 0.035793632 0.07183946 -0.1973495
000030 68 ef 88 3d 0e 01 f4 bd b6 a2 0a 3d 91 d0 04 3e
       0.06686288 -0.11914264 0.03384658 0.12970187
000040 0b c0 aa bc 5c 96 8a ba 1e 50 77 bc 57 e9 27 3e
       -0.020843526 -0.0010573375 -0.015094785 0.16397606
000050 45 0a e9 3d b9 bc fd 3c 05 a4 fa bd e9 1e d7 bd
       0.11378912 0.030973779 -0.122383155 -0.105039425
000060 5f 63 25 3e e5 80 12 3e 45 96 e3 3d ad 4e 21 be
       0.16151188 0.14306982 0.11112646 -0.15752669
000070 b6 1d 21 3e e7 f7 02 bc 99 4e 13 3e 43 ae 35 3e
       0.1573399 -0.007993675 0.14385451 0.17742257
000080 f5 68 b5 3c 1f bc 9e bd 13 23 42 3e 06 48 dc bd
       0.022144774 -0.07750725 0.18958692 -0.10755925
000090 46 f4 08 3e dc 5f 46 be 8c 47 88 bd 8a 9b 3a be
       0.13374433 -0.19372505 -0.066542715 -0.18223396
0000a0 f3 54 b9 bd d1 18 ac 3d e6 7f 0f be 5c e4 35 be
       -0.09049406 0.08403171 -0.14013633 -0.17762893
0000b0 54 27 0a 3e e9 48 dc 3d ec c8 10 bb 7e d7 11 be
       0.13491565 0.10756094 -0.0022092415 -0.1424236
0000c0 ad b8 27 bd a4 d5 85 bd c3 c3 fe 3d b8 55 87 bd
       -0.040947605 -0.06534889 0.12439682 -0.066081464
0000d0 42 36 61 bd 1f 1a 1d be 49 a9 a5 bd 91 a9 da 3d
       -0.054983385 -0.15341996 -0.08088929 0.106768735
0000e0 10 4a 05 3e 0a 77 aa 3c 7c 14 95 bd bf 02 3e 3e
       0.13016534 0.020808715 -0.07279298 0.18555735
0000f0 22 13 37 3d db 5e af bd f2 79 86 bd d8 4b cb bc
       0.04469598 -0.08563014 -0.06566228 -0.024816439
000100 20 1c cf 3d e6 56 97 3d b3 fa 15 3e 49 67 8c ba
       0.10112786 0.073896214 0.14646415 -0.0010711934
000110 46 2b 31 3e fc 07 ad bd cb 8e be bd 85 2a 86 bd
       0.17301664 -0.084487885 -0.09304579 -0.06551079
000120 a5 5a 3e be c7 aa 0e be 41 6f 45 be 02 9e 43 bc
       -0.18589266 -0.13932334 -0.19280721 -0.0119395275
000130 cd c0 e2 3b 3b 23 4d bd bb 12 0d be b7 57 3a 3e
       0.0069199563 -0.050082427 -0.13776676 0.18197523
000140 47 e4 90 bd f4 4d ce 3d d8 a2 16 3e 83 d8 02 be
       -0.070747904 0.10073462 0.14710557 -0.12777905
000150 e2 ea ce bc 8d 23 ef 3d f9 9a 3a 3e 49 87 b7 bc
       -0.025258485 0.11676703 0.1822318 -0.022403376
000160 be 5e 18 3e 5e 5f 22 be 6c f8 08 be a8 d4 2b 3e
       0.14879891 -0.15856692 -0.13376015 0.1678034
000170 cc b5 b0 bc d8 24 4d 3e e7 b2 70 3c 34 15 97 bd
       -0.021571063 0.20033586 0.014691091 -0.07377091
000180 78 ce 3f 3e 09 c4 2a 3e be ee c3 3c 44 0e 06 be
       0.18731105 0.16676344 0.023917552 -0.1309138
000190 54 64 0e bc c4 0f d3 bd ab b8 16 3e 85 55 19 3c
       -0.008690912 -0.103057414 0.14718883 0.009358768
0001a0 c8 35 2e 3d 15 00 05 3e 70 6a 88 3d 98 6b 02 be
       0.04253176 0.12988313 0.06660926 -0.12736356
0001b0 0f dc 2b 3e 0c 8a 01 3e d1 d0 00 be ff ec 1f 3e
       0.16783164 0.12650317 -0.12579657 0.1561775
0001c0 09 ac 5a 3d 52 e5 22 bd e0 25 11 be ba 85 16 bd
       0.05338672 -0.03976948 -0.14174604 -0.036748625
0001d0 c9 84 48 be 14 a6 ee 3d 3f d9 14 3e 0a c5 7d bd
       -0.19581904 0.11652771 0.14535998 -0.06195549
0001e0 59 c4 3f 3e 64 ce 9d bd 03 b6 0d 3d 44 2c 10 be
       0.18727244 -0.077053815 0.034597408 -0.14079386
0001f0 18 0e 7d bc 7b 15 a6 3d a0 09 b2 3d 5d fd dd bb
       -0.015445255 0.08109566 0.08693242 -0.006774588
000200 89 3c d8 bd 3f 92 0b 3e 70 bc 10 3e d6 16 15 3d
       -0.10558421 0.13630007 0.14134383 0.03639873
000210 0f 47 be bd d3 70 39 3d 26 db 27 bb 97 38 3a 3e
       -0.09290897 0.045273613 -0.00256128 0.1818565
000220 c3 d9 f9 3c 0e 1e 17 3c 41 d2 6b 3c 27 06 d6 3d
       0.030499345 0.009223474 0.01439339 0.10450392
000230 6f 15 e2 3b 4c 53 31 3e 62 90 d7 3d 4e 7b 1a be
       0.0068995277 0.17316931 0.10525586 -0.150861
000240 04 24 03 bb 65 2c 35 be fa d7 1e be ec 49 1c 3d
       -0.002001048 -0.17692716 -0.15512076 0.038156435
000250 00 4c 51 3d d4 9a bb bc 47 ae 3c 3e a3 46 de bd
       0.05109787 -0.022900976 0.18425857 -0.10853317
000260 97 08 ab bd a6 86 17 bd bd 89 93 3b ce 6b a6 bc
       -0.08351248 -0.036993645 0.0045025037 -0.020315077
000270 69 c1 33 3e 54 90 ac bd c8 af ca bd b3 88 85 3c
       0.17554249 -0.08425966 -0.09896809 0.016300535
000280 21 62 1b 3e 70 6a 44 3d 3c 78 e6 3d b0 ec 24 3d
       0.15174152 0.04795307 0.11253402 0.040264785
000290 bf 38 34 3e 5b 83 f8 3d ba 39 13 3e 4b 5b df bc
       0.17599772 0.12134429 0.1437749 -0.027265212
0002a0 b1 81 21 be c9 c2 e8 bd 54 f4 8c 3d fe 41 07 3e
       -0.1577213 -0.11365277 0.068825394 0.13208768
0002b0 e8 66 9b bd 43 ef 2d 3e f7 43 0e 3d 9b 6b 23 3c
       -0.07587987 0.16985802 0.034732785 0.009974386
0002c0 ce c7 46 3c 5e df c9 bc d0 e6 3f 3e d1 c5 0f 3c
       0.012132598 -0.024642643 0.18740392 0.00877519
0002d0 46 6e fd 3d a6 56 2b be 7b b5 d5 bd 06 d3 ee 3c
       0.123745486 -0.16732273 -0.10435005 0.029153358
0002e0 69 31 25 3e af 04 c5 3d 73 c1 22 3d b7 5f 51 be
       0.1613213 0.09620034 0.03973527 -0.20446669
0002f0 32 11 d6 3b b3 8f 08 be ad 70 28 be b8 34 da 3c
       0.0065328116 -0.13336067 -0.16449232 0.026636466
000300 f2 ef 02 be ba 7b 39 3e 4d 10 e1 bd ec e5 80 3d
       -0.12786844 0.18113604 -0.10989437 0.06293854
000310 3d 2e ec 3d a1 f5 27 be da c0 d3 3d 45 9a dd bc
       0.11532257 -0.16402294 0.10339518 -0.0270511
000320 9e c3 c8 3d de 9d 4a 3e 65 de c8 bd 4f 33 b3 bd
       0.09802936 0.19786784 -0.098080434 -0.08750021
000330 0d b0 20 3e 4e 86 92 3c 4b d7 b3 bc 01 72 23 3e
       0.15692158 0.017886307 -0.021953246 0.15961458
000340 ab e7 c7 bd 0e 83 a6 bb 77 f4 08 3e fc e0 96 3d
       -0.09760984 -0.005081541 0.13374506 0.07367131
000350 1a 9a 03 be 28 8c 76 3d 1c d1 1f be 23 e5 e3 bd
       -0.12851754 0.060192257 -0.15607113 -0.11127689
000360 f9 da 01 3e 1e 8b 5c bd 36 c0 d2 bd c2 cb cb 3b
       0.12681188 -0.05384361 -0.102905676 0.006219358
000370 cd 8d 4a 3d 4e 2a e2 bd 04 83 0b be ec de 52 be
       0.049451638 -0.11043225 -0.13624197 -0.2059285
000380 00 5e 6d 3d 36 e5 11 be 66 70 06 3d ba 14 39 bd
       0.057950974 -0.14247593 0.032822035 -0.045185782
000390 0f f3 06 be ff ed 95 bd 43 be 1b be f1 39 de bd
       -0.13178657 -0.07320785 -0.15209298 -0.10850895
0003a0 94 42 67 bc 6a 44 33 be e5 07 36 be 9a 4d 1a 3e
       -0.014114995 -0.17506567 -0.17776449 0.15068665
0003b0 4c bc 9b 3c 7c fc b6 bd 97 eb f7 bb a3 5f 17 3e
       0.019010685 -0.08934876 -0.0075659263 0.14782576
0003c0 f9 0c 24 be 32 5e db bd e7 d1 1a be 60 cb 4f bc
       -0.16020574 -0.10711326 -0.15119134 -0.012682766
0003d0 83 6d a2 bb 1d 06 29 be 70 97 0f 3e b0 39 26 be
       -0.0049569025 -0.16506238 0.14022613 -0.16232944
0003e0 57 86 4c 3e 00 8a 19 be f6 da bb bc ab 9b 22 3d
       0.19973122 -0.14994049 -0.022931557 0.039699238
0003f0 89 8d bf bd 2c 40 44 3e 34 21 10 be c3 78 37 bc
       -0.093531676 0.19165105 -0.14075166 -0.011198225

convs.1.bias f4 [128]
000000 d5 c7 46 b5 c5 bf b2 b6 7f 69 49 b8 07 1e 2f b8
       -7.405154e-07 -5.3271383e-06 -4.8020385e-05 -4.1751216e-05
000010 86 d6 23 37 93 0c a7 b7 d0 51 19 36 d5 b6 3a 35
       9.765505e-06 -1.9913807e-05 2.2846398e-06 6.9556455e-07
000020 a1 7e e1 b7 d3 17 e9 37 39 12 fe b7 70 bc 4c b7
       -2.6881056e-05 2.7786858e-05 -3.0287645e-05 -1.2203222e-05
000030 75 0a 6b 36 c7 72 7d b5 ae 44 9c b6 69 84 c0 b7
       3.5023816e-06 -9.441687e-07 -4.6571577e-06 -2.2949842e-05
000040 53 37 3c b7 46 15 3b b7 fb 38 4f 37 1d e6 aa b7
       -1.1218554e-05 -1.1151022e-05 1.2351428e-05 -2.0372734e-05
000050 9e 79 8e 38 7c 75 16 b8 f7 b8 43 37 93 05 04 b7
       6.7937406e-05 -3.5872203e-05 1.1665971e-05 -7.869111e-06
000060 82 fa 80 b7 90 a1 d0 b7 ba 68 86 36 4f d9 64 38
       -1.537544e-05 -2.4870766e-05 4.005703e-06 5.456182e-05
000070 a7 c5 a4 b7 5e 24 11 38 7e 6b 39 35 36 b7 4b 36
       -1.9642363e-05 3.4604564e-05 6.907429e-07 3.0356e-06
000080 50 64 30 b7 4d 48 f9 37 64 9c e8 b7 54 55 fc b6
       -1.0513773e-05 2.971678e-05 -2.772938e-05 -7.5201187e-06
000090 bb 4c 83 37 f1 ef 2e b8 92 f1 fc b5 c0 4f 02 35
       1.5652147e-05 -4.1708296e-05 -1.8845769e-06 4.8544825e-07
0000a0 a2 3e 45 b7 ab 5f 70 37 fe c1 7b b7 f5 0a 28 37
       -1.1756698e-05 1.4327389e-05 -1.5005933e-05 1.00161315e-05
0000b0 98 1d 95 b6 78 89 b3 37 9d 82 9a b8 c3 14 9d b7
       -4.443991e-06 2.1402477e-05 -7.367621e-05 -1.8725526e-05
0000c0 24 c8 05 b6 50 1a 0d 38 71 73 0d 38 93 4d 0b 38
       -1.9935042e-06 3.3641525e-05 3.3724533e-05 3.321243e-05
0000d0 47 88 f9 b7 c7 c9 dd 36 4a 12 9f 37 ce 56 df 37
       -2.9746572e-05 6.609803e-06 1.8962794e-05 2.6624093e-05
0000e0 9a a7 2a b7 ab 8f a8 37 31 8d a3 b5 14 72 99 b6
       -1.0171812e-05 2.0094061e-05 -1.2185538e-06 -4.5730358e-06
0000f0 f1 8b 26 37 ac 87 bb 37 cc fc 85 b7 17 9f 13 b7
       9.926954e-06 2.2355314e-05 -1.5972553e-05 -8.798924e-06
000100 9d 31 50 36 a8 8f 93 b7 3f 5a 60 b7 fa ef b9 b7
       3.1023294e-06 -1.759066e-05 -1.33724525e-05 -2.2165466e-05
000110 99 36 f9 b6 4c b5 98 37 e5 5c 58 36 70 df f9 b6
       -7.4271343e-06 1.8204235e-05 3.224058e-06 -7.44679e-06
000120 7f 25 b8 b7 66 62 8b b5 83 96 2a b7 71 30 cb b6
       -2.195197e-05 -1.0384945e-06 -1.0167833e-05 -6.0555108e-06
000130 a0 6c b6 b7 38 71 37 36 bf 65 ce b6 9f 76 ef b6
       -2.1746673e-05 2.7335027e-06 -6.151123e-06 -7.1365644e-06
000140 90 45 8d 37 d6 ea 7e b7 dc a4 a8 37 ca c6 ce 36
       1.6840902e-05 -1.5194257e-05 2.010393e-05 6.1624205e-06
000150 75 02 04 37 2e 68 31 b7 d4 15 a1 37 5a ae f1 b6
       7.868385e-06 -1.0574278e-05 1.920286e-05 -7.202657e-06
000160 9d ec 07 b8 4d ef af 37 95 14 1b 37 0f 09 dd 37
       -3.240687e-05 2.0973059e-05 9.243512e-06 2.6349471e-05
000170 f7 e4 8d 37 ab 75 be b7 dc f6 e0 b7 12 eb 28 36
       1.691513e-05 -2.2704558e-05 -2.6817834e-05 2.517078e-06
000180 9f 1a fb b6 95 13 6a 36 f0 55 ec b6 9a 68 33 b7
       -7.483482e-06 3.4880115e-06 -7.0433525e-06 -1.0693586e-05
000190 d2 09 db 36 02 c3 f6 b6 b8 0e ae b7 42 dd 0d 37
       6.527852e-06 -7.354073e-06 -2.074927e-05 8.4557705e-06
0001a0 28 fb ef b6 34 29 86 37 21 96 49 38 ca a6 1e 35
       -7.1519935e-06 1.5993232e-05 4.8061953e-05 5.9102297e-07
0001b0 d4 de 6d b8 b5 85 1e b6 71 2f 8a 36 de 7d bd 36
       -5.6712728e-05 -2.3621662e-06 4.1182434e-06 5.647292e-06
0001c0 d3 f8 d7 36 26 41 3c 37 6a d1 a8 37 10 db df b5
       6.4364663e-06 1.1220842e-05 2.0124677e-05 -1.667855e-06
0001d0 d6 9c 06 b7 49 68 3c 38 4c 4f df 34 1b 06 ab b7
       -8.023539e-06 4.4919816e-05 4.1594683e-07 -2.0387632e-05
0001e0 f3 79 3e b6 8d 54 c9 36 0b 84 90 35 28 6d cc b8
       -2.838319e-06 6.00011e-06 1.0767266e-06 -9.74781e-05
0001f0 57 21 83 b7 84 61 87 b7 fe ff 01 b7 fe 63 bc 37
       -1.5631942e-05 -1.6138663e-05 -7.748602e-06 2.2457909e-05

convs.1.lin.weight f4 [128, 128]
000000 f5 88 54 bd 60 ff c8 3c 47 5a 64 bd 5d f4 5b 3d
       -0.051888425 0.024535835 -0.055750158 0.05369984
000010 a3 b2 58 3c 63 ed f0 3d 74 60 af bc 05 ba ab bd
       0.013226184 0.11764028 -0.021408297 -0.0838509
000020 94 f1 61 bd af e6 e7 bd 6b 7e 48 bd d1 e0 92 bd
       -0.055162027 -0.11323296 -0.048948687 -0.071717866
000030 15 43 f0 bd 94 00 1e be 31 e0 0b be 6b fc 88 3d
       -0.11731545 -0.15429908 -0.13659741 0.0668877
000040 b8 52 7e bd 79 73 ff 3d 7b bf 75 bd d4 ff 7b 3d
       -0.062090605 0.124731965 -0.059997063 0.061523274
000050 15 de b3 bd 44 f1 0d 3e 4e 90 dc 3c 31 d6 9c 3c
       -0.08782593 0.13861567 0.026924279 0.019145103
000060 33 94 59 3d 99 5f e4 3c 6d c0 62 bd 15 b0 20 3d
       0.05311985 0.027877616 -0.055359293 0.039230425
000070 d6 94 b2 bd b1 ba a6 3d 66 71 0b 3e 22 77 1b 3e
       -0.087197945 0.08141077 0.13617477 0.15182164
000080 78 7a 1e bd dd 3b 0b bd 06 5e 02 3e 0b 2e bf bd
       -0.038691014 -0.033992637 0.1273118 -0.09334954
000090 10 ce 2a 3d fe 74 10 3d d1 20 13 3e 32 a7 70 bd
       0.041700423 0.035267822 0.14367987 -0.0587532
0000a0 0f 00 04 3e ad b9 73 bc 63 e5 16 3e 73 3f 18 be
       0.12890647 -0.0148758115 0.14735942 -0.14867954
0000b0 bf 69 ad bd aa 9d eb bc e5 16 17 be 80 40 d3 bb
       -0.08467435 -0.028761704 -0.14754827 -0.006446898
0000c0 f5 ae e8 bd 25 30 be 3d 6b 84 00 3e a8 b2 84 bb
       -0.113614954 0.092865266 0.12550513 -0.004049618
0000d0 4f 60 b8 3d f8 16 9d 3d c0 6e 5f 3d 06 56 9e 3c
       0.090027444 0.076703966 0.05454898 0.019328129
0000e0 53 24 dc bd 32 f4 07 be 1c 79 5d 3d 7c a6 c5 bd
       -0.10749116 -0.13276747 0.054070577 -0.09650895
0000f0 7d a0 fc 3d 7a 0d e1 3c ab 1b a6 bd f9 29 92 bd
       0.12335298 0.027472246 -0.08110746 -0.07136912
000100 83 40 f9 3c 1e 22 2e bc 8c e6 ff 3d 15 85 5f bd
       0.03042627 -0.010628251 0.12495145 -0.054570276
000110 c2 d1 ba bd ef e8 17 be 7e da 09 3d 53 44 f0 bd
       -0.091220394 -0.14834951 0.033655636 -0.11731782
000120 30 b4 72 bc 13 c2 10 3e 0c f5 99 bd 62 75 0b 3e
       -0.014813468 0.14136533 -0.07517442 0.13618997
000130 2b f1 b3 3d d5 cf c2 bd 9b 7c b4 3d 6a f6 6b bd
       0.087862335 -0.09512297 0.08812829 -0.057608046
000140 98 c4 a4 3d 53 ca c7 bd e0 9f 38 3d 97 06 aa 3d
       0.0804531 -0.09755387 0.045074344 0.08302038
000150 8e e3 da 3d d3 ca 6e bd eb 45 c9 3d e4 2d de 3d
       0.10687934 -0.058298897 0.09827789 0.10848597
000160 41 a3 2a bd e3 64 ec 3d a7 a0 25 bd 3b c5 a9 bd
       -0.041659597 0.1154268 -0.040436413 -0.08289572
000170 e0 ac 32 3d ac 56 3e 3d 11 2d 15 be 85 76 66 bd
       0.043621898 0.046469375 -0.14567973 -0.056265373
000180 74 77 15 bd dc 0b c5 3d 02 a7 d6 ba 05 16 1c be
       -0.036490873 0.096214026 -0.0016376677 -0.15242775
000190 5b 61 82 3c 25 30 04 3d 51 3b 00 3d 28 8d 09 3e
       0.015915563 0.032272477 0.03130657 0.13432753
0001a0 bc d5 19 be 32 95 22 3c ce 22 b5 bd cd a2 87 bd
       -0.1502294 0.009923266 -0.08844529 -0.06622849
0001b0 bc 28 c2 bd fa 63 00 bd 12 52 13 be 19 45 15 be
       -0.09480426 -0.031345345 -0.14386776 -0.1457714
0001c0 14 04 dc 3d 6d 5f b6 3d ad 4e 89 bd 32 21 3a bd
       0.10742965 0.0890492 -0.06704459 -0.045441814
0001d0 e7 8c 74 bd 01 ef 01 3d aa 42 8b bd b4 da 8f 3d
       -0.059704687 0.031722073 -0.067998245 0.07024136
0001e0 c9 3a fc bb b8 9a 24 3d f5 50 90 bd 8b 89 ad bd
       -0.0076974374 0.040186614 -0.07046691 -0.084735
0001f0 cd a0 83 3d ac 7f df 3d b1 89 9b bd bf e7 b5 3d
       0.06427155 0.10913023 -0.07594622 0.08882093
000200 3b 56 bf bc cf 4a 14 3e 86 36 8e bd 13 08 07 3e
       -0.023356548 0.14481662 -0.06943993 0.13186674
000210 3f 70 6e 3d 41 16 f3 3d 3e ad 17 bc 24 9e d4 3d
       0.058212515 0.11869479 -0.009257613 0.103817254
000220 9f 1f 17 bc 09 89 a1 ba 36 13 cf bc 0d d0 43 3d
       -0.009223848 -0.0012324165 -0.025277715 0.047805835
000230 97 ba 23 3e 62 95 e9 3d 0e aa c3 bd 7c 70 70 bd
       0.15989147 0.11405446 -0.0955392 -0.058701023
000240 1a e7 b5 3d c0 59 87 bd 22 f2 21 bd 26 3b e8 3c
       0.0888197 -0.06608915 -0.039537556 0.028348517
000250 34 29 9f bd d7 40 f4 bd d9 b5 eb 3d 56 34 0d be
       -0.07771531 -0.1192643 0.11509294 -0.13789496
000260 61 06 a4 bd 42 17 6e 3d 11 d2 9b bc 64 cc 9f 3d
       -0.08009029 0.05812765 -0.019021066 0.07802656
000270 a7 85 d6 bc 95 25 b9 3b 9a 0d 10 bd 15 38 51 3d
       -0.026186777 0.005650232 -0.03516922 0.051078875
000280 93 6b 13 3d 29 6c 07 bd 50 74 c6 3d 8f 68 ac bd
       0.035991263 -0.033062134 0.096901536 -0.084183805
000290 f0 84 47 bd a0 63 ad 3c 60 77 a1 3d d2 1e 7d bd
       -0.048710763 0.021165669 0.07884097 -0.06179697
0002a0 9a 3d 4c 3c ec ee 00 be 5e 1c 7c 3d 4c f2 cd 3d
       0.012465859 -0.12591141 0.06155049 0.1005598
0002b0 7e 8f fe bd 20 f0 f2 bd ec 2b 61 3b 8c ee 0f 3e
       -0.12429713 -0.118622065 0.0034358455 0.14055842
0002c0 4f 7d 66 3d 61 63 d9 3d 9e 91 00 be e8 db ed 3d
       0.056271847 0.10614658 -0.12555549 0.116142094
0002d0 23 86 11 3e 0f 02 e5 bd e4 99 d8 3c 3a 4e ec bc
       0.14211325 -0.11182033 0.026440568 -0.028845895
0002e0 99 c6 13 3e da c6 95 bd d4 95 18 be 22 78 f2 bd
       0.14431228 -0.073133186 -0.14900905 -0.1183932
0002f0 53 22 02 3e 7d 2a 25 3d 49 0f 21 be 49 47 01 be
       0.12708406 0.040323723 -0.15728487 -0.1262485
000300 de 5c 98 3d 6b 99 b0 bd c8 a5 e1 bd fe aa 87 bd
       0.07439588 -0.08623012 -0.110179484 -0.06624411
000310 a4 e6 9d bd 80 34 cf bd b8 01 88 bd 90 74 90 3c
       -0.07710007 -0.101174355 -0.06640953 0.017633706
000320 65 e6 28 3d 61 56 fa 3d 32 e2 1a be ab 1d 12 bd
       0.041235346 0.12223507 -0.15125349 -0.035672825
000330 5b 0a 56 bd 16 30 ab bd fb e2 7b 3d ce f0 9e bd
       -0.05225597 -0.08358781 0.061495762 -0.077607736
000340 46 ee 79 bd 25 a6 fe bd 53 1a 56 bd c2 58 eb ba
       -0.06101825 -0.12434033 -0.0522712 -0.0017955529
000350 0a eb b9 bd d0 a0 01 bd a4 4b a8 bd 66 69 c9 3c
       -0.09078033 -0.031647503 -0.08217552 0.02458639
000360 bb ac 5c 3d e2 f2 a2 bd 14 9d 84 bd a6 54 83 bc
       0.053875666 -0.079564825 -0.06475273 -0.016031574
000370 c6 15 ba bd 84 4c 82 bd f2 65 8b 3d 42 25 8b bc
       -0.09086184 -0.063622504 0.06806554 -0.01698554
000380 fd 02 7f 3d 3b 04 f3 bb 52 2a 0e 3c db 6d ed bd
       0.06225871 -0.007416276 0.008677082 -0.11593219
000390 18 c6 d2 3b f7 27 0c 3e 86 2d 17 3e 85 78 fb 3d
       0.006432306 0.1368712 0.1476346 0.12278847
0003a0 d2 df 33 bd ef b5 49 bc 02 1d 0a 3e 4d 03 06 bd
       -0.043914624 -0.012311443 0.13487628 -0.03271799
0003b0 33 e2 16 3d 05 b3 cc 3c 5a a4 b9 3d d7 66 a2 bd
       0.036836814 0.024987707 0.09064551 -0.079297714
0003c0 ef 81 f0 3c df 22 13 be f7 08 34 bd d2 e8 8c 3d
       0.029358832 -0.14368771 -0.043953862 0.068803445
0003d0 db f7 32 3c 24 02 0d 3e 18 c5 f2 bd b5 f6 92 3d
       0.010923351 0.13770348 -0.11853999 0.07175962
0003e0 9e 7c 74 bc f2 a0 1a 3e 64 5b 04 3e 2e 45 02 3e
       -0.014922289 0.15100458 0.12925488 0.12721702
0003f0 6d b5 ba bd 72 0d 15 3e 50 a9 b9 bd a3 ee 82 bd
       -0.091166355 0.1455591 -0.09065497 -0.063931726

convs.2.bias f4 [128]
000000 98 0f 37 37 b9 e8 63 b7 22 4e ca 37 53 1e 5f 36
       1.0911281e-05 -1.3584439e-05 2.411666e-05 3.324724e-06
000010 f7 bb ae 36 f2 4d a0 35 d2 a0 3d b7 3d 4a 03 36
       5.207486e-06 1.1943614e-06 -1.1302722e-05 1.9563734e-06
000020 12 05 36 37 2a 46 fc 36 43 db 0b 37 2b f0 9c b6
       1.0849226e-05 7.5183534e-06 8.3360965e-06 -4.6771215e-06
000030 40 c2 61 37 23 95 ac b5 88 a3 41 37 c0 bf e6 b7
       1.3456272e-05 -1.2858403e-06 1.15417715e-05 -2.7507427e-05
000040 9c f5 57 35 13 a4 08 b8 50 6d 26 b7 d3 d3 81 37
       8.045115e-07 -3.2577733e-05 -9.919822e-06 1.5476637e-05
000050 20 07 30 b6 3b b6 30 37 f0 94 59 b8 ef f9 a4 37
       -2.623019e-06 1.0532846e-05 -5.187554e-05 1.9666708e-05
000060 82 32 db b5 bd 06 60 b8 07 9f 5b 37 13 26 6f 36
       -1.6331471e-06 -5.3412037e-05 1.3090444e-05 3.5635937e-06
000070 4a ca 6f b7 28 76 b1 b6 11 7e 9f 37 16 16 bf 36
       -1.4292609e-05 -5.2887663e-06 1.9012981e-05 5.6948147e-06
000080 44 0b 7f 37 4b 4f 8a 37 98 94 98 37 a3 1a 4c 37
       1.5201807e-05 1.6487806e-05 1.8189006e-05 1.2165549e-05
000090 d5 6c 16 36 d7 e8 d3 37 64 51 b4 b6 45 28 1f b7
       2.241509e-06 2.5261585e-05 -5.373893e-06 -9.4865145e-06
0000a0 6f 52 3d 36 d7 b0 d4 37 1f d7 bb b6 f8 3e 91 b7
       2.8211177e-06 2.5354717e-05 -5.5980777e-06 -1.731467e-05
0000b0 16 5d ed b6 e2 60 13 b7 ce 43 2f 37 1e 1d 03 36
       -7.073987e-06 -8.78444e-06 1.04466e-05 1.953747e-06
0000c0 bf 4c 4c 37 4d e0 a4 b6 6a 0a c8 36 71 1e bc 36
       1.2177216e-05 -4.913693e-06 5.961677e-06 5.6063805e-06
0000d0 5d 45 2d b7 ef 66 b4 b7 57 60 ca b6 fd a2 6e 36
       -1.0327753e-05 -2.1505604e-05 -6.0312846e-06 3.5559635e-06
0000e0 60 95 a0 b6 53 c2 8b b7 fe 7b 5f 36 59 7e b2 b6
       -4.785761e-06 -1.666058e-05 3.3301762e-06 -5.319522e-06
0000f0 7e 81 17 36 65 30 66 b7 c7 61 18 35 ea 45 74 38
       2.2576128e-06 -1.3720336e-05 5.67667e-07 5.8239246e-05
000100 02 e9 01 b8 4a 67 94 36 c1 53 00 b8 dd b7 5e 37
       -3.0973002e-05 4.422768e-06 -3.059558e-05 1.327504e-05
000110 a9 90 17 b8 9d a3 8b b8 b5 33 1d b7 db 8c 8a b7
       -3.613593e-05 -6.658512e-05 -9.369968e-06 -1.6516473e-05
000120 24 37 d6 37 89 d5 b7 36 05 2d 65 b8 08 7b 4b 37
       2.5536465e-05 5.4786838e-06 -5.4639782e-05 1.2128388e-05
000130 64 74 c8 b6 33 f7 d7 b6 af 40 36 37 a1 aa 4c 37
       -5.974014e-06 -6.436277e-06 1.0863106e-05 1.2199075e-05
000140 ce c2 dc b6 85 c5 05 33 a2 b9 ff 36 4a 63 0c b7
       -6.579189e-06 3.114612e-08 7.6212027e-06 -8.367768e-06
000150 81 9d 07 37 86 72 83 37 35 75 91 35 5b 83 b4 37
       8.083299e-06 1.5669746e-05 1.0837454e-06 2.151884e-05
000160 93 17 d4 36 52 f4 bd b5 fb d3 a1 37 44 f0 85 37
       6.3208367e-06 -1.4152704e-06 1.9291407e-05 1.5966718e-05
000170 1f a5 f1 b5 ef 41 bf b8 6c 6a 05 b6 af 73 c9 36
       -1.8003956e-06 -9.119871e-05 -1.988049e-06 6.003734e-06
000180 3a 54 b8 37 42 8b 08 38 53 a4 66 b7 80 59 4a b5
       2.197373e-05 3.255462e-05 -1.3747328e-05 -7.5381104e-07
000190 dd a8 0b b8 c3 ac 99 36 cd 5d d3 36 da 3e 85 b5
       -3.329745e-05 4.5798674e-06 6.29921e-06 -9.927564e-07
0001a0 db 95 6b 37 1a 3e 49 37 14 bc 79 b7 a6 45 85 37
       1.40419825e-05 1.1994993e-05 -1.4885347e-05 1.5887268e-05
0001b0 db d2 7d 35 df b1 38 b7 dd e7 d8 b5 ec 6e 02 b8
       9.455668e-07 -1.10086685e-05 -1.6160735e-06 -3.109772e-05
0001c0 5c 14 ec b5 39 7c b4 b6 00 d5 44 b7 ce 38 52 b6
       -1.7589296e-06 -5.3788795e-06 -1.1732103e-05 -3.1325503e-06
0001d0 2a 90 8d 38 e8 f0 cc 36 16 72 8c 37 a5 21 10 37
       6.7502566e-05 6.107719e-06 1.6742426e-05 8.590902e-06
0001e0 20 6d 2f 37 a0 48 06 36 50 81 19 b7 40 69 1c 37
       1.04562205e-05 2.000983e-06 -9.149619e-06 9.32283e-06
0001f0 54 cd 82 36 c1 fe 84 37 66 21 61 b7 75 a2 49 b6
       3.8982053e-06 1.5854255e-05 -1.3418821e-05 -3.0045896e-06

convs.2.lin.weight f4 [128, 128]
000000 ed 85 c3 3c 50 51 cd bd 44 b5 03 3e 45 f2 c3 3d
       0.023867572 -0.10025275 0.12862116 0.095676936
000010 c1 03 88 bd 16 ad 06 be 87 1f 07 3e 46 a3 f9 bd
       -0.06641341 -0.13151965 0.1319562 -0.12189345
000020 b6 44 1a 3d 90 d9 07 bd 71 e6 2b bc 19 0e 15 3e
       0.037663184 -0.03316647 -0.010491953 0.14556159
000030 9f eb cc bd 20 b8 b4 bc 09 36 88 bd 24 15 97 3c
       -0.10005879 -0.022060454 -0.066509314 0.018442698
000040 63 cf 1a 3e f3 c8 06 3d aa fc 12 be 5c 58 f9 3d
       0.15118174 0.032906484 -0.14354196 0.12175056
000050 54 61 1b be 42 6a 14 be e2 d7 e9 3d 7a b4 0b be
       -0.15173846 -0.14493659 0.114181295 -0.13643065
000060 32 ce 6f 3d 12 03 c3 3c dd f4 cf 3b e4 f1 0b 3e
       0.058546253 0.023805175 0.0063463286 0.13666493
000070 93 9f ca bd 63 07 13 3e 18 e7 c6 3b d5 ec 2f 3d
       -0.098937176 0.14358287 0.006070029 0.04295047
000080 ed 6d 12 3e 09 db 6b 3b 8b 39 5b 3d d1 7a e9 bc
       0.14299746 0.003598871 0.053521674 -0.028500946
000090 82 9a a6 bd 92 f5 7d 3d e6 3a 0d be 72 04 d5 bc
       -0.08134939 0.062001772 -0.13791999 -0.026003096
0000a0 59 84 d9 3d 93 a7 a8 ba e9 15 f5 3d 3a 8a 07 be
       0.106209464 -0.0012867324 0.1196707 -0.13236323
0000b0 21 eb 78 3c ab 73 97 3d 3d b2 02 be 52 e5 34 3d
       0.015192778 0.07395109 -0.12763305 0.04416401
0000c0 14 2f 88 3d 1f c2 ff bd bb a2 82 bc 35 5d c6 bd
       0.066496044 -0.124881975 -0.015946737 -0.096857466
0000d0 8e 5d 9f bd ed cd 12 be 10 35 d1 bd ee 50 1b 3c
       -0.07781516 -0.14336367 -0.10215199 0.009479744
0000e0 93 d1 42 bd e0 ab 15 3d 38 70 87 bd dd 0f ef 3d
       -0.047563147 0.036540866 -0.06613201 0.116729476
0000f0 31 b1 e2 3d 74 08 4f 3d 87 07 e9 3c 3f b2 3c bd
       0.11068953 0.05054517 0.028445972 -0.046068426
000100 0f ed f6 3d 39 21 18 3d 42 80 37 3d d0 b4 0a be
       0.12056934 0.03714106 0.04480005 -0.13545537
000110 4b 70 a0 bd 8c a2 d4 bc 3b 05 a4 3d 97 50 c4 3c
       -0.07833918 -0.025956415 0.0800881 0.02396421
000120 2d 33 36 3d 92 93 a7 3d d9 f1 03 be 99 32 f5 bd
       0.0444824 0.08182444 -0.12885226 -0.11972541
000130 a0 78 ba bc 1d d5 e7 3d 82 89 d2 3d 16 40 82 3d
       -0.022762597 0.11319945 0.10280134 0.0635988
000140 bd 79 da bd cf bc d9 bd 2a 4b 21 3d 0f 40 0a 3d
       -0.10667751 -0.106317155 0.039378323 0.033752497
000150 af 63 d2 bd 5a 56 fb 3d da c2 e4 bc a6 3c 43 bc
       -0.102729194 0.1227233 -0.027924944 -0.011916315
000160 2e f3 cf 3b ac 6e 0f 3e da 75 1a be d5 ad 0e be
       0.006346128 0.14007062 -0.1508402 -0.13933499
000170 30 9e 16 3d 21 47 10 bd 51 2f 9b bd 1d d7 a6 bc
       0.036771953 -0.035224084 -0.07577384 -0.020366246
000180 dc d3 44 3c ef 64 c8 3d 61 ea 89 3d ca 9f a9 3d
       0.012013402 0.097848766 0.06734157 0.082824305
000190 47 3a 56 bc 8f 3c 40 bc a6 c5 04 be a7 76 c7 bd
       -0.013075418 -0.011733188 -0.12966022 -0.09739428
0001a0 dd bd 40 3d ee 54 1a 3e 3e d2 bc 3c 49 e4 bb bd
       0.047056068 0.1507146 0.02304947 -0.09174401
0001b0 00 f1 32 3c 15 d1 b8 bd e4 e6 9e bd 68 f3 4e bd
       0.010921717 -0.09024254 -0.07758883 -0.0505251
0001c0 22 22 4f 3d 8b 71 c2 3c 3b 7f 74 3c fc b0 17 be
       0.05056966 0.023735782 0.014922912 -0.14813608
0001d0 ee 9c f2 bd 96 92 9e bd e4 f3 82 3c 5a 6c dc bd
       -0.11846338 -0.07742803 0.015985437 -0.10762854
0001e0 6a a4 eb bd 4a e9 04 3e ae 3c 19 bb 73 7c 2f 3d
       -0.11505969 0.12979618 -0.0023382115 0.042843293
0001f0 39 91 8d 3d 52 9d 00 be 5c 45 2a bb 00 10 85 3d
       0.06912465 -0.12560013 -0.0025981283 0.064971924
000200 24 0a 8e 3d 66 9d 05 3c ec 4d 4e 3b f3 07 84 bd
       0.06935528 0.0081552025 0.003147955 -0.06446829
000210 19 01 25 3d c4 a9 9f ba 2b 76 c2 3d 71 3b d9 bc
       0.04028425 -0.0012181331 0.09495195 -0.026517602
000220 55 9f 19 3e 3f e3 af 3d c9 09 18 bd b0 1f 23 be
       0.15002187 0.08588266 -0.037118707 -0.15930057
000230 95 8c de 3d f2 11 14 3e f4 05 59 bd 50 e1 ba bd
       0.10866658 0.1445997 -0.052984193 -0.09125006
000240 1a 7b 3f 3d 7a e1 09 bd 8e 6f 16 39 f9 ca ed 3c
       0.04674826 -0.033662297 0.00014346672 0.029027449
000250 82 51 f0 3d ed ee 12 be 3e 90 c1 3d cf b8 09 be
       0.117342964 -0.14348955 0.0945134 -0.13449405
000260 d4 8e 4d bc b1 66 be 3d e5 1b 4b 3d 51 0e fa bd
       -0.01254626 0.092969306 0.04958715 -0.12209762
000270 ae dd 3f bd 8f b0 96 3d 1b 1b 03 3d e9 7b ed 3d
       -0.04684227 0.07357895 0.03200827 0.115958996
000280 e4 09 17 3e d8 bf ca bd ab 33 3d 3d 57 47 0d 3e
       0.14749867 -0.098998725 0.046191853 0.13796745
000290 5f be f7 3d 1a 3f df 3d de 9a d0 bd 35 cb 04 bb
       0.12096857 0.109007075 -0.101857886 -0.0020262722
0002a0 7f 23 64 bd 01 61 ea 3d 27 cf fb 3d 64 2b da bd
       -0.055697914 0.11444283 0.122953705 -0.10652807
0002b0 ad 09 f4 3d ae 91 0b 3d 7e 91 9a bd 93 f4 02 be
       0.11915908 0.034074478 -0.07547282 -0.1278861
0002c0 a6 b8 9b 3d 4b b7 31 bd 57 65 37 3d be f2 d9 bd
       0.07603578 -0.043387692 0.04477438 -0.106420025
0002d0 95 33 10 bb 11 37 87 bd cf c9 c2 3d b6 39 e9 3d
       -0.0022003402 -0.066023 0.09511148 0.113879606
0002e0 fb 42 c5 bc d6 b5 df 3d f6 74 ff bc 1b 2f c1 3d
       -0.02407979 0.10923354 -0.031183701 0.09432813
0002f0 cf af 00 3c a5 8e 88 bd d4 68 c9 bd 56 0b 9d bd
       0.007854416 -0.06667832 -0.098344475 -0.07668178
000300 20 43 94 3d 67 a9 bd bc df f4 96 bc ac ff 30 bd
       0.072393656 -0.023152066 -0.01842731 -0.043212578
000310 13 40 55 3d 7a 41 f2 bc cb 4c a0 bc 37 ea 13 3e
       0.05206306 -0.029572237 -0.019567868 0.14444815
000320 62 bd aa bd 57 c1 31 3d 7f 00 08 3e 19 f4 10 3d
       -0.08336903 0.043397274 0.13281439 0.03538904
000330 b7 15 af bd cf 86 cd bd 1e bc 01 be 60 30 a5 bb
       -0.08549064 -0.10035478 -0.12669417 -0.005041167
000340 fb b9 c5 3d 9c 44 81 bd 48 f4 25 bd 73 c4 d3 3b
       0.096546136 -0.06311914 -0.040516168 0.0064626276
000350 7f 1f 8c 3d f4 09 16 bd e6 dc b1 3c 21 08 13 3e
       0.06841945 -0.036630586 0.021711778 0.1435857
000360 00 c9 0c be 6a 2d 00 bd 1a f0 a1 3d 64 15 da 3c
       -0.1374855 -0.03129331 0.07907124 0.026621528
000370 b7 7f 59 bc 72 29 a0 bd 5e 85 69 3d 63 15 8c 3d
       -0.0132750785 -0.07820405 0.057011954 0.06840017
000380 6f 45 f6 bd 5a 99 2e 3d f7 20 76 3d d5 7a 46 3c
       -0.12024962 0.042626716 0.06009003 0.012114246
000390 7c 73 b3 bb 83 9d 5f bd 3c ce 53 bc d6 9f c1 3d
       -0.0054764133 -0.054593574 -0.012927588 0.094543144
0003a0 1b ed f5 3c f8 e5 1b 3e cf 8d 7d bc 6d 54 e0 bd
       0.030020287 0.15224445 -0.015475704 -0.10953603
0003b0 34 cc 9f 3d 83 98 30 bd 65 bd 87 3c d5 a7 08 3d
       0.078026205 -0.043114197 0.016569803 0.033363182
0003c0 45 ae d1 3b 5f 0d 9b 3c f9 dc 46 bd 81 b8 7b 3d
       0.0063989484 0.018927274 -0.04855058 0.061455254
0003d0 06 33 89 bd 9f 44 86 bb 85 a0 0d 3e d5 f0 ca 3c
       -0.06699185 -0.0040975357 0.13830765 0.02477304
0003e0 77 29 1b bd 85 ae c8 3d 5e 8c 2e bb d5 10 97 bd
       -0.03788134 0.09798912 -0.0026633958 -0.07376257
0003f0 6e b6 6e 3d 14 ee d8 3d 91 2e e0 bd 57 4e 56 bd
       0.058279447 0.10592285 -0.10946382 -0.052320804

bns.0.weight f4 [128]
000000 49 87 80 3f 19 3e 81 3f 1a 7e 7f 3f 83 37 7e 3f
       1.0041286 1.0097076 0.9980179 0.99303454
000010 30 ae 80 3f 90 23 80 3f 35 ae 80 3f 99 e0 7e 3f
       1.0053158 1.0010853 1.0053164 0.9956146
000020 7c 3a 80 3f 86 37 81 3f 15 bd 7c 3f be ae 7f 3f
       1.0017848 1.009507 0.98726016 0.9987601
000030 49 e1 7e 3f 13 59 80 3f a5 b3 7f 3f 69 f4 7f 3f
       0.9956251 1.0027183 0.9988349 0.99982315
000040 ec dd 7c 3f 4b f6 7f 3f e7 0c 7f 3f 82 51 80 3f
       0.98776126 0.9998519 0.9962906 1.0024874
000050 5f c0 7d 3f 79 4d 7d 3f 81 88 7f 3f 1e 48 80 3f
       0.9912166 0.9894634 0.99817663 1.0022008
000060 7e 17 81 3f 2b 17 80 3f b6 f4 7f 3f 86 f6 7e 3f
       1.0085294 1.000707 0.99982774 0.99594915
000070 23 0c 7f 3f 16 22 80 3f 88 48 80 3f 7b 19 7f 3f
       0.99627894 1.0010402 1.0022135 0.99648255
000080 d1 b0 80 3f dd bc 7e 3f dd 55 7e 3f 32 29 80 3f
       1.005396 0.9950693 0.99349767 1.0012572
000090 be 8b 80 3f 5b 87 7f 3f 76 4a 80 3f 66 56 80 3f
       1.0042646 0.9981591 1.0022724 1.0026367
0000a0 fc 81 7d 3f 59 05 81 3f db ba 81 3f c6 7c 80 3f
       0.99026465 1.0079757 1.0135149 1.0038078
0000b0 d3 9b 7f 3f 3d 67 80 3f 51 02 7f 3f 58 b9 80 3f
       0.99847144 1.0031506 0.9961291 1.0056562
0000c0 f9 35 7e 3f f2 cc 80 3f b9 27 81 3f 08 98 7e 3f
       0.99301106 1.0062544 1.0090247 0.9945073
0000d0 35 4b 7e 3f e1 42 7e 3f 7c 09 7f 3f f5 95 80 3f
       0.99333507 0.993208 0.99623847 1.0045763
0000e0 5a cb 7e 3f 21 5f 7d 3f 27 0e 7f 3f 6c 00 80 3f
       0.9952904 0.9897328 0.9963097 1.0000129
0000f0 ff ea 7e 3f 3e be 80 3f c1 db 80 3f 88 08 81 3f
       0.99577326 1.0058057 1.0067064 1.0080729
000100 c3 14 7f 3f 9c 56 81 3f e4 da 80 3f 88 3e 80 3f
       0.99641055 1.0104556 1.00668 1.0019083
000110 df 6f 7f 3f 02 7e 7f 3f 3e b0 7e 3f e0 6b 81 3f
       0.99780077 0.9980165 0.99487674 1.0111046
000120 95 4f 80 3f 49 b1 80 3f 48 82 7e 3f dc 85 7d 3f
       1.0024287 1.0054103 0.99417543 0.9903238
000130 a9 b7 7f 3f 0c d0 7f 3f 75 35 81 3f d9 84 80 3f
       0.9988962 0.9992683 1.0094439 1.0040542
000140 78 72 80 3f a2 4d 80 3f dc 78 7f 3f fe 99 80 3f
       1.0034933 1.0023692 0.9979379 1.0046995
000150 77 ad 80 3f 95 00 80 3f eb 18 80 3f 43 41 80 3f
       1.0052937 1.0000178 1.0007604 1.0019916
000160 0e e1 81 3f fc 7e 80 3f 5f cc 80 3f 3f 8d 7e 3f
       1.0146806 1.0038753 1.0062369 0.99434274
000170 13 11 80 3f 1e 58 7e 3f d6 e4 7f 3f 4b 6c 80 3f
       1.0005211 0.99353206 0.9995855 1.0033048
000180 28 db 7e 3f a9 19 7f 3f cb db 80 3f 3c b9 7f 3f
       0.99553156 0.9964853 1.0067075 0.9989202
000190 e9 a1 7f 3f 40 fd 7d 3f 95 af 80 3f 2c 95 81 3f
       0.9985643 0.99214554 1.0053583 1.0123649
0001a0 df 59 80 3f 13 a3 80 3f a8 28 80 3f d1 49 7f 3f
       1.0027426 1.0049766 1.0012407 0.9972201
0001b0 7f 3b 80 3f f1 fc 7f 3f df 07 80 3f 1c 24 80 3f
       1.0018157 0.9999533 1.0002402 1.001102
0001c0 51 67 7f 3f 1d 2e 80 3f 0c 14 80 3f 82 c8 7e 3f
       0.99767023 1.0014073 1.0006118 0.995247
0001d0 b9 05 80 3f e6 38 7d 3f de d7 80 3f 79 e1 7f 3f
       1.0001746 0.98914945 1.0065877 0.9995342
0001e0 43 e7 7e 3f 55 3c 80 3f d0 96 7d 3f 94 bf 7e 3f
       0.9957163 1.0018412 0.99058247 0.99511075
0001f0 e6 73 80 3f de 84 7e 3f cc 5d 80 3f ab c5 7f 3f
       1.0035369 0.9942149 1.0028625 0.9991099

bns.0.bias f4 [128]
000000 ed 1a 95 3a 84 8d 59 3c e1 07 3f bb cb 66 00 bc
       0.0011375822 0.013278369 -0.0029148983 -0.007837008
000010 09 c9 fa 3a f1 b5 fc ba 07 b5 8c 3b 0d 08 3e bb
       0.00191334 -0.0019280297 0.004294041 -0.0028996498
000020 55 c7 1f 3b 70 0a e4 3b a3 0a 09 bc bc 31 22 bb
       0.0024380286 0.006959252 -0.008364352 -0.0024748882
000030 ef b8 86 bb e9 69 e8 3b d1 07 e0 ba bf ef 60 3b
       -0.0041114013 0.0070927036 -0.0017092173 0.0034322587
000040 2e 84 d8 bb e9 55 42 3b b2 d1 52 bb a4 e2 8a 3b
       -0.006607554 0.0029653257 -0.0032168445 0.0042384434
000050 8f 2c 28 bc 0c ac 1c bc 3a 16 42 bb b6 6f 60 3b
       -0.01026453 -0.009562504 -0.00296153 0.0034246272
000060 3e 81 18 3c a0 0a cc 36 2a dc 4e ba e2 6b 0b 39
       0.0093081575 6.0809107e-06 -0.00078910834 0.00013296262
000070 3c 42 fc ba 7d 70 ba b9 5c fa 68 3b 83 18 51 3b
       -0.0019245814 -0.00035560495 0.0035549616 0.003190548
000080 37 d8 d5 3b eb 0b a7 3a 74 ba ba bb cb d0 26 3b
       0.006526019 0.0012744641 -0.0056984965 0.002545404
000090 7a 51 84 3b ec 9d 9b 39 bf 2d e0 3a f3 be 93 3b
       0.004038033 0.00029681565 0.0017103477 0.004508847
0000a0 ff f0 a7 bb 7f fb 34 3c 9e 16 ed 3b 8b 21 23 3b
       -0.0051251645 0.0110462895 0.007235362 0.002489182
0000b0 da 51 9b bb 3a 5c 2b 3b dd 70 2d bc 7a 4d fb 3b
       -0.004739982 0.00261475 -0.010585991 0.007669148
0000c0 e2 77 d3 ba 84 69 48 ba 21 65 be bb 7a 9a db bb
       -0.001613375 -0.00076451176 -0.0058103953 -0.0067017647
0000d0 7d 48 0a bc 22 eb 61 bb 88 f6 14 bc 71 58 ca 3a
       -0.008440134 -0.0034472425 -0.009091981 0.0015437735
0000e0 3c dd 9b bb 19 d0 3a bc 04 24 c0 3a 2c f0 8c 3b
       -0.004756598 -0.011402153 0.0014659171 0.0043010917
0000f0 b6 36 09 bb 39 1d 06 3c 11 3f 2a 3c ae 79 4e 3b
       -0.0020937151 0.008185678 0.010391013 0.0031505632
000100 4d 80 fc 3a 47 7c 1e 3c 1d d9 42 3b c9 4a bb bb
       0.0019264311 0.009673185 0.002973146 -0.005715702
000110 d3 9f c4 ba 5d c4 2b bb de c3 bc bb aa 1c 69 3a
       -0.0015001245 -0.002620957 -0.005760654 0.0008892516
000120 b4 0f ca 3a 86 8e b2 3b 86 97 3c 3b 6c fb a8 bb
       0.0015416057 0.005449119 0.0028776838 -0.005156925
000130 11 82 b1 b9 4b 98 ae bb 24 fa cc 3a aa 7e 73 3b
       -0.00033856978 -0.0053282133 0.0015638513 0.0037154355
000140 8a f4 95 3b ed ed 6c 3b e3 7f ae bb e4 ab 0f 3c
       0.0045762705 0.0036152557 -0.005325304 0.008769009
000150 22 2f 06 3c 3e c1 37 3a 91 1d c9 ba 62 35 cb 3b
       0.008189948 0.00070096913 -0.0015343894 0.006201432
000160 35 21 59 3c e3 6e 90 3b c1 be ea 3b 86 46 29 bc
       0.013252546 0.00440775 0.007163853 -0.0103317555
000170 15 bb 5e 3b 53 86 df bb 3b 60 1b bb 88 4d 82 3b
       0.0033986021 -0.0068214326 -0.002370848 0.0039765276
000180 0b 43 eb ba f5 0a a7 bb 3d 4d 12 3c 3e fc 8d 39
       -0.0017949058 -0.0050977417 0.008929548 0.0002708155
000190 be d0 0c bb 34 8b bc bb 67 51 13 3c ed d0 c6 3b
       -0.0021486725 -0.005753899 0.008991576 0.0060673864
0001a0 5d c3 68 3b fb 0b 97 3b 09 23 31 39 74 1a 69 39
       0.0035516836 0.0046095825 0.00016893087 0.00022230466
0001b0 c4 68 a3 3a 4b 1e 23 3b 37 f6 0b bb 55 55 21 bb
       0.0012467136 0.0024889882 -0.0021356472 -0.0024617512
0001c0 28 ff 8f bb d6 c3 b0 b9 d6 7e ce 3a 88 b9 34 bb
       -0.0043944307 -0.00033715245 0.0015754353 -0.0027576406
0001d0 3c 23 4d bb ed cd 09 bc 0d ca 88 3a ec 16 55 3a
       -0.003130152 -0.008410913 0.0010436192 0.0008128721
0001e0 9c b8 88 b9 ca 64 88 ba 5a f2 fa bb b6 c3 2f bc
       -0.00026077486 -0.0010406014 -0.007658285 -0.0107278135
0001f0 05 77 29 3a 6a 21 36 bb e3 fe 7a 3b 26 f4 83 bb
       0.00064645737 -0.0027790912 0.0038298897 -0.0040269075

bns.0.running_mean f4 [128]
000000 90 a1 25 bd e3 43 8b 3e 56 cc ee bd 77 d6 23 be
       -0.04043728 0.2720023 -0.11660068 -0.1599978
000010 40 08 15 3e 09 bb c3 bd 25 bf d9 3b eb c2 f1 bb
       0.14553928 -0.095571585 0.0066451007 -0.0073779724
000020 c3 2b 98 bc 21 ef cc 3d 96 74 0e be 3b a2 be bd
       -0.018575555 0.10006548 -0.13911662 -0.09308287
000030 b7 41 6b be 57 e0 22 3d 44 0f ee 3d c0 c8 e2 3d
       -0.22974287 0.03976473 0.116240054 0.11073446
000040 33 e2 7e 3e 66 41 9f bd 13 d9 28 be 5b 2a 19 be
       0.24890976 -0.07776146 -0.16489057 -0.14957564
000050 46 4e 21 be 02 48 51 3d 8e 13 6f bc 82 b9 33 be
       -0.15752515 0.051094063 -0.014592065 -0.17551234
000060 ed 89 cf bd f5 dd 5f 3e 5e bb da bc 2f 29 af bd
       -0.10133729 0.21862014 -0.026700672 -0.08552777
000070 b1 1d 2f 3d 60 2f 1e bd a9 0b 5d 3e 61 19 40 be
       0.042752925 -0.0386194 0.21586479 -0.18759681
000080 0f e6 34 3e 0a ce 1b 3d 6c 0f 03 3e d8 3a 80 3d
       0.17665885 0.03803829 0.12798852 0.062612236
000090 63 1e 18 bd 2b bf 35 be 66 ff ab bd 2e c0 49 be
       -0.037138354 -0.17748706 -0.08398323 -0.19702217
0000a0 f4 56 d2 bc 15 b6 3f 3c a5 dc d6 bc 3a 8c 1f be
       -0.025676228 0.011701127 -0.026228258 -0.15580836
0000b0 18 61 e8 bc ca ea aa 3c b1 14 07 be 88 e6 da bd
       -0.02836661 0.02086391 -0.13191487 -0.106885016
0000c0 01 18 15 be f4 e2 2f 3e ec 46 9e 3d c4 61 20 be
       -0.14559938 0.1717642 0.07728371 -0.15662295
0000d0 12 00 3b 3e db e0 e1 bd d7 dd 9b 3d 2c b7 a2 3c
       0.18261746 -0.11029216 0.07610672 0.019862734
0000e0 90 f1 d8 3d c4 1b 82 be ad cd 21 3e d1 d3 47 bd
       0.105929494 -0.25411808 0.15801115 -0.04878599
0000f0 43 2f 1a 3d 79 63 c4 bd 05 bc 98 bc 69 89 ee 3d
       0.03764273 -0.095892854 -0.018644342 0.11647303
000100 64 23 ea 3d 2e 8f 66 bd 7a c7 35 3e 81 94 ae bd
       0.114325315 -0.05628889 0.17751876 -0.085244186
000110 e2 97 3d 3c e5 f5 b9 bd 55 2c 97 3d 03 96 49 3d
       0.011571856 -0.09080104 0.073815025 0.049215328
000120 c8 ab 03 3e 3a df e2 3d c5 80 f3 3d 0d 5f 3b be
       0.12858498 0.11077733 0.11889795 -0.18297978
000130 9f d4 22 3d 6f 60 a6 bb b5 47 39 3d ed 04 02 3e
       0.039753553 -0.0050774137 0.0452344 0.12697192
000140 4d 0d 0f bd ba 8c e1 3d c5 ec f1 bd 6a bf e4 bd
       -0.034924794 0.110131696 -0.11812738 -0.11169322
000150 a2 47 94 3d 40 1d 81 3e 51 bb f8 3c 9d 39 a1 bd
       0.072402254 0.25217628 0.030362757 -0.07872317
000160 3f af cc 3c 83 63 59 bc dd 0c 9f 3d 80 25 7e bd
       0.024985908 -0.013268354 0.07766125 -0.06204748
000170 13 32 30 3e b3 76 3e bd 56 52 1e 3e 59 b6 83 bd
       0.17206602 -0.04649992 0.15461096 -0.064312644
000180 e0 25 62 3d 24 f1 9c bc 89 c6 47 bd 15 8e 81 3e
       0.0552119 -0.019157954 -0.048773322 0.25303712
000190 b7 c8 9b bb 92 78 be 3d ab 49 6f be e8 4c e3 3c
       -0.0047541517 0.09300341 -0.23367946 0.027746633
0001a0 10 96 9a bd 25 15 b0 bd 87 0d ae 3d 79 ab 07 be
       -0.075481534 -0.08597783 0.08498674 -0.13249005
0001b0 fe 83 c9 bd e6 3a 2a be fa 28 23 be a4 8e 0f 3e
       -0.09839629 -0.1662403 -0.159336 0.14019257
0001c0 b6 da 16 be fa bf ed bd d1 5b 56 3e 05 d0 4b be
       -0.14731869 -0.11608882 0.20933463 -0.19903572
0001d0 d4 9c 0b 3e f9 89 0f 3e 70 7a d3 3c 49 3f 87 bc
       0.13634044 0.14017476 0.025815219 -0.016509669
0001e0 f4 f4 fe bd 4e ee f7 bc 26 07 e5 bc a3 6c 9d 3d
       -0.12449065 -0.030265 -0.02795751 0.076867364
0001f0 84 2d ee 3d 66 b6 c2 3e e4 bf 13 be 1e 34 3c 3d
       0.11629775 0.38029784 -0.14428669 0.04594814

bns.0.running_var f4 [128]
000000 09 10 22 3b ac fd bb 3c b3 6b 6c 3b 26 f8 96 3b
       0.0024728796 0.022948109 0.0036074936 0.0046072183
000010 e8 de 4b 3c 5a d1 a1 3c 7f cc d5 3b f8 e2 09 3c
       0.012443282 0.019753147 0.006524622 0.00841593
000020 f6 9d a1 3b 78 30 a0 3b a6 10 49 3c 01 c4 d3 3b
       0.0049321605 0.0048885904 0.012272036 0.0064625745
000030 26 4a 96 3b 02 d7 3a 3c fd 0e 30 3b 09 71 88 3b
       0.004586476 0.011403801 0.0026864402 0.0041638655
000040 bb f6 92 3b d6 dd 86 3b ad 76 ca 3b 56 9e 26 3c
       0.004484979 0.0041158004 0.006178698 0.010169586
000050 30 99 2f 3c 29 cd ce 3b 9d 6d 55 3c dc 65 38 3c
       0.010717675 0.006311078 0.013026622 0.011254754
000060 2e 75 76 3b f7 9d 16 3b 47 e5 18 3c ec 41 01 3c
       0.0037606466 0.0022982338 0.009332008 0.007889252
000070 7e 3a 4f 3a 2d e2 60 3c 41 d6 80 3b 58 f0 a1 3b
       0.00079051394 0.0137257995 0.003931791 0.0049419813
000080 c3 02 1c 3c 49 14 f9 3a cb 97 f6 3b fc e9 8c 3b
       0.009522143 0.0019003238 0.0075254194 0.004300354
000090 3f 10 07 3b b7 24 a9 3b b1 ae 32 3c ba c5 e4 3a
       0.0020609049 0.0051618475 0.0109059075 0.0017453947
0000a0 30 50 3c 3c ce 2c d4 3b a6 2f 80 3b e0 56 cb 3a
       0.011493728 0.0064750677 0.00391193 0.0015513562
0000b0 3f e3 cb 3b be 13 cd 3b 61 11 c9 3b 8a cb 24 3c
       0.006222158 0.006258457 0.006136105 0.010058293
0000c0 e1 2a d5 3b 47 f7 5c 3b 2b e9 23 3b 60 8d 50 3c
       0.0065053557 0.0033716725 0.0025010805 0.012729019
0000d0 f4 7a 11 3c 45 06 6c 3b b0 87 4c 3c b2 37 10 3c
       0.008879412 0.003601448 0.012483522 0.008802341
0000e0 cb af 0d 3c 83 38 51 3b 2b 95 d5 3b 57 49 19 3c
       0.008647869 0.0031924553 0.0065180263 0.0093558645
0000f0 62 59 94 3b 5a 56 90 3b 77 93 bc 3a 08 47 a0 3b
       0.004527257 0.004404825 0.001438721 0.00489128
000100 4f 82 ee 3b 0b 19 22 3b b2 af 66 3c 59 87 78 3b
       0.0072787176 0.0024734165 0.014079975 0.003792247
000110 82 db f1 3a 46 5f 86 3b cc a5 dc 3b 9b fd 5c 3c
       0.0018452259 0.004100713 0.0067336317 0.013488199
000120 b4 c0 b8 3b ae e6 b7 3b cb 84 2b 3c 57 67 09 3c
       0.0056382064 0.005612216 0.010468672 0.008386455
000130 71 b6 19 3c c8 ad 22 3b 15 0f 68 3b 15 7b 0f 3b
       0.009381876 0.002482282 0.003540938 0.002189343
000140 50 0b cf 3b 9d 87 95 3b d8 55 c9 3b a2 2a 86 3c
       0.006318487 0.0045632855 0.0061442666 0.01637775
000150 24 0a 54 3b ef a2 8f 3b 51 fb 08 3c 1d ea 27 3c
       0.0032354677 0.004383437 0.0083607 0.010248688
000160 28 35 86 3b e3 f2 bc 3b e3 84 d6 3b 32 12 72 3b
       0.004095692 0.005766259 0.006546603 0.0036937115
000170 75 ee 00 3c 69 6e 43 3c 40 0e 18 3c 75 d1 c1 3a
       0.007869353 0.011928179 0.009280741 0.0014787155
000180 63 6f d7 3b ab fb 19 3c a3 ea 59 3b 71 ff 6a 3c
       0.0065745576 0.009398381 0.0033251427 0.014343129
000190 2e 34 00 3c 8a e4 a0 3b b5 02 5f 3c b8 61 67 3b
       0.007824941 0.0049100565 0.013611485 0.0035306048
0001a0 03 e4 1f 3c b4 41 a6 3b 5a 43 3c 3c 41 e4 64 3c
       0.009758952 0.0050737504 0.011490667 0.013970436
0001b0 2a 73 0b 3c 06 97 05 3c a4 05 09 3c ba 64 cf 3b
       0.008511344 0.008153683 0.008363161 0.006329146
0001c0 6f 8e 50 3c ae 18 12 3b 72 b4 06 3c 86 cb 37 3c
       0.012729271 0.0022292542 0.008221732 0.011217957
0001d0 7e df 2f 3c f9 ca 27 3c 21 3d df 3b 7c 3f c3 3b
       0.010734437 0.010241264 0.006812707 0.0059584957
0001e0 8d 1d c9 3a 3c 09 93 3b d3 f7 35 3a d4 a7 27 3c
       0.001534389 0.004487185 0.0006941531 0.010232884
0001f0 71 d0 b6 3b 18 e1 86 3c 2e 98 b6 3c e2 a3 aa 3b
       0.0055790474 0.016464755 0.022289362 0.0052075246

bns.1.weight f4 [128]
000000 db 05 81 3f 4f db 80 3f 9f 2c 7f 3f 71 89 7f 3f
       1.0079912 1.0066928 0.9967746 0.99819094
000010 46 bc 7f 3f 70 02 80 3f a6 af 7f 3f 86 eb 80 3f
       0.9989666 1.0000744 0.99877393 1.0071876
000020 a7 7c 7e 3f f6 b1 80 3f 9f db 7d 3f 2c 2d 81 3f
       0.99408954 1.0054309 0.9916324 1.009191
000030 26 3e 7e 3f ae a9 80 3f 9d 91 81 3f 27 c1 80 3f
       0.9931358 1.0051782 1.0122563 1.0058945
000040 66 9a 80 3f 4f 8c 80 3f 22 a9 7e 3f d8 2b 81 3f
       1.0047119 1.0042819 0.99476826 1.0091505
000050 68 b8 7e 3f 94 8c 7e 3f 89 69 7f 3f 49 3b 7e 3f
       0.9950013 0.99433255 0.9977041 0.9930921
000060 a7 9b 7f 3f b8 8a 7e 3f 6c 20 80 3f 43 bd 80 3f
       0.9984688 0.9943042 1.0009894 1.0057758
000070 93 67 80 3f 66 ca 7e 3f f2 62 81 3f f8 70 7f 3f
       1.0031608 0.99527586 1.0108321 0.9978175
000080 05 20 80 3f ca 1a 81 3f 30 96 80 3f 27 59 7f 3f
       1.0009772 1.00863 1.0045834 0.9974541
000090 94 61 7f 3f 7c 7b 80 3f 57 0f 80 3f ae 1d 80 3f
       0.9975827 1.0037684 1.0004681 1.0009058
0000a0 5d 31 7f 3f 4e fd 7f 3f d8 dd 7d 3f ba d9 7f 3f
       0.996847 0.9999589 0.9916663 0.999416
0000b0 07 a5 7f 3f 5b 7a 80 3f f2 dc 7e 3f 57 e0 80 3f
       0.99861187 1.003734 0.99555886 1.0068463
0000c0 c0 46 7f 3f be 91 80 3f 34 53 80 3f e0 16 81 3f
       0.9971733 1.0044477 1.0025392 1.0085106
0000d0 7b 2b 7e 3f dd 9e 7f 3f 9b e3 7f 3f a0 64 7e 3f
       0.99285096 0.9985178 0.99956673 0.9937229
0000e0 27 d5 7d 3f 10 8a 80 3f 21 a7 7e 3f 86 21 80 3f
       0.9915337 1.0042133 0.9947377 1.001023
0000f0 88 3c 80 3f af 9e 80 3f ac 5e 7f 3f c6 49 7e 3f
       1.0018473 1.0048426 0.9975383 0.9933132
000100 aa 87 7f 3f 15 e5 7d 3f dc 56 7f 3f 73 f2 80 3f
       0.9981638 0.99177676 0.9974191 1.007399
000110 0e 18 80 3f e3 77 7f 3f 32 ac 7d 3f 84 d6 7d 3f
       1.0007341 0.9979231 0.99090874 0.9915545
000120 09 a4 7f 3f 79 5b 80 3f 5a 0f 80 3f b7 2b 7f 3f
       0.9985967 1.0027915 1.0004685 0.9967608
000130 13 aa 7f 3f 82 cc 7f 3f 01 e8 7d 3f 30 f6 7d 3f
       0.9986889 0.9992143 0.99182135 0.9920378
000140 0c 1f 80 3f f8 3e 80 3f f3 f7 7f 3f b7 1f 80 3f
       1.0009475 1.0019217 0.99987715 1.0009679
000150 07 05 80 3f 0a 3d 7f 3f 5d 96 80 3f 28 e7 7f 3f
       1.0001534 0.99702513 1.0045887 0.9996209
000160 96 ee 80 3f f5 db 7d 3f 44 17 7d 3f ce 91 81 3f
       1.0072811 0.9916375 0.98863626 1.0122621
000170 59 cb 7f 3f 25 ec 80 3f 33 24 7f 3f 05 74 7e 3f
       0.9991966 1.0072066 0.9966461 0.9939578
000180 4d 91 7f 3f ef 61 80 3f de f1 7e 3f 56 bf 7f 3f
       0.99831086 1.0029887 0.9958781 0.9990133
000190 f6 5d 7d 3f 0c 05 80 3f c3 df 80 3f a4 58 7f 3f
       0.989715 1.000154 1.0068287 0.9974463
0001a0 88 45 7e 3f 2e 5d 7f 3f 64 78 7f 3f 24 65 7f 3f
       0.99324846 0.99751556 0.99793077 0.99763703
0001b0 ef db 80 3f 02 33 7f 3f 88 57 80 3f aa 66 81 3f
       1.0067118 0.99687207 1.0026712 1.0109456
0001c0 f0 10 80 3f 4b 32 7f 3f 75 43 80 3f 1d 91 80 3f
       1.0005169 0.99686116 1.0020586 1.0044285
0001d0 66 09 80 3f ec 4d 80 3f d5 0f 80 3f 5a 67 7e 3f
       1.0002868 1.002378 1.0004832 0.9937645
0001e0 9a c8 7d 3f 7e 27 7f 3f 63 24 81 3f 27 0f 81 3f
       0.9913422 0.99669635 1.0089229 1.0082749
0001f0 d9 5e 7d 3f b7 c8 80 3f fa 35 7f 3f c9 19 80 3f
       0.9897285 1.0061253 0.99691737 1.0007869
