MY_GNN/trained_models/rg/model_Rg_fold2.pt (torch, 562650 bytes, 23 tensors)

convs.0.bias f4 [128]
000000 f3 ed ae b8 32 55 ab b8 a5 c5 4c b9 06 89 03 39
       -8.341288e-05 -8.169784e-05 -0.00019528584 0.00012544179
000010 1a b5 05 b9 a9 2b 40 b7 84 cd b0 39 67 aa 22 b9
       -0.00012751334 -1.1454257e-05 0.00033722457 -0.00015513004
000020 30 ae 18 38 cd 1b 1b 39 f7 6d 98 b9 76 56 64 38
       3.640185e-05 0.00014792309 -0.0002907363 5.443996e-05
000030 0b 9e b6 38 1e 2e f7 b8 48 34 71 b9 aa 99 08 3a
       8.707874e-05 -0.00011786468 -0.00023003027 0.0005210886
000040 9d 17 11 39 8b bd 3e b8 5d 25 81 38 d9 c7 a7 39
       0.00013837074 -4.5476056e-05 6.158159e-05 0.0003200162
000050 b6 e8 8c b6 b7 fe be b7 48 82 b8 39 28 31 18 39
       -4.1994163e-06 -2.2768376e-05 0.00035192282 0.00014514162
000060 67 1f f6 b9 87 a4 ed 36 79 92 72 38 75 a5 8e 39
       -0.00046944173 7.082304e-06 5.783371e-05 0.00027207626
000070 17 48 8b 39 3b 2f 02 3a 76 01 6b 39 e9 26 64 b9
       0.00026565857 0.00049661443 0.0002241189 -0.0002175827
000080 5d 0b 03 ba d4 b8 0e b9 62 01 3b ba 64 a5 92 39
       -0.00049989467 -0.00013611029 -0.000713369 0.00027970516
000090 37 d0 d0 b6 97 ee 3d b8 3e 77 96 b8 02 9e bb 38
       -6.2231225e-06 -4.5283316e-05 -7.174768e-05 8.946286e-05
0000a0 11 37 34 39 7d 62 47 3a b2 b2 57 b9 58 a5 5a 39
       0.00017186652 0.00076059235 -0.00020570567 0.00020851695
0000b0 e9 98 3d b8 37 68 59 39 51 23 f4 38 71 cd c1 39
       -4.520352e-05 0.00020733556 0.00011641405 0.00036964894
0000c0 80 6a d9 39 f5 4f b0 38 14 96 81 3a 89 04 fc 39
       0.00041468814 8.407227e-05 0.0009886646 0.00048068565
0000d0 57 ca d3 38 87 f7 9d b7 a0 e0 72 39 43 72 12 b9
       0.00010098953 -1.8831122e-05 0.00023162598 -0.00013966211
0000e0 eb c7 0f 3a aa 40 06 b9 08 d6 0a b9 f4 02 45 39
       0.0005484807 -0.00012803325 -0.00013240438 0.00018788484
0000f0 2c 14 4f b9 f7 20 07 ba 78 53 6a 37 f3 b9 68 39
       -0.00019748573 -0.00051547535 1.3966921e-05 0.00022194516
000100 a9 b2 97 38 55 bf 9a 39 26 bb 3c 38 de c9 e9 b7
       7.233519e-05 0.00029515722 4.499699e-05 -2.7869766e-05
000110 91 1e 38 b9 44 92 20 39 1e e4 31 b7 22 3b b8 b8
       -0.00017558994 0.00015313277 -1.0603135e-05 -8.784818e-05
000120 bd ff 6b 38 6a 94 f3 38 77 43 6a 39 86 fd 2a 39
       5.626654e-05 0.00011614787 0.00022341112 0.00016306908
000130 33 c2 a4 b7 b5 ee 40 b9 fc 26 e2 38 50 3d 20 38
       -1.9640755e-05 -0.00018399472 0.00010783781 3.8204074e-05
000140 6e d6 c2 38 db ed 50 b9 f8 8a b6 b8 ce 4d 56 b8
       9.2905815e-05 -0.00019925034 -8.704321e-05 -5.1094037e-05
000150 6b 3f 2a 3a 66 98 06 b7 b6 1a 6f 38 a8 0a 6a 3a
       0.00064944354 -8.022505e-06 5.7006917e-05 0.00089279795
000160 a7 b2 3e 38 84 a4 8b 39 a7 bd 02 39 59 a8 74 b7
       4.5465913e-05 0.0002663472 0.00012468417 -1.458273e-05
000170 1b 14 ab b8 70 1f a8 39 7f 8b 0b ba e0 d1 06 b9
       -8.15766e-05 0.0003206688 -0.0005323216 -0.0001285742
000180 7d c7 94 37 40 7e 9a 38 53 ec 32 b9 19 7e 8b b9
       1.7735869e-05 7.366808e-05 -0.0001706344 -0.00026606096
000190 e1 78 d0 39 80 66 aa 39 e6 bd b9 37 c6 e6 ab b9
       0.00039762913 0.00032501295 2.2142147e-05 -0.000327876
0001a0 3d 22 06 b7 bd 87 9f b9 2b 0d db b8 08 2c f3 b8
       -7.994994e-06 -0.00030427976 -0.000104451865 -0.000115953444
0001b0 dd d8 a0 b8 c9 b1 d9 39 09 77 c2 39 69 cf 8d b9
       -7.6697885e-05 0.00041521926 0.00037091252 -0.00027048148
0001c0 a9 b8 6f b7 d0 0f 2b 39 19 86 26 b8 35 ec 15 38
       -1.4288505e-05 0.00016313721 -3.9702372e-05 3.5744353e-05
0001d0 48 01 93 39 cc 3a 2c 39 57 fe 87 39 f6 96 87 37
       0.0002803898 0.00016425102 0.00025938704 1.616355e-05
0001e0 8d 0e 9a b8 70 76 b9 b8 76 3c 44 ba 90 29 a2 b6
       -7.3460025e-05 -8.843548e-05 -0.0007485816 -4.8328147e-06
0001f0 26 98 b6 b8 f2 6f c6 38 42 b5 e3 38 f9 71 1f ba
       -8.706776e-05 9.462227e-05 0.000108579654 -0.0006082352

convs.0.lin.weight f4 [128, 19]
000000 b8 df b5 bd 38 fe 03 3e c8 b3 2c 3d 99 aa 39 be
       -0.088805616 0.12889946 0.04216364 -0.18131484
000010 b9 c3 1e be 43 79 38 3e 51 41 1b be 4a 9f fe 3c
       -0.1550435 0.18015008 -0.15161635 0.031081814
000020 68 e1 36 3e 01 84 71 3d 09 88 35 3e b5 1e e3 bd
       0.17859423 0.05896378 0.17727675 -0.11089841
000030 d1 e6 de 3d 85 00 a8 bd 03 31 05 be ee 4f 01 3e
       0.108838685 -0.08203224 -0.13006978 0.12628147
000040 d7 d6 9e bd 2b e6 0b 3e c5 42 1e be 53 c3 39 3d
       -0.07755821 0.13662021 -0.15455158 0.04535229
000050 77 fe 4f 3c 36 fa eb bd 8f 3b c7 3d bc 0e 12 be
       0.0126949465 -0.11522333 0.09728157 -0.14263433
000060 d1 07 5b 3d eb 20 41 be fa b0 a1 bd c0 4f 02 be
       0.05347425 -0.18860213 -0.07895084 -0.12725735
000070 a1 2e 31 3d 32 1d 85 bd 8d 2e 8f 3d 83 f8 bc 3d
       0.04325736 -0.06499709 0.06991301 0.09227087
000080 ee d2 01 bd e8 39 e7 bd b9 39 52 3d ca 11 2c bc
       -0.0316953 -0.112903416 0.05132458 -0.010502288
000090 15 76 80 3d f8 f0 87 b9 13 0a de 3b 2c 6e 49 be
       0.06272522 -0.00025928742 0.0067761033 -0.19670933
0000a0 31 5d 0d 3d 8f 33 3d 3e f9 de bc bd 37 65 a0 bd
       0.034512702 0.184767 -0.09222216 -0.07831805
0000b0 6d 35 18 be 26 54 18 3e 11 14 0a bc 74 46 9f bc
       -0.1486413 0.1487585 -0.008427636 -0.019442774
0000c0 f0 d1 01 be 38 67 06 3e 8e 5b 93 bd 70 51 48 be
       -0.12677741 0.13125312 -0.07195197 -0.19562316
0000d0 f6 0e f2 3d 7d d3 ee bd 86 c3 94 bd 40 44 49 3e
       0.1181926 -0.11661432 -0.07263856 0.19654942
0000e0 3e 7c ad bd 3e 63 12 3e 8d dd 10 be 6d 4b f4 3d
       -0.08470963 0.1429567 -0.14147015 0.11928449
0000f0 8e a9 a6 3d 98 d8 c0 bd e8 b2 d7 38 f5 d1 d6 bd
       0.08137809 -0.09416312 0.00010285323 -0.10489265
000100 2e d4 e9 3d 62 5b cd 3d 02 4f 38 be 63 1d 17 be
       0.11417423 0.100271955 -0.17998889 -0.14757304
000110 da 2d 3e bc 71 09 58 bc b1 b9 bc 3d e0 6d 65 3d
       -0.011607612 -0.013185845 0.09215105 0.056012988
000120 1f cd 20 3e 17 d5 39 be d3 e0 0c bc de b7 94 3d
       0.15703247 -0.18147694 -0.008598524 0.072616324
000130 24 d0 f3 3c 3e b5 0b bc 79 88 dd bc d2 de 21 be
       0.029762335 -0.008527098 -0.027042614 -0.15807655
000140 4c 85 9f 3d c3 d7 50 be 16 e0 b7 bd 03 e0 0f 3e
       0.07789096 -0.20394807 -0.08978288 0.14050297
000150 da 05 1a be c8 90 34 3e e4 83 47 3e 71 32 4c 3b
       -0.15041295 0.17633355 0.19483906 0.0031157995
000160 ee 8d 19 be ec d2 3a 3e 3e 49 3d be 82 56 44 3e
       -0.14995548 0.18244523 -0.18484971 0.19173625
000170 79 86 e3 3d cb 61 2b 3e 97 29 3a 3e 6a ae 4a 3e
       0.11109633 0.16736524 0.18179928 0.19793096
000180 87 3d 3e be d6 77 e9 bd d2 c3 34 3c b8 e8 b3 3d
       -0.18578158 -0.1139981 0.011033015 0.08784622
000190 d3 cb a2 3d 26 66 47 ba 92 5b 3c 3e a9 f6 32 3c
       0.07949033 -0.0007606469 0.18394306 0.010923066
0001a0 07 fb 33 3d 5e 6e 1a 3d 52 15 96 ba 6b 90 6e bd
       0.04394057 0.03770291 -0.0011450446 -0.058243196
0001b0 c3 6b 04 3e 1f 21 cd bd 80 11 9e bd 1d f6 1f 3e
       0.12931733 -0.10016083 -0.077181816 0.15621229
0001c0 ef 13 45 3d 6c b0 aa bd ce e0 e1 bc cd 54 ee bd
       0.048114713 -0.08334431 -0.027573016 -0.11637268
0001d0 df 9d 12 3e ee 5e 4a bd 69 bd 9d bd aa e2 1d 3e
       0.14318036 -0.04940694 -0.07702143 0.15418497
0001e0 57 ba 3f 3e a3 da 9b bd 34 0d d0 3d ca 53 a5 3d
       0.18723427 -0.07610061 0.10158768 0.08072622
0001f0 8a b3 f1 bd 7d 87 41 bd a4 7e 66 bc 8c 36 c8 3d
       -0.118018225 -0.047248352 -0.014068279 0.09776029
000200 eb f3 df bd 3d f2 f9 3a 5d 72 8b 3b 41 e2 40 3d
       -0.109351955 0.0019069385 0.0042555765 0.047090773
000210 2c 74 03 be 9b a5 32 bd ba f9 a5 bd fc a8 9c 3d
       -0.12837285 -0.043614965 -0.08104272 0.07649419
000220 ce 5d fb bd fd 5f 9c bd 8a f2 49 3c c9 56 15 3d
       -0.12273751 -0.07635496 0.012325892 0.036459718
000230 e4 86 d1 3d 3e 49 cb bd ac d9 15 be 4b 99 01 3c
       0.102308065 -0.09926079 -0.14633816 0.007910083
000240 0c af b2 3d 70 08 22 3e a4 64 9b bd 88 c0 6c 3d
       0.08724794 0.15823531 -0.07587555 0.0578008
000250 6e 7b f7 bd 2c a2 97 3d 64 62 95 bd f4 27 c6 3d
       -0.12084089 0.07403979 -0.07294157 0.09675589
000260 be 2c d4 3d 96 b7 df 3d 3f 89 9e bd c5 05 fb bd
       0.103600964 0.10923688 -0.07741021 -0.1225696
000270 a8 30 d5 3c 3d db 1e 3e 1a bc bb bd c8 b4 f1 3c
       0.026024178 0.1551332 -0.09166737 0.029505149
000280 b8 21 57 3d a4 3b b9 bc 61 30 06 3d f6 e3 41 3e
       0.05252239 -0.022611447 0.03276098 0.18934616
000290 c1 3a 8b bb 57 cd c7 bd f7 5f 9b 3d e7 41 03 3e
       -0.0042489474 -0.09755962 0.07586663 0.12818108
0002a0 ef 29 4d 3e 1e 58 3c 3e 83 6f 8f bd 63 88 0f be
       0.20035528 0.18392989 -0.07003691 -0.14016871
0002b0 40 4c ce bd 15 7f 5a 3d d4 81 ac 3d 07 4a 23 be
       -0.10073137 0.05334385 0.084232 -0.15946208
0002c0 68 32 04 bc 15 76 6e 3d 5c 5b 80 3d f1 69 f1 b9
       -0.008068658 0.05821808 0.062674254 -0.00046046035
0002d0 22 b1 03 be c1 0c 01 bd 27 dd 07 3e cf eb 1e 3e
       -0.1286054 -0.031506304 0.13267957 0.15519641
0002e0 e5 36 51 bc c3 5a 7f bd fb 79 d1 3d 2f 4f 67 3d
       -0.0127694355 -0.062342416 0.10228344 0.056472
0002f0 25 12 b3 bd 29 e9 fc bd 70 45 fb 3d 1a 29 32 be
       -0.08743695 -0.12349159 0.122691035 -0.17398492
000300 a7 ba a8 bd 94 ba a2 3d ea 64 0b bc 57 de a9 3d
       -0.08238726 0.07945743 -0.0085079465 0.08294361
000310 9a 31 c0 bd 39 46 81 bd 0f 1e e3 bd 88 70 44 be
       -0.09384461 -0.06312222 -0.110897176 -0.19183552
000320 1e cf 06 3d 21 d3 0f 3e 21 20 86 3d c9 df 85 bd
       0.032912366 0.14045383 0.06549097 -0.06536824
000330 7f f8 96 bc cb 5c de bd f7 f5 52 bd 00 32 3e 3d
       -0.018429039 -0.108575426 -0.0515041 0.046434402
000340 f4 fc 20 3e a8 b2 ad 3d e9 81 16 be 16 a6 ff bd
       0.15721494 0.084813416 -0.14697994 -0.1248285
000350 2a 38 3b be 68 96 fc 3d bd 96 0e bd 9d bb 9b 3d
       -0.18283144 0.12333375 -0.034811724 0.07604144
000360 69 47 b8 3d 2c d1 04 be f5 6f 63 3d 42 56 f7 3d
       0.089979954 -0.12970418 0.055526692 0.12076999
000370 b5 48 09 3e 99 34 b4 bc 53 25 3b 3e 40 76 64 3d
       0.13406642 -0.021997737 0.18275957 0.055776834
000380 38 e9 b2 bd 1f f8 16 3e 53 7c 40 3e 5e b7 b6 bc
       -0.08735889 0.14743088 0.18797426 -0.022304233
000390 fa b7 24 be c8 02 99 bd 6c 8f f3 bb 77 ac 29 be
       -0.16085806 -0.074712336 -0.0074328687 -0.16569696
0003a0 b0 2b 07 be bc d2 f2 bb e5 8e 94 bb 6b e7 94 3d
       -0.13200259 -0.0074103754 -0.004533636 0.07270702
0003b0 95 ed c5 bd 08 80 3d be 80 d8 ed bd 2e fe 4b 3e
       -0.09664456 -0.18505871 -0.1161356 0.1992118
0003c0 02 88 b0 3c d7 fc ff 3c 7f 0a bc bd d7 e8 e4 3d
       0.021549229 0.031248493 -0.091816895 0.11177223
0003d0 d4 2d 43 3e a1 54 e8 bd 8e 75 4b 3e 27 26 48 3e
       0.19060451 -0.11344267 0.19869062 0.19545804
0003e0 24 c3 3a be 92 8b f8 bd c3 b1 32 be ea 66 ac bc
       -0.18238503 -0.12135996 -0.17450623 -0.021045167
0003f0 4f 6c 24 be 38 fc 18 bd 08 95 8c 3d a7 99 bd 3d
       -0.16056941 -0.03734991 0.06864363 0.092578225

convs.1.bias f4 [128]
000000 90 3d e4 b6 39 ad 9a 37 c6 41 11 b7 61 92 11 b7
       -6.8020963e-06 1.8438894e-05 -8.657988e-06 -8.676755e-06
000010 37 e0 1d b8 15 e5 94 36 34 d3 2f 37 70 27 9e 37
       -3.7640533e-05 4.4374124e-06 1.0479987e-05 1.8853432e-05
000020 a4 19 2d b8 15 b5 4a 37 fe f0 ff b5 d6 6e 15 b8
       -4.1270294e-05 1.20823e-05 -1.9069118e-06 -3.5627592e-05
000030 fd ff 0f b7 92 7b 1b 37 82 f0 4b 37 ad cb 60 37
       -8.583066e-06 9.267491e-06 1.21557405e-05 1.3398862e-05
000040 e4 9e 60 b5 b7 14 8f b7 62 99 e3 b6 be 7c 1c b8
       -8.367772e-07 -1.7056575e-05 -6.7829833e-06 -3.7309474e-05
000050 1e 66 12 37 e3 20 b6 36 21 6a 8e b7 b9 31 be 35
       8.726054e-06 5.427851e-06 -1.697714e-05 1.4170574e-06
000060 71 67 99 b5 87 cf 38 36 3b 92 f6 36 82 64 06 b8
       -1.1429494e-06 2.7538933e-06 7.348395e-06 -3.2041695e-05
000070 a7 39 58 b6 29 ce 31 38 33 2d 86 34 4d 8b 7a b6
       -3.2220066e-06 4.239209e-05 2.4992332e-07 -3.7333987e-06
000080 b8 50 9e 37 d9 c5 5e 33 24 38 37 b7 16 fd 04 b6
       1.8872655e-05 5.1868344e-08 -1.0920721e-05 -1.9816848e-06
000090 af 6f c4 36 34 6d a1 36 e4 db 48 b8 fd 7b a1 b6
       5.854257e-06 4.810887e-06 -4.7888505e-05 -4.812608e-06
0000a0 ef b4 ef b6 43 d8 5a 37 7d c3 e4 b6 7c ca 0e 36
       -7.1438185e-06 1.3044165e-05 -6.8176873e-06 2.127751e-06
0000b0 73 a4 9b 37 e4 7b 19 b7 d3 ef 55 37 66 27 06 b7
       1.8554018e-05 -9.148356e-06 1.2751628e-05 -7.996196e-06
0000c0 56 63 84 38 4f 15 d3 b6 e7 43 cc 37 d0 9e 10 36
       6.312753e-05 -6.2907707e-06 2.4350315e-05 2.1550113e-06
0000d0 79 14 c0 b5 36 71 db b7 2f ef de 37 e4 5b 47 b2
       -1.4311073e-06 -2.6159552e-05 2.657584e-05 -1.1604218e-08
0000e0 5c 62 00 b8 67 3d 3d b7 28 8b b2 36 b0 dd 26 b7
       -3.0609182e-05 -1.1279574e-05 5.3210133e-06 -9.945987e-06
0000f0 98 cc cc 36 d4 de 95 38 d7 42 d7 b7 7f 9b be b7
       6.1034916e-06 7.1463786e-05 -2.5661122e-05 -2.2722174e-05
000100 84 65 c7 b6 fc dc 5d 36 80 c9 c5 b6 fb 26 e2 36
       -5.94248e-06 3.3060196e-06 -5.894515e-06 6.739863e-06
000110 b3 e9 b5 36 47 bb e1 37 3c 9b fb 37 15 11 03 36
       5.4214265e-06 2.6909298e-05 2.9993818e-05 1.9530464e-06
000120 37 03 3e 37 c1 fa a9 37 47 af d9 36 15 ab 71 37
       1.1325631e-05 2.0263136e-05 6.487509e-06 1.44045525e-05
000130 1c 28 a8 b6 d6 ab 88 37 b5 d7 37 b6 fe 01 a1 37
       -5.0114595e-06 1.629248e-05 -2.7394683e-06 1.9193623e-05
000140 6b c7 03 37 f4 d6 80 35 dd 7f 94 b7 c3 76 86 38
       7.854639e-06 9.599303e-07 -1.7702516e-05 6.411739e-05
000150 74 0c 05 37 62 a2 98 37 5f 44 a0 35 e0 69 99 b7
       7.930317e-06 1.8195427e-05 1.1940828e-06 -1.8288323e-05
000160 d7 87 1b b8 25 4d 0e b6 7a ef 4d 36 79 79 85 37
       -3.708139e-05 -2.1204553e-06 3.0686774e-06 1.59114e-05
000170 73 1d 64 b6 5a 3b be b6 09 9a 46 b6 97 f7 dc b6
       -3.399179e-06 -5.6693507e-06 -2.959396e-06 -6.585334e-06
000180 7d 92 00 38 17 ea 9c 37 63 61 e1 36 27 a1 37 b7
       3.0654006e-05 1.8705656e-05 6.71686e-06 -1.0945171e-05
000190 a7 b2 56 b7 8e 71 ad 37 c8 56 1d 36 89 ec 32 37
       -1.279699e-05 2.0676085e-05 2.3445336e-06 1.0664699e-05
0001a0 a0 e3 b6 b7 a2 e2 c8 b6 2a ee da 37 f9 8f e6 36
       -2.1802087e-05 -5.986848e-06 2.6098529e-05 6.8712948e-06
0001b0 97 19 d0 b6 bc 1f 78 37 59 8d f8 b8 e0 4a 03 b6
       -6.201862e-06 1.4789341e-05 -0.000118518896 -1.9564104e-06
0001c0 60 bb dd b7 e9 4f d3 b5 1a 56 78 b7 99 25 af b7
       -2.6432506e-05 -1.5743982e-06 -1.4801999e-05 -2.0879133e-05
0001d0 9a 0a 19 b7 0f ca 9d b7 45 4e fb b7 33 54 d0 b7
       -9.121979e-06 -1.880995e-05 -2.9957979e-05 -2.483474e-05
0001e0 8f 07 34 b6 a6 d9 ad 36 2c 12 cf 36 ba 70 ce 37
       -2.682649e-06 5.1811394e-06 6.171196e-06 2.4609606e-05
0001f0 51 b0 31 b6 72 56 85 34 1f 86 5b 37 33 40 8b 37
       -2.6477685e-06 2.4836078e-07 1.3084645e-05 1.6599986e-05

convs.1.lin.weight f4 [128, 128]
000000 b0 7a 8e bd 5f 78 c9 3c 96 35 d5 3d 2e 78 f7 3d
       -0.069569945 0.02459353 0.10410611 0.12083469
000010 28 7a 58 3d 69 ce 48 bd 9f cb 01 bd 22 f8 a5 bd
       0.052850872 -0.049024973 -0.03168833 -0.08103968
000020 20 d9 0d bd 97 ad a7 3d de 43 d0 bd 09 64 b1 3c
       -0.034630895 0.081874065 -0.10169195 0.021654146
000030 5c ed 1d 3e 41 fe e6 3d 7d cb 1b be f8 4b 87 bd
       0.15422577 0.11278964 -0.15214343 -0.06606287
000040 f4 4b 50 3c 65 42 ca bd f8 7e 14 3e 75 33 0f 3e
       0.012713421 -0.09875945 0.1450156 0.13984473
000050 ff 77 e9 bd 62 0f 90 3d 30 10 0e 3d 9c b0 c6 bc
       -0.113998406 0.07034184 0.034683406 -0.024254136
000060 cd c5 b4 3d 38 5e f9 bc f2 bb e8 3c 6a 92 b6 3d
       0.0882679 -0.030440435 0.028409932 0.08914645
000070 98 5e dd 3d bd 38 08 be 61 78 48 bd 09 e1 09 3c
       0.10809058 -0.13302894 -0.048942927 0.008415469
000080 e4 88 a5 3d 20 cc 05 3d 2c 2e 55 3d 73 93 ed 3c
       0.080827504 0.032665372 0.052045986 0.029000973
000090 2f c7 0d 3e 60 b2 95 3d 47 56 04 3e 97 32 f8 3d
       0.13845514 0.07309413 0.12923537 0.12119024
0000a0 b9 50 e8 bd 96 92 cc bd 4d a7 08 be 5f a2 8c bc
       -0.113435216 -0.099888965 -0.1334507 -0.017167268
0000b0 d2 b0 38 3d dd 7a 00 be 56 cb 96 bb 8f 89 3d bd
       0.045090504 -0.12546869 -0.0046018763 -0.046273764
0000c0 b5 b0 c1 bd 62 6c 96 3d 14 9b ad 3d 09 b9 d8 bd
       -0.09457532 0.07344891 0.084768444 -0.10582168
0000d0 ef dc 0c 3e 84 80 0c be 21 17 98 bc b9 e7 92 bd
       0.13756154 -0.137209 -0.018565716 -0.07173104
0000e0 24 6b df 3d d7 1e 4e bc af 60 87 3d 1e 00 87 3c
       0.10909107 -0.012580595 0.06610238 0.016479548
0000f0 d7 a6 aa 3d bb 31 98 bd 6e e4 e3 bb 23 a0 0e 3e
       0.083326034 -0.0743136 -0.006954721 0.13928275
000100 d1 e3 da 3c f4 be b8 bd de 60 a8 3c ec 2d be 3d
       0.02671996 -0.090207964 0.020554002 0.09286103
000110 3e 88 8d 3d b3 57 00 be d9 dc e0 bd 13 2b e0 bd
       0.06910752 -0.12533455 -0.10979623 -0.10945716
000120 c7 b2 0b 3e dd e2 ae bd 10 45 84 39 12 6d 31 bc
       0.13642417 -0.085393645 0.00025228458 -0.010829227
000130 97 e8 eb bd a3 16 c7 bd 07 68 60 3d 4e d8 ae bd
       -0.11518972 -0.097211145 0.05478671 -0.085373506
000140 42 0b bc 3d d3 1d 87 bb d9 75 70 3d a2 16 ef 3d
       0.09181835 -0.0041234284 0.05870614 0.11674239
000150 45 f2 0a bd 29 51 09 be c8 aa 18 bd 3d 7d e2 bd
       -0.033922452 -0.13409866 -0.037272245 -0.110590436
000160 87 ef 95 3d 75 30 5b 3d f8 e8 27 bd e6 30 12 be
       0.07321077 0.05351301 -0.04099366 -0.14276466
000170 34 09 19 3d 44 06 c9 3c 59 34 c3 3d a9 96 80 3b
       0.037362292 0.02453912 0.09531469 0.00392421
000180 bf 55 be 3d f0 59 41 3d 1e 6a 8a 3d f6 4f 0a 3e
       0.092936985 0.04720491 0.067585215 0.13507065
000190 6c 32 4c bd 69 b5 ea bd 89 f6 6e 3d 68 aa 12 3e
       -0.049852774 -0.114603825 0.058340583 0.14322817
0001a0 02 4a 0d be 1a ab 5f bd b6 c5 c2 ba 45 f3 e8 3d
       -0.13797763 -0.054606535 -0.0014859948 0.11374525
0001b0 33 3f 98 3d 87 ec 39 bc a9 82 0c 3e 80 f7 4b 3d
       0.07433929 -0.011347896 0.13721718 0.04979658
0001c0 cb f8 fa 3d b8 5a 02 be 19 67 27 bd 27 83 c0 bc
       0.12254485 -0.12729919 -0.040869806 -0.023500038
0001d0 da 01 c9 3b 85 cc 0d bd 0f 22 01 bd 93 7d 0e 3d
       0.006134254 -0.034618873 -0.03152662 0.034787726
0001e0 ab 64 ee bb 24 d1 91 3d 96 a6 1b 3e 5c 9c 72 bc
       -0.007275184 0.071199685 0.15200266 -0.014807787
0001f0 a2 57 21 3e 4f 92 8c 3d 65 15 d1 3c e8 65 22 3e
       0.15756086 0.06863844 0.025522897 0.15859187
000200 5d 9d 95 bd 29 77 1c bd ca 53 ea bd 4e c4 42 3d
       -0.07305405 -0.038199577 -0.11441763 0.047550492
000210 47 65 4a bd dc ba 09 3e f5 49 ec bd 5c d6 b1 39
       -0.04941299 0.13450187 -0.11537544 0.0003391978
000220 c3 60 12 be 71 01 e6 bd b2 5d a8 bd 50 da a5 bd
       -0.14294724 -0.11230744 -0.08220996 -0.080982804
000230 be 52 16 be 07 29 a9 3d 46 5e e0 bd 6d 5f af 3d
       -0.14680001 0.082597785 -0.10955481 0.08563123
000240 0d 2f c1 bd 6c 58 e0 3d 1e 2e 3c bd c8 98 39 bd
       -0.09432802 0.10954365 -0.04594242 -0.04531172
000250 09 e9 45 3d cd 66 1e 3c 8a cf 67 3d 5e fd e2 bd
       0.048317943 0.009668064 0.05659441 -0.11083482
000260 7b 9f bd bc e6 21 56 3d 4e 83 01 bd 10 b8 8a bd
       -0.023147335 0.05227842 -0.031619363 -0.067733884
000270 83 78 b3 3d 49 36 ac 3d cd 59 0d be 97 70 4d bd
       0.0876322 0.084087916 -0.13803788 -0.050156202
000280 4d af b2 bb 77 bc 70 3d a9 e0 00 bd 76 64 de 3d
       -0.0054530264 0.058773484 -0.031464253 0.10859005
000290 c9 0f d6 3d 49 10 a6 3d 5f 81 8b 3d 56 a6 11 bc
       0.104522295 0.08108575 0.06811785 -0.008889755
0002a0 2c 19 67 bd c2 a3 dc bd c7 77 b2 3d ba 6e 55 bd
       -0.05642049 -0.10773422 0.08714252 -0.05210755
0002b0 97 08 bf 3d 4e f9 f9 bd 75 41 cb 3c 9a 5d af 3b
       0.0932781 -0.12205754 0.024811486 0.0053517343
0002c0 d6 da 9b 3c a9 59 fe bd 07 f5 22 bc 2c ff ac bd
       0.019025248 -0.12419445 -0.009946114 -0.08447108
0002d0 a5 96 e8 3d 03 90 0e 3c 23 a4 9a bd 9e 51 59 bd
       0.11356858 0.008701327 -0.07550838 -0.05305635
0002e0 d0 9c 8c bd 09 18 c3 bd 3f 3d ee 3d cd 52 c1 bd
       -0.06865847 -0.09526069 0.116327755 -0.09439621
0002f0 10 19 96 bc 2b ba fa 3d 57 6a 98 bd f1 7d ca 3d
       -0.018322498 0.1224254 -0.07442158 0.09887303
000300 21 55 e6 bc 50 2e e1 bd 37 2a 58 bd f4 3c 03 3e
       -0.028116765 -0.109951615 -0.052774634 0.1281622
000310 b6 e2 67 bd 50 5f 19 be 56 f7 1b 3c 17 2b 91 3c
       -0.056612693 -0.14977765 0.009519419 0.017720742
000320 1f 5f ab 3d e1 31 8f bc 02 0b 4a 3d 6d b1 34 bd
       0.08367752 -0.017479839 0.049326904 -0.04411452
000330 5d a4 fe 3c 6a 3b 05 be ea 6c f1 bd b3 89 18 be
       0.031084234 -0.13010946 -0.11788352 -0.14896278
000340 f5 ab d4 3c ee f2 07 be c1 74 7a bd 00 58 29 bd
       0.025960902 -0.13276264 -0.0611465 -0.04134369
000350 74 ed 68 3d 33 16 01 3b e6 52 59 bd 5d a9 a7 3d
       0.056867078 0.001969707 -0.053057574 0.081866
000360 39 03 87 3d a2 f7 00 bd 22 cb d3 bd 64 23 17 be
       0.065924115 -0.03148616 -0.10341479 -0.14759594
000370 85 24 01 bd 73 b9 d3 3b cb d3 49 3b 06 30 ab 3d
       -0.03152897 0.0064613163 0.0030796404 0.08358769
000380 7a 61 af bc cb 5d 33 3c 10 1d 15 3e 2d 49 03 3e
       -0.021408785 0.010947655 0.14561868 0.12820883
000390 49 92 30 3d 0f 1d b2 bd 00 35 9a bd 13 3b 2d 3d
       0.04310826 -0.08696949 -0.0752964 0.042292666
0003a0 cf 4b f3 3d f8 03 3d 3d 87 fb 0b be d6 1d 0c be
       0.11879694 0.046146363 -0.13670169 -0.13683257
0003b0 de 42 1d be 66 af 35 3d d5 ba 21 bd 42 78 a6 bd
       -0.15357539 0.044356726 -0.039484818 -0.08128406
0003c0 fd 3a 67 3d 17 b2 ab 3c 42 c3 cc bd e2 25 13 bc
       0.05645274 0.020958943 -0.0999818 -0.0089812
0003d0 65 07 ef bd 2b b5 03 be ba 78 28 bd e3 66 62 bd
       -0.11671332 -0.12862079 -0.04113076 -0.0552739
0003e0 0a 73 10 be c5 57 ab bc 86 43 18 be b8 96 e0 3d
       -0.14106384 -0.020915875 -0.14869508 0.10966247
0003f0 18 7c 52 3d 7b 09 b1 3b d9 83 80 bc d7 5d 95 bc
       0.051387876 0.0054027415 -0.01568787 -0.018233223

convs.2.bias f4 [128]
000000 0f 87 3a b7 02 b6 b1 b5 cc 75 21 b7 f1 7a bc 37
       -1.111791e-05 -1.3240499e-06 -9.6237745e-06 2.2468595e-05
000010 10 e0 53 b7 15 a3 89 b7 bd 7f de 37 4d b6 23 b7
       -1.2628749e-05 -1.6407614e-05 2.6523945e-05 -9.758002e-06
000020 48 b3 b9 36 e2 a9 8f b6 25 c9 b4 b5 33 57 b5 b6
       5.5343007e-06 -4.281509e-06 -1.3469586e-06 -5.4043717e-06
000030 cd 2e 4a 38 38 de 6b 38 b3 e5 63 36 da 4b 11 b7
       4.820414e-05 5.6235323e-05 3.3959338e-06 -8.660334e-06
000040 47 9b 1b 37 24 b4 1a b7 e9 8c a8 b7 63 83 8b b7
       9.274873e-06 -9.221058e-06 -2.0092777e-05 -1.6631273e-05
000050 52 1b e8 36 ec 07 d9 35 79 75 72 b6 d1 7d 50 b5
       6.9173193e-06 1.6170065e-06 -3.6129188e-06 -7.7669125e-07
000060 86 0e 14 b7 73 40 cf b7 93 5d 99 b6 aa ac f5 36
       -8.824869e-06 -2.4706334e-05 -4.570649e-06 7.3216697e-06
000070 36 a6 7d 37 37 d1 ce b6 6b dc 7e b7 55 7b fb b7
       1.5118674e-05 -6.163634e-06 -1.51909e-05 -2.9978963e-05
000080 e5 90 70 b7 d2 71 5c b4 07 bd f4 b5 bb cb 73 b7
       -1.4338851e-05 -2.0530504e-07 -1.8234431e-06 -1.4531363e-05
000090 b8 c4 55 36 03 1b 33 b4 71 ca 28 b7 17 1a 2f 37
       3.1853979e-06 -1.6680501e-07 -1.0060715e-05 1.0436887e-05
0000a0 e1 37 9d 36 f8 38 63 b7 83 fc 1e 36 7b 70 6e b7
       4.68547e-06 -1.3543518e-05 2.3690816e-06 -1.4212094e-05
0000b0 e1 4d 28 37 ef 5f 01 35 f6 dc e3 37 21 cb 57 37
       1.0031713e-05 4.8195847e-07 2.7163402e-05 1.2862293e-05
0000c0 36 c3 9f 36 ec b0 3c 36 e1 02 09 b7 bf 0c 1b 37
       4.761295e-06 2.8117165e-06 -8.166507e-06 9.241688e-06
0000d0 98 86 ae b5 d5 21 0f b7 5f 90 6e b7 e5 df cc 37
       -1.3003182e-06 -8.531341e-06 -1.42195195e-05 2.4422954e-05
0000e0 50 0b ff 36 0f 07 a0 b6 48 41 3b 37 3a 66 0e 38
       7.600909e-06 -4.7691933e-06 1.1161268e-05 3.3950644e-05
0000f0 6f d0 3c b7 6d b3 ec 36 33 19 03 35 f6 32 b6 37
       -1.1254203e-05 7.054236e-06 4.883797e-07 2.1719821e-05
000100 7c 5d d5 b6 c7 b1 31 b7 90 89 4b 37 61 1f 7a b7
       -6.3587777e-06 -1.0591414e-05 1.2131772e-05 -1.4908467e-05
000110 84 41 da b5 08 60 4b b6 08 90 b8 36 b8 01 4f b6
       -1.6261333e-06 -3.0305255e-06 5.5003948e-06 -3.0846404e-06
000120 a6 04 80 35 43 6d 8b b6 87 2a 69 37 08 b6 1a 37
       9.538096e-07 -4.1552426e-06 1.3897784e-05 9.221498e-06
000130 22 9d 0f b7 9f 1a 98 b7 8f 76 e5 b6 74 3c e4 36
       -8.5600495e-06 -1.8132208e-05 -6.838534e-06 6.801967e-06
000140 96 cd 26 36 ca c6 2b 36 9a 2d 3c 37 ea 5c 9b 36
       2.4855594e-06 2.5596696e-06 1.1216291e-05 4.6301766e-06
000150 00 67 7d b7 ce 4b 11 35 94 9e 64 37 d9 54 94 b6
       -1.5103957e-05 5.412702e-07 1.3626781e-05 -4.4206213e-06
000160 2b dc f1 37 c9 00 41 b6 df 87 04 b8 8e a6 08 b5
       2.8831962e-05 -2.8759698e-06 -3.1597792e-05 -5.0906317e-07
000170 f2 6f 83 b6 ec 2e cb b7 3e 39 ab b7 cb 8a 53 b6
       -3.9171364e-06 -2.4221335e-05 -2.0411444e-05 -3.1522238e-06
000180 2d 68 a2 b5 83 63 99 b7 7d 4d e9 b6 97 62 07 b7
       -1.210026e-06 -1.828536e-05 -6.952962e-06 -8.069582e-06
000190 5c 2e 40 b7 2b 27 57 b8 d7 1e 48 b7 02 93 29 b7
       -1.1454886e-05 -5.1296473e-05 -1.1928109e-05 -1.0107413e-05
0001a0 30 88 cb 36 1d fd d2 b6 17 50 4a b7 70 5d 11 38
       6.0657258e-06 -6.287954e-06 -1.2058786e-05 3.4657714e-05
0001b0 f9 9c 02 b7 7e 46 f1 b6 50 5f 36 b6 58 9a 5b 37
       -7.785152e-06 -7.190566e-06 -2.7175593e-06 1.3089353e-05
0001c0 eb 24 10 37 c6 2e f1 35 b0 0b 28 38 70 17 17 37
       8.5916645e-06 1.7969512e-06 4.0065206e-05 9.005758e-06
0001d0 7c 73 ac b7 b6 4f d8 35 1f 3c 80 b4 3e 21 32 b8
       -2.0557774e-05 1.6116453e-06 -2.3885602e-07 -4.2469466e-05
0001e0 07 6f e4 34 08 82 c2 b7 6d 69 04 35 39 a0 da 36
       4.2549092e-07 -2.3187153e-05 4.9327247e-07 6.5155587e-06
0001f0 ca 0a 80 36 b1 dd 0c b7 13 61 1b 34 1b 94 1d b7
       3.8159533e-06 -8.396267e-06 1.4470815e-07 -9.392413e-06

convs.2.lin.weight f4 [128, 128]
000000 a9 66 eb 3b 73 37 30 3d 65 e6 08 3e bb af 20 bd
       0.007183869 0.04302163 0.13369139 -0.03923009
000010 cf 0e 7a 3c cb 41 f3 bc 09 5d 6a 3d 95 ba d9 3d
       0.01526232 -0.029694458 0.05721763 0.10631291
000020 69 b1 eb 3d d7 e9 10 be da c5 e0 bd 94 56 8d bd
       0.11508448 -0.14151703 -0.10975237 -0.06901279
000030 d9 93 9b 3d ee 77 b7 3d 69 fc 20 bd 11 1d 33 bd
       0.07596559 0.08958422 -0.039303217 -0.04372889
000040 d6 fc de bd 68 f8 6c bd 80 e1 fd 3b aa 5f 31 3c
       -0.108880684 -0.057854086 0.007747829 0.010826031
000050 f4 21 12 3e c3 93 6f 3d a0 b9 7f 3d b3 55 12 be
       0.14270765 0.058490526 0.062432885 -0.14290504
000060 55 02 c4 3d 32 e3 1b 3e 62 ad 3b 3d 1c 51 dd bc
       0.09570757 0.15223387 0.045819648 -0.027016215
000070 ef 4d 24 3c 49 39 da bd 2d e1 fb 3b 7b 3b a6 bd
       0.010028346 -0.106554575 0.007686755 -0.08116814
000080 ac 0c 6d 3d a3 24 57 bd cc af 81 bc 83 f0 02 be
       0.057873413 -0.052525174 -0.015830897 -0.1278706
000090 12 38 0d 3d c0 65 02 3b 37 c9 03 3d ca 5c 85 3d
       0.0344773 0.0019897074 0.032174315 0.06511839
0000a0 8b a9 1c 3c 28 92 b8 bc d4 f6 19 3e 3a 8f 6f bc
       0.009561907 -0.02253063 0.15035564 -0.01462155
0000b0 2d 72 22 3d 30 3a 1b be 2b df 0b be 96 4b 16 3d
       0.039659668 -0.15158916 -0.1365935 0.036693178
0000c0 25 0a 95 bd d0 16 9d 3d 7a d2 99 3d 21 f1 09 be
       -0.072773255 0.07670367 0.07510848 -0.1347089
0000d0 63 89 93 bd 01 12 6f 3d 19 1c 20 bd ae 55 08 3e
       -0.07203939 0.05836678 -0.039089296 0.13313934
0000e0 74 e0 f2 3b 28 ee e2 3d 11 38 0a 3e ef 73 00 3d
       0.007412011 0.11080581 0.1349795 0.031360563
0000f0 f2 e3 ec 3d 22 34 fc 3d 6f 04 b1 3d 25 e1 81 3d
       0.115669146 0.12314631 0.08643424 0.06341771
000100 b9 66 73 bd 77 ca bf 3d d9 ea d0 3d 01 82 9f 3d
       -0.059424136 0.09364789 0.10201044 0.07788468
000110 e6 35 07 3e fc ea f9 3d 7d dd a5 3c ee 51 ae bd
       0.13204154 0.12203023 0.020247215 -0.085117206
000120 e0 e0 07 be bf 83 91 bd 86 04 8b bd 97 26 ea bd
       -0.13269377 -0.07105207 -0.06787972 -0.11433142
000130 df 9c 9b bd 80 97 e4 bd 08 9c 0e be 5e 7e b8 bd
       -0.0759828 -0.11161709 -0.13926709 -0.09008478
000140 46 e0 57 bc b7 73 d4 bd 7d 76 24 bd 54 d0 d8 bc
       -0.01317603 -0.10373633 -0.04015206 -0.026466526
000150 74 64 e0 3d 3a 87 83 bd 12 15 12 3e 38 ec 84 3c
       0.1095666 -0.06422277 0.1426585 0.01622592
000160 15 26 2d 3b 1e 57 81 bd cf ae 17 be 36 a0 37 bc
       0.0026420404 -0.063154444 -0.14812778 -0.011207631
000170 20 f7 c5 3d a5 ca f2 3d cf 67 db bd 97 26 83 bd
       0.09666276 0.118550576 -0.10713159 -0.06403845
000180 17 6d 33 bd 40 be dc 3d b9 47 e7 bd 08 3c 50 bb
       -0.043805208 0.10778475 -0.11292977 -0.0031774063
000190 88 d6 44 bd 84 bf 0d bd 23 71 33 bc 8c 05 15 3e
       -0.048056155 -0.03460647 -0.010952267 0.14552897
0001a0 c6 9d 19 be 5c 96 14 bd dd f0 5d 3d 2f 22 ef bd
       -0.15001592 -0.036276206 0.054184783 -0.11676442
0001b0 26 7f 66 bd b7 8b 3b 3d 79 94 bf 3c fb 50 96 3d
       -0.056273602 0.04578754 0.023386227 0.073396645
0001c0 6b 7b e8 bd 9b 93 12 3e 4e ca 0c 3c 6b 15 bc 3b
       -0.11351665 0.1431412 0.008593155 0.005739858
0001d0 79 b7 0d be 90 a5 f3 bd 64 fd 40 3d e7 23 a3 bd
       -0.1383952 -0.11896813 0.047116652 -0.07965832
0001e0 4c 11 a9 39 9d 8f 77 bc 29 f8 0e be 19 60 d5 3d
       0.0003224708 -0.015109924 -0.13961853 0.1041872
0001f0 0f 96 d5 3d e3 2e 77 3d 55 46 ec 3b a6 5c 40 bd
       0.10429012 0.06034745 0.0072105327 -0.046963356
000200 b4 53 48 bd d9 ad c0 bd cd 35 f4 3d e6 1f d3 bd
       -0.04890795 -0.09408159 0.11924324 -0.103088185
000210 47 46 04 3e ef 09 ef 3d 11 e1 04 3d 0b 2a b1 3d
       0.12917434 0.116718166 0.032441203 0.08650597
000220 ca a4 83 bb 5e d8 80 3d c6 1a df bd 5c fc 13 3e
       -0.004017447 0.06291269 -0.108937785 0.14451736
000230 e7 89 04 3e c8 d0 06 be 03 d3 18 be 16 09 52 3c
       0.1294323 -0.13165581 -0.14924245 0.012819549
000240 a3 a1 a3 bd 51 6b 9c bd 04 ba a1 3d 8f 99 f2 bc
       -0.07989814 -0.076376565 0.07896808 -0.029614238
000250 d9 6c a1 bc b0 68 b9 bc e3 6a 3b bd 53 c9 b7 bd
       -0.019705223 -0.022632927 -0.045756232 -0.089739464
000260 03 9d 8f 3d 1e f7 0c 3d fd f9 13 3e fa 5c b7 3d
       0.070123695 0.034415357 0.14450832 0.08953281
000270 c7 c6 d0 3d 52 d0 d6 bd ed 03 96 bd e9 b5 85 3d
       0.10194164 -0.10488953 -0.073249675 0.06528837
000280 64 6e f1 bd 89 f2 4b 3d 16 5f 1a 3d a2 70 8e bd
       -0.117886335 0.049791846 0.037688337 -0.06955077
000290 81 41 e6 3d e4 61 6a bc 9d 18 07 be 4f 4a 2a 3d
       0.11242963 -0.0143055655 -0.13192983 0.041574772
0002a0 cd 31 9d bd e2 8c 50 bc 51 c8 9a 3d e8 a1 83 3d
       -0.07675514 -0.012728902 0.075577386 0.064273655
0002b0 da fa 96 bc dc 5a ed bd 6a 5c e2 3c 18 80 11 be
       -0.018430162 -0.11589596 0.027631957 -0.1420902
0002c0 8b cd 45 3d e1 29 e5 bd 40 79 08 3e 6f ac 89 bd
       0.048291724 -0.111896284 0.13327503 -0.06722342
0002d0 0e b6 ea 3c da 8c 0f 3b 70 b2 93 bd 7c fb 11 be
       0.028651264 0.0021904022 -0.072117686 -0.1425609
0002e0 69 8b d5 3d ec d2 a3 bd 97 88 cb 3c 5b a3 00 3e
       0.10426981 -0.079992145 0.024845405 0.12562315
0002f0 22 42 67 3d e4 41 de bd 88 b8 b3 3c 62 d7 1a be
       0.056459554 -0.108524114 0.021938577 -0.15121225
000300 1d a7 97 3d e5 3b 06 be 22 0f f9 b9 7c 69 92 bd
       0.07404921 -0.13108785 -0.00047504256 -0.07149026
000310 4d f5 cd 3d fc a2 04 3e 55 d7 b8 3d a5 1b 5b 3d
       0.10056553 0.12952799 0.09025446 0.05349316
000320 11 da 0f 3e 5f e5 e1 bd 42 41 d8 bd 48 ed 0a 3d
       0.1404803 -0.11030077 -0.10559322 0.033917695
000330 2c 73 9a bc f0 0b 2c 3d d1 cd 1b bd c4 a0 df 3d
       -0.018853746 0.042003572 -0.03803808 0.109193355
000340 e9 72 97 3d fe 19 14 bd 1a 07 08 3d a3 ef 02 3e
       0.07394964 -0.0361576 0.033209898 0.12786727
000350 c6 64 ac 3c 80 d1 6d 3d ef 67 1c be 87 e4 0b 3e
       0.021044146 0.058061123 -0.15274023 0.13661395
000360 1c 2d 9c bc 44 ef 71 3d 25 be 82 bd 7f 7c d9 3c
       -0.019064479 0.059066072 -0.063839234 0.026548622
000370 7c 66 80 bd c5 cc 07 be f9 93 c2 bd da b7 ba 3d
       -0.06269547 -0.13261707 -0.0950088 0.09117098
000380 33 9d d8 3d 5b 74 4b bd b1 a5 12 3e 4b 4e 9a 3d
       0.10576858 -0.049671512 0.14321019 0.075344644
000390 4f bd ec 3d 00 c3 45 3b 6b ff 6f 3d b5 07 0b be
       0.11559545 0.0030176044 0.058593195 -0.13577159
0003a0 0e b5 ed bd 44 48 11 3e 29 b0 06 be bc a9 08 3d
       -0.11606799 0.14187723 -0.13153137 0.033364996
0003b0 2d 19 3d 3d 84 40 c3 3d d3 50 3d 3d a2 ee ee bd
       0.046166588 0.0953379 0.046219658 -0.11666609
0003c0 2d 96 f0 3c 45 a1 02 be 7e 33 c9 3d 03 fd 6f bc
       0.029368484 -0.12756832 0.098242745 -0.014647725
0003d0 e5 58 49 3d 5f 2c 0c 3e fe 1c 9e 3d 18 3a c9 bd
       0.049157042 0.13688801 0.077203736 -0.09825534
0003e0 3f 46 27 3d 2d dc 04 be 39 6e 3b bd 91 f8 13 be
       0.040838476 -0.12974615 -0.045759413 -0.1445029
0003f0 52 be 1f 3e bf 95 b5 3c 78 ed b7 3d 2e d5 bc bd
       0.15599945 0.022166131 0.089808404 -0.09220348

bns.0.weight f4 [128]
000000 33 78 80 3f 07 e2 7d 3f 2a 58 7e 3f e5 1a 80 3f
       1.0036682 0.99173015 0.9935328 1.0008208
000010 21 21 7f 3f 63 a8 80 3f a9 b9 7e 3f 96 78 7e 3f
       0.99659926 1.0051388 0.99502045 0.9940275
000020 76 47 7f 3f ad 29 80 3f a7 98 80 3f c4 db 7f 3f
       0.99718416 1.0012718 1.0046586 0.9994471
000030 de 3f 80 3f d1 60 7f 3f 28 97 7f 3f 5d d9 7f 3f
       1.0019491 0.99757105 0.9984002 0.99941045
000040 3c b2 7f 3f f7 46 80 3f 95 e4 7d 3f a8 02 7f 3f
       0.9988134 1.0021657 0.99176913 0.9961343
000050 22 29 80 3f a3 58 81 3f fe 79 7e 3f fd 73 80 3f
       1.0012553 1.0105175 0.99404895 1.0035397
000060 29 1c 80 3f 30 82 80 3f f8 ea 7f 3f e2 5b 80 3f
       1.0008594 1.003973 0.9996791 1.002804
000070 9f d5 80 3f 22 1c 80 3f e3 50 80 3f 7c 9c 80 3f
       1.0065192 1.0008585 1.0024685 1.0047755
000080 e4 e9 80 3f 6a 15 80 3f b8 a2 80 3f 96 3d 80 3f
       1.0071378 1.0006535 1.0049658 1.0018795
000090 07 ef 7e 3f e1 85 80 3f 9f 93 7f 3f aa 02 80 3f
       0.99583477 1.0040857 0.99834627 1.0000813
0000a0 68 9a 7f 3f 78 57 80 3f f4 cb 80 3f 94 02 7f 3f
       0.9984498 1.0026693 1.0062242 0.9961331
0000b0 fd cb 7d 3f 66 45 7f 3f 02 c1 80 3f 1a 93 7f 3f
       0.99139386 0.9971527 1.0058901 0.99833834
0000c0 c6 8e 7f 3f b4 77 80 3f 21 d9 7d 3f 3d 98 7f 3f
       0.9982723 1.003653 0.9915944 0.9984167
0000d0 57 dd 7f 3f 4b 21 80 3f fc df 7f 3f 95 8b 7e 3f
       0.9994711 1.001016 0.9995115 0.99431735
0000e0 6e 3b 7f 3f 1c da 7e 3f 30 0e 80 3f a4 7f 7e 3f
       0.9970006 0.9955156 1.000433 0.99413514
0000f0 d2 91 7e 3f c7 f0 7e 3f a1 d4 7f 3f 84 20 80 3f
       0.99441254 0.9958615 0.9993382 1.0009923
000100 07 72 80 3f 21 71 7d 3f 63 40 7f 3f de ce 7d 3f
       1.0034798 0.99000746 0.9970762 0.9914378
000110 b9 7b 80 3f 69 be 7f 3f e4 e7 7f 3f a5 63 80 3f
       1.0037757 0.9989992 0.9996321 1.0030409
000120 1a 83 7f 3f 2d 11 80 3f 2a 2f 80 3f 87 b3 7e 3f
       0.9980942 1.0005242 1.0014393 0.99492687
000130 a3 3f 80 3f 66 f3 7f 3f 72 8a 7f 3f 41 43 80 3f
       1.001942 0.9998077 0.99820626 1.0020524
000140 58 ca 7f 3f d6 8b 80 3f a1 24 80 3f 64 08 80 3f
       0.9991813 1.0042675 1.0011178 1.0002561
000150 2a 0a 80 3f 91 69 81 3f 64 32 7f 3f 50 16 81 3f
       1.0003102 1.0110341 0.99686265 1.0084934
000160 63 09 81 3f b5 06 80 3f b5 99 7f 3f e8 b9 7f 3f
       1.008099 1.0002047 0.99843913 0.99893045
000170 bb 57 80 3f 02 c8 7e 3f 80 3f 80 3f e6 73 7f 3f
       1.0026773 0.9952394 1.0019379 0.9978622
000180 97 2d 80 3f b6 0c 80 3f 68 41 80 3f 42 3b 80 3f
       1.0013913 1.0003879 1.001996 1.0018084
000190 13 4d 80 3f 14 95 7f 3f 9a 75 7f 3f 61 e5 7f 3f
       1.0023521 0.9983685 0.9978882 0.9995938
0001a0 5a 27 7e 3f eb 49 80 3f f0 6d 7d 3f 25 d3 7e 3f
       0.99278796 1.0022558 0.98995876 0.9954093
0001b0 9d 92 7f 3f ba e5 80 3f 03 2f 80 3f 85 a4 80 3f
       0.9983309 1.0070107 1.0014347 1.0050207
0001c0 81 5b 7e 3f 86 0f 80 3f 38 94 80 3f 51 56 80 3f
       0.99358374 1.0004737 1.0045233 1.0026342
0001d0 7f 15 80 3f bf c2 7e 3f e3 0b 80 3f b9 c6 7e 3f
       1.000656 0.9951591 1.0003628 0.99521977
0001e0 75 0f 80 3f 76 8a 7e 3f 09 e7 80 3f 22 1c 80 3f
       1.0004717 0.99430025 1.0070506 1.0008585
0001f0 c9 d6 80 3f 04 b6 7e 3f d4 bb 7f 3f 4c 32 81 3f
       1.0065547 0.99496484 0.9989598 1.0093474

bns.0.bias f4 [128]
000000 97 d5 fd 3b 8f 76 e4 bb e2 16 5a bb fc 47 29 3a
       0.007746409 -0.006972141 -0.00332778 0.0006457565
000010 96 3c d9 ba 0a c3 2b 3c 00 17 1f bb 69 d7 93 bb
       -0.0016573842 0.010483513 -0.0024275184 -0.004511763
000020 61 c9 94 bb a0 9b 48 bb 68 a3 1e 3b c4 8d 9f 3b
       -0.004540608 -0.0030610338 0.0024206284 0.0048691947
000030 04 76 95 3b 3c e1 f7 ba 0b 15 f4 ba e3 11 d5 b9
       0.0045611877 -0.001891173 -0.0018621994 -0.00040639853
000040 a8 a5 ff 3a cc 7b 09 3a e1 ff 04 bb c4 f5 dd bb
       0.0019504325 0.00052445824 -0.0020294117 -0.0067736823
000050 81 3c 9f 3a 0e ab 9c 3b 07 1f 63 bb 83 52 b6 bb
       0.0012148769 0.0047811335 -0.0034655945 -0.0055640354
000060 ea 20 3a 3a 9e 26 17 bb ee c1 a9 39 05 07 47 3b
       0.00071002415 -0.002306379 0.0003237868 0.0030369174
000070 4d 78 cc 3a 7a c8 1f 3b 17 4a e0 3a e8 58 28 3a
       0.0015599817 0.0024380968 0.0017111924 0.00064219395
000080 f8 04 aa 3b 3b 49 68 3b 1c a9 bc 3b d0 00 4c 3b
       0.0051885806 0.003544404 0.005757464 0.0031128414
000090 e4 12 1b bb 63 49 18 bb f8 1a 83 b9 70 b8 1f bb
       -0.0023662383 -0.0023237101 -0.0002500636 -0.0024371408
0000a0 60 47 43 3a 8c 2d 74 bb ae 46 ca 3b c5 52 2f bb
       0.00074492954 -0.0037258593 0.0061729765 -0.0026752215
0000b0 61 e0 b1 bb fe ab 83 bb 19 36 ad 3b 76 12 03 ba
       -0.0054283594 -0.004018306 0.00528599 -0.00050000043
0000c0 19 ed cd bb 0c 17 73 3b 80 70 c9 bb 20 6f b1 bb
       -0.0062843678 0.0037092594 -0.0061474442 -0.0054148585
0000d0 be 52 b3 3b 2b 91 34 3a bc 38 50 3b d3 a8 1a bb
       0.00547251 0.0006888087 0.0031772098 -0.0023599162
0000e0 c4 9c 85 bb 9e 5f 55 bb 88 85 f2 3a c8 41 e3 ba
       -0.004077526 -0.0032558213 0.001850293 -0.001733833
0000f0 d2 79 cb ba 11 62 92 ba 71 c8 0d bb 4f 45 6b bb
       -0.0015523976 -0.0011168142 -0.0021634365 -0.0035899465
000100 e0 11 4b 3a 92 2b e8 bb 15 ec 08 bc ca 4c 46 bc
       0.0007746499 -0.007085272 -0.008357068 -0.012103269
000110 16 ca 83 3b 9d 07 d7 3a d4 ef 75 ba 3a c0 10 3c
       0.0040218933 0.0016405467 -0.00093817455 0.008834893
000120 8b 77 66 3a 43 fa 9f ba 2e 8c ef 39 57 9f 50 bb
       0.0008791617 -0.0012205321 0.00045690074 -0.0031833255
000130 35 ba 53 bb a9 5d 18 bb 29 a3 d7 ba 8b 4d 64 3b
       -0.0032307033 -0.0023249185 -0.0016451824 0.0034836258
000140 e1 cf 55 39 49 8f b2 39 c1 52 ca b9 85 5f b4 bb
       0.00020390704 0.0003405756 -0.000385901 -0.005504551
000150 32 b3 84 38 f4 75 e5 3b 6c 6c 03 38 35 4f 00 3c
       6.327628e-05 0.0070025865 3.133381e-05 0.007831384
000160 43 01 db 3b 5a 9d ea b9 c8 b5 8f ba 64 40 59 bb
       0.0066835 -0.00044749194 -0.0010964209 -0.0033149952
000170 27 b6 fa 39 02 6b eb ba 34 fc 0d 3b df fa cf ba
       0.0004781943 -0.0017960968 0.0021665217 -0.0015867612
000180 c5 49 7c 3b 1e 28 c7 3b 75 59 d9 3a fc 36 aa 3b
       0.0038496119 0.0060777804 0.0016582446 0.005194543
000190 9b 7c fc 3a fa ef 30 3b 7d d8 7f 39 9d cc 47 bb
       0.001926321 0.0026998506 0.00024399343 -0.003048695
0001a0 5f f8 ac bb 55 db b2 ba 31 85 e1 bb 70 66 ba ba
       -0.0052786316 -0.0013645688 -0.0068823327 -0.0014221203
0001b0 42 ff 0e 3b a3 ff 17 3c 94 df 7d ba fe 3a 24 3c
       0.0021819626 0.009277257 -0.00096845 0.01002383
0001c0 3d 1c 0c bc d3 7e 07 3b 30 31 21 3b cd a7 0f 3b
       -0.008551654 0.0020674958 0.0024595968 0.0021920085
0001d0 7a e3 a2 ba c9 a5 b3 bb 69 5e 73 3a ba ef d9 bb
       -0.0012427412 -0.0054824096 0.00092837826 -0.006650892
0001e0 c9 e6 4b 3a 49 39 91 ba 31 cd ee 3b 91 8b 81 3a
       0.0007778225 -0.0011079694 0.0072876443 0.0009883513
0001f0 c8 bf e1 3b 49 2c cb ba 14 d4 80 ba b9 74 3f 3c
       0.006889317 -0.0015500869 -0.0009828829 0.011685544

bns.0.running_mean f4 [128]
000000 f8 90 af 3b 08 cf 2c 3d 03 d5 7d bd bd 82 37 3e
       0.005357858 0.042189628 -0.061970722 0.17920966
000010 ce 81 da 3d e1 b1 c6 3d f3 5f 25 bd fa 10 64 bd
       0.106692895 0.097018965 -0.040374707 -0.055680253
000020 eb b0 4e 3e 22 cd ce bc a5 a1 de 3c 5d 52 3c 3d
       0.20184676 -0.0252443 0.027176687 0.045976985
000030 aa 24 7c bd 81 d5 6f 3e 64 74 3e 3e 0b 65 81 be
       -0.061558403 0.23421289 0.18599087 -0.25272402
000040 54 b9 f1 bd c3 ee 17 be ff 44 4a be 5c e4 b4 bd
       -0.11802927 -0.14837174 -0.19752882 -0.088326186
000050 98 bb 0b bd 70 31 10 bd f1 17 43 be 48 bd 4c 3d
       -0.03411445 -0.035203397 -0.19052102 0.0499852
000060 02 bb f5 bd d6 d1 a4 bd 59 e5 22 3e ca b5 c9 3d
       -0.119985595 -0.080478355 0.15907802 0.09849127
000070 11 6d 28 3e 1d e0 2a 3d d9 dc 80 bd a9 94 1a bb
       0.16447856 0.041717637 -0.06292123 -0.0023587144
000080 5c b4 85 bd 5c 4f a6 bd e6 f7 17 be 43 59 8c 3d
       -0.065285414 -0.08120605 -0.1484066 0.06852963
000090 1e 1a 9a bc 0d db 48 bd 84 6c 69 bd 9b 34 3e bd
       -0.018811282 -0.049037028 -0.056988254 -0.046436887
0000a0 de 9a 30 3e 97 30 d2 3d 1b c6 25 bd 98 85 88 be
       0.17246577 0.10263174 -0.04047213 -0.26664424
0000b0 41 f0 5a 3e 94 fc fe bd 84 b4 50 3e ef c2 82 3c
       0.21380712 -0.12450519 0.20381361 0.015962092
0000c0 3c e2 05 be 51 2a d2 3d 9a 6c 32 be df 1d 74 bd
       -0.13074583 0.102619775 -0.1742424 -0.0595988
0000d0 5c b8 95 bd 9a c7 84 bd 0f c7 8a be 8a bf 21 be
       -0.073105544 -0.064833835 -0.27104995 -0.15795723
0000e0 ac 33 08 be 42 69 39 3e e4 aa 00 3e f6 23 67 bd
       -0.13300961 0.18106559 0.1256519 -0.05643078
0000f0 3e 15 43 be 59 17 68 3e ea ac 8c bd d8 5b d8 bc
       -0.19051072 0.22665156 -0.06868918 -0.026410982
000100 21 9e f3 3d ff 19 4a bd 92 cf c2 3d 70 f3 0c 3e
       0.11895395 -0.049341198 0.09512247 0.13764739
000110 3b 2c 95 3d 29 a6 94 bc 7c a2 36 3e bc 99 d1 bc
       0.07283827 -0.018145638 0.1783542 -0.025586002
000120 99 17 22 bd e0 2a aa bd 65 85 2e 3e 50 f4 eb 3c
       -0.039573286 -0.08308959 0.17043073 0.02880302
000130 f0 4d 27 bd f7 4c 44 3d ee 46 c6 bc fd 76 c2 bd
       -0.04084581 0.047924962 -0.024203744 -0.094953515
000140 1c ac 6c 3d a4 08 72 bd af 37 bf bd a3 fa d8 bd
       0.057781324 -0.05909027 -0.09336793 -0.1059468
000150 ae a1 03 be 17 8c 8c 3c 3a 64 6f be 33 7b 0f 3e
       -0.12854645 0.017156644 -0.23378077 0.1401184
000160 1c f2 ec bd 2e 25 ec 3c d0 9e 98 be c7 03 a3 bd
       -0.11569616 0.028826322 -0.29808664 -0.07959705
000170 c6 f8 14 bd 82 9c 42 bd 05 96 38 3e 87 5f a7 3d
       -0.03637006 -0.04751254 0.18025978 0.08172517
000180 52 93 01 3e 34 5c a2 3d 17 c2 2c 3e 0e 71 d6 3d
       0.12653854 0.079277426 0.16870914 0.10470782
000190 4c 9b 9b bd ff 29 6d 3e 5f 47 b5 3d 03 b4 38 3e
       -0.0759798 0.23160551 0.088515036 0.18037419
0001a0 86 39 32 3d 18 03 cd bd 40 0b 9a 3d 80 f8 75 be
       0.04351189 -0.10010356 0.07521677 -0.24020576
0001b0 c2 7a d0 3d 03 4a 1f 3d 49 f3 07 3b e2 92 f7 3c
       0.10179664 0.038888942 0.0020744374 0.030221406
0001c0 15 d6 24 3e 4d e8 4d 3e a4 5b b6 bb 02 15 22 be
       0.16097291 0.20108147 -0.0055651236 -0.15828326
0001d0 75 e9 63 3e 05 51 49 3c 46 e9 02 be 67 a3 f3 bc
       0.22257026 0.012287383 -0.12784299 -0.029741002
0001e0 f1 35 2f 3e 70 3c 22 3d 6d 4e 91 be a5 4a 44 3b
       0.17110421 0.03960842 -0.28380147 0.0029951718
0001f0 6a e2 1a bd 5d ff 02 3d 94 79 97 3c 91 25 4b bd
       -0.03781358 0.031981815 0.01849059 -0.049596373

bns.0.running_var f4 [128]
000000 fb 52 8b 3b c7 27 d7 3b f1 b8 b8 3b 09 49 37 3c
       0.0042518354 0.006566021 0.005637281 0.0111868465
000010 13 36 29 3c bd d5 7e 3b 79 45 08 3b 08 ff 08 3c
       0.010327834 0.0038884722 0.0020793362 0.008361585
000020 3f ec 22 3b ad 69 91 3b 0f 8f ff 3a ee ec 8f 3b
       0.0024860052 0.0044376464 0.0019497591 0.004392258
000030 36 6f 50 3b 31 a6 01 3d e4 72 a7 3c 7a 6f bf 3a
       0.0031804568 0.031652633 0.020440526 0.0014605366
000040 f5 8c 8e 3c c3 e4 98 3c 98 3d 98 3c e3 a2 fd 3b
       0.017401198 0.01866377 0.018584058 0.007740365
000050 b8 d5 23 3c 74 b9 1b 3b dd bc 34 3c ba be 97 3b
       0.009999685 0.0023761662 0.011031357 0.0046308907
000060 50 50 25 3c d7 f2 c2 3b d3 6c 25 3c c7 b4 6a 3b
       0.010089949 0.005949359 0.0100967465 0.0035813318
000070 8d 75 7b 3b f4 c7 50 3b 4c d6 9e 3b 27 fc aa 3b
       0.0038369626 0.0031857463 0.0048473235 0.005218047
000080 46 4b 5c 3b cf 0b a7 3b d0 47 03 3c 5c fa e3 3b
       0.0033614202 0.0050978432 0.008012727 0.0069573354
000090 57 ab d1 3b d4 c2 e3 3b 51 ca db 3b 51 fb ef 3b
       0.006398599 0.0069507156 0.0067074676 0.0073236604
0000a0 71 c2 1b 3c 83 79 53 3b 50 e0 d4 3b b9 01 37 3c
       0.009506808 0.0032268472 0.0064964667 0.011169844
0000b0 b4 c1 cc 3c 89 82 31 3c 41 a7 86 3c 5a 4f bd 3b
       0.024994709 0.010834345 0.016437175 0.0057772817
0000c0 9c 1c 4b 3c ea 01 20 3c 61 92 fb 3a b4 15 4a 3b
       0.012396958 0.009766081 0.0019193405 0.003083569
0000d0 f6 c0 0b 3c 36 68 ab 3b 32 0e 26 3c 5a b9 b6 3b
       0.008529892 0.005230929 0.01013522 0.005576295
0000e0 fa 86 40 3b 2a dc 23 3c f1 31 5f 3b 33 b7 8f 3b
       0.0029377327 0.010001222 0.0034056867 0.0043858527
0000f0 8e a0 92 3c 87 15 00 3c 48 63 26 3c d5 d3 29 3c
       0.017898824 0.0078176325 0.010155506 0.010365446
000100 61 0e a5 3b 22 10 e7 3b a7 66 71 3c af 6b ad 3c
       0.0050371145 0.0070514837 0.014733947 0.021169512
000110 f2 0c 9d 3b 3d 56 4b 3b c8 6b 82 3c 79 99 2c 3b
       0.004792803 0.0031026744 0.015920535 0.0026336594
000120 81 15 de 3b f0 6f 1e 3c 44 c1 3e 3c 6e b3 7a 3b
       0.006777466 0.009670243 0.011642758 0.003825392
000130 6e b1 ed 3a ee ec 09 3c df 65 e2 3b 9e ae c9 3b
       0.0018134543 0.008418305 0.0069091166 0.006154849
000140 4c 81 be 3b d4 81 c3 3b d0 23 f6 3b 55 0c 98 3b
       0.005813753 0.0059664045 0.0075115934 0.004640142
000150 71 92 3c 3b a3 dd f9 3b 25 d7 32 3c de 36 fb 3a
       0.002877381 0.007625298 0.010915552 0.0019166132
000160 66 be 7d 3b 02 6b fa 3a 21 cd f5 3b f5 95 92 3c
       0.0038718223 0.0019105377 0.00750126 0.01789377
000170 34 bc 94 3b 7a 47 b2 3b 5f 95 b5 3b 4d de b8 3a
       0.004539037 0.0054406496 0.005541488 0.0014104337
000180 2c f8 fc 3b 96 db e5 3b 86 a1 4a 3b f8 ea a5 3b
       0.007720014 0.007014702 0.003091903 0.005063411
000190 a3 60 36 3b 84 69 31 3b f1 44 f7 3b b9 bd 2d 3b
       0.0027828596 0.002707095 0.0075460603 0.0026510789
0001a0 63 7a fd 3b a3 51 65 3c d5 96 7c 3b 01 9a 67 3c
       0.007735537 0.0139965145 0.0038542051 0.0141358385
0001b0 43 8a 72 3c 46 53 1f 3b 57 92 ce 3a 2b bc 60 3b
       0.014803472 0.002431111 0.0015760165 0.0034291844
0001c0 19 10 66 3b 20 69 43 3c 9c 66 6c 3b 79 fe 14 3c
       0.003510481 0.011926919 0.0036071902 0.009093874
0001d0 88 cc b7 3b df 59 d5 3b 06 0c 50 3b da 51 2f 3b
       0.005609099 0.0065109576 0.0031745448 0.0026751668
0001e0 59 87 4d 3c ba 9c 4b 3b e7 11 ed 3b aa e5 09 3c
       0.012544476 0.0031068758 0.0072348 0.008416573
0001f0 01 a8 a7 3b e5 af d0 3b 4e 79 4e 3b 46 7c 6b 3b
       0.005116463 0.0063686245 0.0031505409 0.0035932227

bns.1.weight f4 [128]
000000 b5 25 7f 3f 9c 3d 80 3f 6d f8 80 3f 05 92 7e 3f
       0.9966691 1.0018802 1.0075814 0.9944156
000010 80 ff 80 3f 92 53 80 3f 44 62 80 3f 17 f1 7f 3f
       1.0077972 1.0025504 1.0029988 0.9997725
000020 e6 27 80 3f c9 eb 7f 3f 24 ee 7f 3f a3 b1 7e 3f
       1.0012176 0.99969155 0.9997275 0.994898
000030 02 5f 7f 3f ed bc 7f 3f d9 6e 80 3f 51 97 7f 3f
       0.99754345 0.9989765 1.0033828 0.99840266
000040 c5 70 7f 3f 91 78 7f 3f 69 03 7f 3f ba 90 7f 3f
       0.9978145 0.99793345 0.9961458 0.9983021
000050 12 74 7e 3f 25 37 7e 3f 8b 5b 80 3f 05 b9 7e 3f
       0.9939586 0.99302894 1.0027937 0.9950107
000060 41 8d 7e 3f 14 11 81 3f 24 5f 7e 3f f7 c6 7e 3f
       0.99434286 1.0083337 0.99363923 0.99522346
000070 c9 69 7e 3f b1 d3 7e 3f c1 d5 80 3f 67 6e 7f 3f
       0.99380165 0.99541765 1.0065233 0.99777836
000080 ad 08 80 3f 9b 63 7e 3f 35 3b 7f 3f 17 f5 80 3f
       1.0002648 0.99370736 0.9969972 1.0074795
000090 ae 48 80 3f 4f 7d 80 3f b9 a2 7f 3f 1f 34 7f 3f
       1.002218 1.0038241 0.9985767 0.99688905
0000a0 f2 09 7f 3f a3 27 80 3f dd 03 81 3f 9e 5f 7f 3f
       0.9962455 1.0012096 1.0079304 0.99755275
0000b0 2e 88 80 3f d7 61 80 3f fb 16 80 3f 4d ba 7f 3f
       1.0041559 1.0029858 1.0007013 0.9989365
0000c0 1d 61 81 3f 23 c1 80 3f 8b b9 80 3f c8 99 80 3f
       1.0107762 1.0058941 1.0056623 1.004693
0000d0 61 2f 80 3f 11 df 80 3f 21 f9 7e 3f 86 e5 7e 3f
       1.0014459 1.0068074 0.9959889 0.99568975
0000e0 aa d9 7f 3f c9 cc 7f 3f 10 06 80 3f 6e 73 7f 3f
       0.99941504 0.9992185 1.000185 0.99785507
0000f0 61 6f 7f 3f be 80 80 3f ad 94 7e 3f e2 ff 7f 3f
       0.99779326 1.0039289 0.9944561 0.9999982
000100 22 83 80 3f 27 92 7e 3f 04 9f 7f 3f a0 70 7f 3f
       1.0040019 0.9944176 0.99852014 0.9978123
000110 e8 86 80 3f e3 d6 7e 3f ec c9 7f 3f 62 85 7f 3f
       1.004117 0.9954664 0.99917483 0.998129
000120 1f 3a 80 3f 10 5e 80 3f f2 1f 7f 3f 4c 02 7f 3f
       1.0017737 1.0028706 0.9965812 0.9961288
000130 e2 9d 7f 3f b0 64 7f 3f 43 e2 7e 3f 85 f1 7e 3f
       0.99850285 0.9976301 0.99564 0.9958728
000140 d1 12 80 3f 73 21 80 3f 2a 4a 7f 3f fc d9 80 3f
       1.0005742 1.0010208 0.9972254 1.0066524
000150 d1 57 80 3f 75 a9 80 3f 81 81 7e 3f 39 42 80 3f
       1.00268 1.0051714 0.9941636 1.002021
000160 eb fc 7f 3f 3d 14 80 3f dc 03 80 3f ce 71 7e 3f
       0.999953 1.0006176 1.0001178 0.993924
000170 e8 0b 80 3f 17 f7 7d 3f 3c 31 7e 3f 5f c9 80 3f
       1.0003633 0.99205154 0.99293876 1.0061454
000180 0e 92 7f 3f b8 33 7f 3f 62 5c 7f 3f 14 bc 7f 3f
       0.99832237 0.9968829 0.9975034 0.9989636
000190 ed 07 80 3f 48 e1 7f 3f 0e 20 80 3f 9a 97 7f 3f
       1.0002419 0.99953127 1.0009782 0.998407
0001a0 c7 02 80 3f 47 ee 7f 3f 6c 47 80 3f 11 af 7d 3f
       1.0000848 0.9997296 1.0021796 0.99095255
0001b0 c3 33 80 3f 01 db 7e 3f 40 38 81 3f be b6 80 3f
       1.0015796 0.99552923 1.0095291 1.0055768
0001c0 61 5b 7f 3f 57 36 7f 3f 7b 6e 7e 3f 7c 08 7f 3f
       0.9974881 0.9969229 0.9938733 0.9962232
0001d0 83 93 80 3f 40 29 80 3f 65 b9 80 3f d2 d9 80 3f
       1.0045017 1.0012589 1.0056578 1.0066473
0001e0 b8 af 7f 3f d0 22 7f 3f b1 4c 80 3f a0 93 7f 3f
       0.998775 0.99662495 1.0023404 0.9983463
0001f0 1c 74 7f 3f 42 42 80 3f 1b 78 7f 3f e7 94 80 3f
       0.99786544 1.002022 0.9979264 1.0045441
