MY_GNN/trained_models/rg/model_Rg_fold1.pt (torch, 562650 bytes, 23 tensors)

convs.0.bias f4 [128]
000000 60 a5 4f 38 60 37 8b b9 5d 60 97 b9 62 91 de 38
       4.9506663e-05 -0.00026553404 -0.0002887276 0.000106128646
000010 c9 c6 5f 37 ab 5b d5 39 f8 87 83 38 64 44 1c 39
       1.3338119e-05 0.00040694824 6.271893e-05 0.00014902797
000020 be c0 0c 38 e8 ed ca 39 fd 3d 37 39 4c 79 39 b8
       3.3558106e-05 0.00038705696 0.00017475332 -4.4220404e-05
000030 e3 3d 5f b9 73 48 3c b9 1d 3c 83 b7 bb 0e f3 b7
       -0.00021289992 -0.00017956067 -1.564441e-05 -2.8974717e-05
000040 67 5d 11 39 6c 6d 94 b9 c8 3a 94 b9 47 8e 00 39
       0.00013863073 -0.00028310285 -0.00028272555 0.00012260034
000050 2a 4d c5 b9 25 44 06 38 8c 81 1a b9 39 7e 59 b8
       -0.0003763226 3.2011554e-05 -0.00014734844 -5.1854386e-05
000060 6d 96 d4 b6 3c 15 fc 39 05 49 98 b9 98 ef 1a b9
       -6.335604e-06 0.00048081006 -0.00029046103 -0.0001477584
000070 b4 0d 0c 39 f2 f5 51 b9 22 f5 84 b8 17 b1 7d b8
       0.00013356545 -0.00020023415 -6.33991e-05 -6.048483e-05
000080 8b b7 b0 b6 c1 be 1b b9 e5 93 19 b6 cc 4a 36 b9
       -5.266576e-06 -0.00014853013 -2.2884863e-06 -0.00017384737
000090 d8 4f 8e b9 9f 7a b1 b8 e5 43 93 b9 30 5a 6a 39
       -0.0002714384 -8.462858e-05 -0.0002808861 0.00022349576
0000a0 4e 78 e3 b8 e1 ba 16 bb a0 c2 af 38 b5 11 23 b9
       -0.00010846612 -0.0022999572 8.380902e-05 -0.00015551488
0000b0 28 57 ec b9 07 ad 6f 38 ad 12 04 3a 21 d8 3c ba
       -0.00045078364 5.7143185e-05 0.00050381833 -0.00072038366
0000c0 8c a6 c5 b9 12 4b c9 b9 64 d2 58 ba 56 3d e6 b9
       -0.00037698855 -0.0003839364 -0.0008271097 -0.00043914717
0000d0 dd d0 e2 b8 3e 13 f6 38 14 c6 07 3a b5 5c dc b8
       -0.000108154236 0.00011733778 0.0005179357 -0.000105076855
0000e0 fa 47 6a 38 b8 75 05 39 62 d6 14 b9 20 24 41 b9
       5.585698e-05 0.00012727722 -0.00014194244 -0.00018419372
0000f0 a1 e6 08 3a 7a b8 aa 38 08 5a 03 39 1f 5e 3c 39
       0.00052223547 8.140593e-05 0.00012526673 0.0001796414
000100 4f bb 98 39 c0 9c f4 b9 7b d6 32 b8 81 d1 0f b9
       0.00029131255 -0.00046656094 -4.2638258e-05 -0.00013715589
000110 cc 60 1a ba 76 95 d8 38 b3 07 2e 38 41 81 0a 38
       -0.00058890576 0.00010327522 4.1492003e-05 3.302214e-05
000120 e9 35 2d b7 94 bf cb b7 9b fd 0e 39 25 a3 40 39
       -1.03241555e-05 -2.4288696e-05 0.0001363665 0.00018371323
000130 63 75 67 39 26 4a 0c 39 c3 2d b3 b9 74 00 53 b8
       0.00022073607 0.00013379063 -0.00034175636 -5.0306742e-05
000140 2b 69 ca 38 f4 bc c6 39 15 34 a1 38 2e 7b 25 b9
       9.6517e-05 0.00037906284 7.686779e-05 -0.00015781514
000150 41 42 76 b8 f4 a4 d9 b9 e8 84 75 b9 31 28 8c b6
       -5.8712674e-05 -0.00041512365 -0.00023414532 -4.177004e-06
000160 50 15 a1 b9 4b 07 46 39 f6 8e 78 39 3a 6f ea b8
       -0.00030724192 0.00018885468 0.0002370438 -0.00011178707
000170 d9 e7 1b b9 be a0 1a b9 0a 66 f8 b9 68 47 be b8
       -0.00014868322 -0.00014746466 -0.0004737827 -9.0732065e-05
000180 40 e0 46 39 9a d1 bd 39 05 a3 ea b8 b7 21 9b b8
       0.00018966291 0.00036205054 -0.00011188354 -7.397256e-05
000190 94 ba 8d b8 68 64 a7 37 ff 45 e2 39 60 ee 36 b9
       -6.758157e-05 1.9954707e-05 0.0004315823 -0.00017445674
0001a0 95 53 86 39 a1 3d 52 ba ba 0e 46 38 9b 20 25 b9
       0.00025620745 -0.00080200477 4.7220594e-05 -0.00015747773
0001b0 d0 51 a2 b9 35 87 08 ba 1b 7a ce b7 97 68 3f 39
       -0.00030960003 -0.00052081357 -2.4613973e-05 0.00018254142
0001c0 b8 46 13 39 55 5e 88 b8 70 2d 6e 38 32 ed 44 b9
       0.00014045357 -6.502556e-05 5.678594e-05 -0.00018780379
0001d0 10 e7 48 b8 f7 15 84 39 b9 fc 64 38 b5 7c a7 39
       -4.789891e-05 0.00025193367 5.4594802e-05 0.00031945636
0001e0 f3 d0 c8 b8 b5 ee f1 b8 6b a5 18 39 16 cf e2 39
       -9.575663e-05 -0.00011536238 0.00014557473 0.0004326037
0001f0 79 24 2d 38 b2 23 4b b8 03 8a db 35 ed 0c 99 b8
       4.1280382e-05 -4.8432215e-05 1.6356938e-06 -7.298016e-05

convs.0.lin.weight f4 [128, 19]
000000 c6 7d 75 3d 65 91 21 3b 7d 0e 35 3e 9f 01 dc bd
       0.0599344 0.0024653312 0.17681308 -0.10742497
000010 0e 2b 03 bd 24 9d 00 3e 1d a9 ac bc 6c 0d 34 be
       -0.032023482 0.12559944 -0.021076733 -0.17583245
000020 04 a3 0f 3d 24 a0 14 be 27 0e 13 be 5f 7b f3 3d
       0.035067573 -0.14514214 -0.14360867 0.118887655
000030 de 66 44 be 67 e8 5d 3d dd 2c e5 bd 03 97 a9 bd
       -0.19179866 0.054176714 -0.111901976 -0.08280756
000040 47 77 cb 3d 17 c6 38 3e 6f 16 22 3e e2 88 11 3e
       0.0993486 0.18044315 0.1582887 0.14212373
000050 5f e7 5e bd f9 2d 4a 3e 18 c2 37 3e 0f ba 44 3e
       -0.05441987 0.197441 0.17945135 0.192116
000060 c4 fd 91 3d 5c ab 03 3d 88 19 98 bd 4b 7e 0c be
       0.0712848 0.032145843 -0.07426745 -0.13720052
000070 f3 73 8d bc d3 ff c1 3d f8 a5 3b be 96 6b e9 3d
       -0.017267203 0.09472623 -0.18325031 0.113974735
000080 46 e7 97 3d f2 e3 e7 bc b0 cf bb bd 21 ad 87 bd
       0.07417159 -0.028306935 -0.091704726 -0.066248186
000090 70 ec 26 3e 8d 78 f6 ba 5c f5 81 3c 56 5d 41 3e
       0.16301131 -0.0018804237 0.015864067 0.18883261
0000a0 cc 85 29 be 2f f5 9f 3d ab b2 1f 3d 57 86 3a 3d
       -0.16554946 0.07810437 0.03898875 0.045538273
0000b0 d9 6c eb bd 05 59 4f be 70 bf f7 3b 84 36 15 bd
       -0.114953704 -0.20248802 0.007560663 -0.036428943
0000c0 3a b1 56 3d b7 93 11 3e f0 38 b7 3d 9c e7 0a 3e
       0.05241511 0.14216505 0.08946407 0.13564914
0000d0 63 69 d8 3d 3a ac 42 3e 0f 32 23 3d 44 16 c3 bd
       0.10566976 0.19011012 0.03984266 -0.09525731
0000e0 e1 a4 9f bd 23 02 4b bd c0 16 52 3e 41 36 38 3e
       -0.0779512 -0.049562585 0.20516491 0.17989446
0000f0 ab 9d e4 bd fa 3f 58 3d 5a 2e 0f bd 2e ce 89 bd
       -0.11162885 0.052795388 -0.034956314 -0.06728779
000100 f9 f7 30 be b1 b1 cb 3a e7 1a 05 be 57 c8 2f 3e
       -0.17282094 0.0015540627 -0.12998544 0.17166267
000110 b0 1f 23 be 49 30 f1 bd f5 a0 8a bd e1 44 b5 3c
       -0.15930057 -0.11776788 -0.06768981 0.02212757
000120 32 eb 8e bd 60 06 5e 3d a8 e7 cf bd 8f ab e1 3d
       -0.06978454 0.0542053 -0.10151607 0.1101905
000130 97 93 2a be 71 2f 29 be bb 9a 5f ba 31 55 46 bc
       -0.16657864 -0.16522004 -0.00085298315 -0.012105272
000140 b5 83 07 be 27 91 69 bc 78 b4 dd 3d bc 4d 60 3d
       -0.13233836 -0.014255798 0.10825437 0.054761633
000150 87 3b 48 be be 0b 1b 3e a4 2a 75 3d 89 6e fe 3d
       -0.19553958 0.15141198 0.05985512 0.12423427
000160 e7 c7 cd 3d 34 b0 fa bc a0 5a 9b bd 50 47 0d 3e
       0.10047894 -0.030601598 -0.07585645 0.13796735
000170 36 04 a4 3d 6e ac 66 3b 39 b3 49 3e 96 4a 82 3d
       0.08008616 0.003519799 0.19697274 0.063618824
000180 60 09 41 3e 27 9a 45 be d3 28 46 be 73 52 8c bc
       0.18851233 -0.19297086 -0.1935151 -0.017129159
000190 41 1d 3d 3e 3a 9c 43 3d 47 cd 4c 3e 66 ce e6 bd
       0.1846819 0.04775641 0.20000182 -0.11269836
0001a0 52 1e 0a 3d 08 7c 92 bd 8c 8b 79 bd ca d4 06 bd
       0.033720322 -0.07152563 -0.060924098 -0.032917775
0001b0 35 33 30 be 7f 7b 93 bd 96 a3 21 be 97 9d a4 bd
       -0.17207034 -0.072012894 -0.1578506 -0.080378704
0001c0 47 36 d6 3c 30 fa fe 3d cc 8d b5 3d 25 10 ec bc
       0.026148928 0.12450063 0.08864936 -0.028816292
0001d0 a0 9d 26 3d 42 3b 3e be 47 18 9f bd 06 f1 b3 bb
       0.040677667 -0.18577293 -0.077683024 -0.0054913787
0001e0 e7 99 e1 bd 22 2b fe bd 70 8a e7 bc 40 9d 2b bc
       -0.11015683 -0.12410571 -0.028264254 -0.010474503
0001f0 82 47 c3 3d 65 4c 7d 3b db 31 1b be 37 ea 43 3e
       0.095351234 0.003865027 -0.15155737 0.19132315
000200 09 f8 c7 bd 77 98 3e 3e 01 62 47 be d5 82 09 be
       -0.09764106 0.18612848 -0.1947098 -0.13428815
000210 40 4c 3e 3d a8 ba c4 3d 40 7d 0e 3e dc e8 87 3d
       0.046459436 0.09605914 0.13914967 0.06636211
000220 bc dd 45 be 94 4c 0e be 24 98 22 3e 74 26 0a 3e
       -0.19322866 -0.138964 0.1587835 0.13491231
000230 63 c9 eb 3d 24 37 44 be c9 f0 3a 3e ac 5f f6 bd
       0.11513021 -0.1916166 0.18255915 -0.12029967
000240 1b ef dc bd 17 a1 05 be 70 92 3a 3b aa 87 59 bb
       -0.10787793 -0.13049732 0.0028468631 -0.0033192434
000250 6d 9d 4b bd ee c6 3c 3e 28 a3 f7 3d 17 e0 05 be
       -0.04971068 0.1843526 0.120916665 -0.13073765
000260 fb 7f 9c bc 34 78 0d 3e d0 d0 49 3e 4a 00 61 bd
       -0.019103995 0.13815385 0.19708562 -0.054931916
000270 a7 f5 d6 3d 51 b4 cd bd 86 3b 1d 3e 3d a5 a0 bc
       0.10496073 -0.10044158 0.15354738 -0.019610042
000280 a0 5f 17 bd bd 36 4a 3e 66 69 e6 3d fb 02 e7 3d
       -0.03695643 0.19747443 0.11250572 0.11279865
000290 4f fa 19 3e 66 3d 3e 3e a5 52 ba bd ab 66 c8 bd
       0.15036891 0.18578109 -0.090977944 -0.09785207
0002a0 2e 2b 9a 3c dd a0 ea 3c 98 3c 2e 3e 25 c7 01 3e
       0.018819418 0.028641159 0.17015302 0.12673624
0002b0 72 5f 4a bd d0 62 0b be 78 d2 0f bc 36 77 19 be
       -0.04940743 -0.13611913 -0.008778207 -0.14986882
0002c0 00 f7 8f 3c 27 db 3a bd ca 60 10 3e 60 4e 53 3d
       0.017573833 -0.045619156 0.14099422 0.051588416
0002d0 7b 2b c4 bc 31 c9 ea 3d 7a b1 08 be 17 1e d0 bd
       -0.023946514 0.114641555 -0.13348952 -0.10161989
0002e0 bb 7b 48 3d 9e f3 6f 3c 3f 27 14 be cf 30 e5 3d
       0.048946124 0.014645485 -0.14468096 0.1119095
0002f0 78 e5 2f be c8 13 55 3d f5 a9 ad 3d 1c 44 fa bd
       -0.17177379 0.052020818 0.08479682 -0.12220022
000300 9d 06 ee 3d b8 3f c2 bd 6e ec eb 3d c7 a1 0d be
       0.11622355 -0.0948481 0.11519705 -0.13831244
000310 c6 03 17 be 64 53 dc bc 39 e9 d8 3d 34 47 f2 bd
       -0.14747533 -0.026895232 0.10591359 -0.11829987
000320 07 d9 17 be 9d 48 f9 3d 1f e0 c4 3d 00 65 2b 3e
       -0.14828883 0.12172053 0.0961306 0.16737747
000330 64 f0 09 bd de 30 1d bd 0f 3d 95 3d 7f f8 fc 3d
       -0.03367652 -0.03837668 0.07287037 0.12352084
000340 7b 52 23 be 0e f0 45 3e bd 3b 9f bd 65 a8 2f bd
       -0.15949433 0.19329855 -0.07775066 -0.042885203
000350 37 68 db bd d2 d5 4a 3d af 62 c4 3d f6 f4 51 b9
       -0.10713237 0.04952032 0.09589135 -0.00020023048
000360 82 ef 3f 3e 27 79 34 3e 91 e1 c7 bd 0b 91 39 3e
       0.18743709 0.17624341 -0.0975982 0.18121736
000370 37 32 a1 bd fa e7 e2 bc 24 32 3f 3e 96 07 9c 3d
       -0.07870906 -0.027698506 0.18671471 0.076186344
000380 8a fd fc 3d 67 6b 1b be 0b 8d 20 3e 5c 5d 73 bc
       0.12353046 -0.1517769 0.15678804 -0.014853802
000390 cb 12 43 3d d8 2a 71 3d 9a af e1 3d 68 67 24 3e
       0.047625344 0.05887875 0.110198215 0.16055071
0003a0 31 14 ed 3d f4 f6 f5 bc 2c 58 3b 3e ef 64 ec bd
       0.11576117 -0.030024983 0.18295354 -0.11542689
0003b0 f7 85 5c 3d 60 e3 76 3d b4 2f a9 bd 1f 5d 32 3d
       0.053838696 0.060275435 -0.08261052 0.04354584
0003c0 2d 08 24 3e 47 37 8d 3d f3 94 13 3d bc 88 98 3d
       0.16018744 0.06895309 0.03603072 0.07447955
0003d0 65 53 04 3d 9e 6a 19 3e 73 86 1e 3d 8d 8e a3 bd
       0.032306094 0.14982077 0.03870244 -0.07986174
0003e0 e9 d5 2a be fe 99 5e 3c ed 6b fd bd e1 22 ba bd
       -0.16683163 0.013586519 -0.12374101 -0.09088684
0003f0 9b 32 ce 3d d5 b1 b3 bd ce 8e 2c 3e 77 24 da bc
       0.10068246 -0.08774153 0.1685135 -0.026628716

convs.1.bias f4 [128]
000000 73 d0 49 37 a2 e8 dd b7 68 73 ce b7 25 99 a7 b7
       1.2029067e-05 -2.6453581e-05 -2.4610854e-05 -1.9979265e-05
000010 e7 e2 13 37 09 35 9a 36 e1 7c ee b5 c1 35 63 35
       8.814713e-06 4.5957318e-06 -1.7768726e-06 8.464231e-07
000020 e3 b3 82 37 5d 11 0b 36 22 a6 07 b7 35 f2 40 37
       1.5580974e-05 2.072272e-06 -8.085308e-06 1.1500485e-05
000030 05 11 14 b7 9a 8b 0f b7 44 f7 f7 37 2c a6 ab b6
       -8.82545e-06 -8.555968e-06 2.9559837e-05 -5.115542e-06
000040 70 50 0c 35 76 90 bc 36 cd 2b 35 b8 d9 e7 2d 38
       5.2271116e-07 5.619654e-06 -4.3194555e-05 4.146234e-05
000050 f5 c8 13 37 80 17 84 b6 6f a6 17 37 db 61 88 35
       8.808672e-06 -3.9366423e-06 9.039052e-06 1.0161269e-06
000060 22 b5 cf 35 66 13 27 34 44 5b c4 b7 ed 9b a6 b6
       1.5475418e-06 1.5560144e-07 -2.340752e-05 -4.9653377e-06
000070 b3 35 89 b6 2e 41 5b 37 08 95 91 37 f9 8e dc b3
       -4.0891696e-06 1.3068593e-05 1.7354745e-05 -1.0270555e-07
000080 9f df 4c b6 ea 31 63 36 e2 ad 85 36 f4 4d 14 b7
       -3.0528533e-06 3.385469e-06 3.9839515e-06 -8.839637e-06
000090 d0 a4 27 b7 84 ee a8 b7 21 a2 e4 b5 7b 18 83 36
       -9.992349e-06 -2.0138228e-05 -1.703451e-06 3.906954e-06
0000a0 63 86 b9 37 75 54 81 b7 95 e5 0c b6 66 e0 78 36
       2.2116297e-05 -1.5417327e-05 -2.099526e-06 3.7085497e-06
0000b0 dd 75 1c b8 dc 88 55 36 3a e2 a3 38 27 78 88 37
       -3.7303067e-05 3.1819136e-06 7.814584e-05 1.6268414e-05
0000c0 11 9a 14 37 44 c5 a4 b8 81 bb 54 37 81 e0 b9 b6
       8.857359e-06 -7.856873e-05 1.2679841e-05 -5.5395653e-06
0000d0 4d fd 22 37 aa 9e a2 35 0b bb a5 b6 50 1c 8c b6
       9.714929e-06 1.2116118e-06 -4.939158e-06 -4.175621e-06
0000e0 4b fc bc b7 61 04 6e b7 8d 0d 0c 37 31 5e 01 36
       -2.252883e-05 -1.4186925e-05 8.347805e-06 1.9277325e-06
0000f0 0e 8a 88 37 b5 bd e1 36 13 d5 66 36 07 99 b9 b7
       1.627675e-05 6.7276073e-06 3.4396696e-06 -2.2124977e-05
000100 42 23 43 b7 38 e1 b4 b6 ab 57 85 38 00 53 97 36
       -1.1631115e-05 -5.390637e-06 6.3582636e-05 4.509813e-06
000110 08 d8 70 b7 9f 7f a1 37 52 4c 28 36 11 b5 39 b7
       -1.4355413e-05 1.9252124e-05 2.5078375e-06 -1.1069017e-05
000120 9c 86 9d 38 54 6a 84 35 7a b0 9f b7 8c ab 46 b7
       7.511416e-05 9.865712e-07 -1.9036455e-05 -1.1841661e-05
000130 db 08 2f b7 0c 0d 53 b7 10 d9 87 b6 19 0f 2d b7
       -1.0432875e-05 -1.2579618e-05 -4.048583e-06 -1.0315119e-05
000140 be 84 82 b6 4a 49 15 b8 fa c3 7c 37 8a 70 c7 34
       -3.889755e-06 -3.5592624e-05 1.5066e-05 3.714852e-07
000150 ba 01 19 38 d6 6a c3 36 94 4c 01 b8 12 2e ac 37
       3.647965e-05 5.82389e-06 -3.0827316e-05 2.0525451e-05
000160 f8 c4 fe b5 ca 73 1c b8 f5 be 3e 37 83 70 20 36
       -1.89818e-06 -3.7301135e-05 1.1369343e-05 2.3907348e-06
000170 34 59 99 37 16 09 ab 36 f8 d2 51 b6 75 70 bf b5
       1.828056e-05 5.097255e-06 -3.1266227e-06 -1.4263338e-06
000180 4a 9d b9 36 c5 74 5e b7 51 80 00 b7 ec 58 ff 37
       5.5317405e-06 -1.3259419e-05 -7.6592705e-06 3.0439776e-05
000190 b6 32 06 b7 81 8b a9 b6 a4 4e 10 38 b0 b9 7b b6
       -7.9988295e-06 -5.052833e-06 3.4405515e-05 -3.751e-06
0001a0 c8 36 4d 38 37 d5 2b 36 67 d5 8d b5 74 58 b0 36
       4.8926828e-05 2.5605093e-06 -1.0567427e-06 5.255506e-06
0001b0 80 ed 07 36 17 97 9e b5 fd 14 bc b6 cc 2d 1b 37
       2.025481e-06 -1.181589e-06 -5.60528e-06 9.249383e-06
0001c0 f5 4d 20 37 f8 bc bc 36 77 ea 51 b8 be fc 3f 37
       9.554894e-06 5.6248355e-06 -5.0047845e-05 1.1443333e-05
0001d0 29 52 52 37 19 44 60 b7 84 83 34 37 4a cc 76 36
       1.2536105e-05 -1.3367296e-05 1.0759457e-05 3.6775768e-06
0001e0 31 f0 2e b7 bf ea 65 b7 e4 f0 89 b7 c1 4f 01 37
       -1.0427132e-05 -1.370412e-05 -1.6443846e-05 7.707568e-06
0001f0 82 b5 07 37 71 76 40 b7 31 7c 9e 35 2a 06 bd b6
       8.088888e-06 -1.1471669e-05 1.1808062e-06 -5.6333565e-06

convs.1.lin.weight f4 [128, 128]
000000 27 32 99 bd 77 56 78 3c 3d 18 a7 bd 43 40 01 3e
       -0.07480269 0.015157334 -0.0815892 0.1262217
000010 a2 fd 8f bd 07 77 f8 bd 0d 6e aa ba 42 ea 19 bd
       -0.070307985 -0.12132078 -0.0013002768 -0.03757692
000020 b1 02 ef 3a bd 5f 0b be 1c d6 bb 3d e3 fb 2b bc
       0.0018235055 -0.1361074 0.091716975 -0.010497066
000030 92 b1 56 3d f8 8b a1 bd 24 0c af bd 2d 53 ad 3c
       0.052415438 -0.07888025 -0.085472375 0.021157825
000040 d0 a3 0c be 92 d9 9a 3d 57 46 0f 3d 7d d5 62 3d
       -0.13734365 0.075610295 0.03497919 0.05537938
000050 96 87 a5 bd 48 e7 07 3e 5c 47 37 bb 83 73 33 3c
       -0.080825016 0.1327182 -0.0027966117 0.010952833
000060 68 44 cb bd ce 71 08 be 4b 69 fc bc cd c9 4c 3d
       -0.09925157 -0.13324663 -0.030811926 0.04999714
000070 26 3a 51 3d 49 bc 99 bd 66 ed 7a bd 15 3b 95 bd
       0.051080845 -0.07506616 -0.061261557 -0.0728666
000080 ac ca 17 be b6 af 1c 3e 84 6d 0c 3e e5 d5 db bc
       -0.14823407 0.15301403 0.13713652 -0.026835391
000090 0a 9d 0c bd ca 3a 0d 3e 3a 9e 1d 3e bf a1 2c bd
       -0.03432945 0.13791957 0.1539239 -0.04214644
0000a0 b4 ff 61 3c 00 b0 cc 3d de e1 c4 3d 29 dd 18 3d
       0.0137938745 0.09994507 0.09613393 0.03732029
0000b0 b2 6e 0e bd 65 ce f2 3c 05 03 6f 3d 2f 17 60 3c
       -0.034773536 0.029639432 0.05835249 0.013677402
0000c0 7a 86 11 3e 0d 39 08 bd a5 2d e3 3b 7a c1 81 3c
       0.14211455 -0.033257533 0.0069329315 0.015839327
0000d0 e9 88 f6 3d 4c 7d cc bd 5d 51 db bc 6a 07 af bc
       0.12037832 -0.09984836 -0.026772195 -0.02136584
0000e0 ed eb 05 3d 47 d4 6c bc fa 71 17 3c f7 72 13 bd
       0.0326957 -0.014454908 0.009243483 -0.03599831
0000f0 63 14 32 3d a7 2a 57 3d 3a d1 32 3c 77 76 09 be
       0.043476474 0.05253091 0.010914141 -0.13424097
000100 9b 95 1e 3d ff 3d a7 b9 31 f8 15 3e ca 22 02 be
       0.038716894 -0.00031898913 0.14645459 -0.12708583
000110 3b 09 1b 3e 98 0d 40 bd 39 f8 90 bd 0b 80 61 bb
       0.1514024 -0.046887964 -0.07078595 -0.0034408595
000120 99 ac de 3d 2c 78 83 bc 3d 0a 2e 3d b7 6f 9a 3d
       0.10872764 -0.016048513 0.042490233 0.07540839
000130 90 85 ab 3c f8 aa 05 be ce fe d1 3a 42 e2 57 bd
       0.020937711 -0.130535 0.0016021372 -0.05270601
000140 f1 e8 c2 bd bf f1 07 3d de ef 74 bd ec d3 cb 3c
       -0.09517086 0.03318953 -0.059799068 0.024881326
000150 7d 91 61 bb d5 5e e9 3d 26 22 b6 bd 8a 90 5c bd
       -0.0034418993 0.11395041 -0.08893232 -0.05384878
000160 f5 5e 77 3d d9 c0 ab 3c 96 1b ed bd e3 7a 4e 3c
       0.060393292 0.02096598 -0.11577527 0.012602541
000170 29 79 8d 3d 0d 11 95 bb 77 8d d6 3d ad 0f df 3d
       0.06907875 -0.0045491518 0.10476201 0.10891662
000180 ee 9e 0c 3c 13 e0 a6 3d 6a 90 1c be 43 5d c2 3d
       0.008582814 0.081482075 -0.15289465 0.094904445
000190 54 e7 00 3d ec 6b 05 3d a6 cc 52 bc 10 76 03 3d
       0.03147061 0.032573625 -0.012866175 0.032095015
0001a0 e6 bf 1f 3d 59 d8 1d 3e 4d 00 46 bd 4a 50 b5 3c
       0.039001368 0.15414561 -0.04834013 0.022133011
0001b0 2e e4 cc 3d 6d 0f 02 be 94 77 ca 3c 13 29 2d 3d
       0.10004459 -0.12701197 0.024715222 0.0422755
0001c0 5f 30 1d 3e ea 74 9f bc 1b a6 00 be 8d 5d 92 bd
       0.15350483 -0.019464929 -0.12563364 -0.0714675
0001d0 73 d3 51 3d 39 cd 5a bd 24 08 94 3d 5c 43 a3 bd
       0.051227044 -0.05341837 0.07228115 -0.07971832
0001e0 e9 47 02 be 8f be ca bd 99 bd 18 3e ae 7a 3d 3d
       -0.12722744 -0.098996274 0.14916076 0.046259575
0001f0 5f 4b 1e be 4f ba 0f be c6 d1 ad 3c fd 09 88 bd
       -0.1545844 -0.14035915 0.021218192 -0.0664253
000200 39 7b 95 bb eb 70 16 be dc 3c 84 bd 7e 0a 0b be
       -0.0045618084 -0.14691512 -0.064569205 -0.13578221
000210 61 80 f1 3d 8d 45 1b 3e 93 c8 bf 3d 61 b1 04 be
       0.117920645 0.1516325 0.09364428 -0.1295829
000220 2b 4c cf bd a7 d8 15 3e c4 ac 17 3e c9 ee 3a 3d
       -0.1012195 0.14633428 0.14811999 0.04563788
000230 e7 60 91 3d 53 ff d1 bd 82 f4 ec 3d 53 b6 95 bd
       0.07098561 -0.10253777 0.11570074 -0.07310166
000240 c2 19 14 be 02 b4 2a bd 83 4f 94 3d ae 20 81 3c
       -0.14462951 -0.041675575 0.07241728 0.015762653
000250 e3 3d 10 be e1 bb a7 3d c2 cc 63 bd 01 50 8b 3d
       -0.14086108 0.08190132 -0.055615194 0.06802369
000260 e7 4c fd bd 8e 4c db 3d a6 7f 17 be f0 8f 54 bd
       -0.123681836 0.10707961 -0.14794788 -0.051895082
000270 03 fc 90 3d 2d d9 08 3d 2a a1 e5 3d 9b de 11 3e
       0.070793174 0.03341024 0.1121238 0.14245073
000280 94 c3 8b bd 3e 77 1d be ec cc 0e 3e ad 69 d0 bd
       -0.06824413 -0.15377519 0.13945359 -0.10176406
000290 d2 9e 0c 3e 71 01 6b bd bc ee cd 3d 41 16 14 be
       0.1373246 -0.05737442 0.100553006 -0.14461614
0002a0 e2 be 01 3e bf 10 ef bd fc 2f 14 be 0d 4e 98 3d
       0.12670472 -0.11673116 -0.1447143 0.07436762
0002b0 be ff 78 bd b5 7f f4 3c 0a 23 0a be df ef 01 be
       -0.06079077 0.029846052 -0.13489929 -0.1268916
0002c0 eb 45 53 bd 7e c4 5c bd bc 61 8e 3d 25 53 c6 3d
       -0.05158035 -0.053898327 0.06952235 0.09683827
0002d0 b2 d0 04 be 03 10 09 3d bc b6 a8 bd ee 51 ed 3c
       -0.12970236 0.033462536 -0.08237979 0.028969731
0002e0 76 93 e8 bd a2 42 26 3d 81 6b b3 bd 41 c7 0f 3e
       -0.11356251 0.04059089 -0.08760739 0.14040853
0002f0 c3 1c e6 bd ea 67 f1 3d 11 01 a6 3c c1 85 2f 3b
       -0.112359546 0.11787398 0.02026418 0.0026782604
000300 cf a6 52 bd c0 eb 0b 3e a7 dd 43 bd 97 75 ad 3d
       -0.051428612 0.1366415 -0.047818806 0.08469694
000310 05 cd b7 3d 18 88 13 be 21 aa 09 be 69 24 f6 3d
       0.08974651 -0.14407384 -0.13443805 0.120186634
000320 ce ab cc bb 7a aa 7e 3d 72 80 97 bd a6 3a d6 3c
       -0.0062460667 0.062174298 -0.07397546 0.026151013
000330 74 86 51 bb 49 60 df 3d ee c1 ea bd 60 76 94 bd
       -0.003197101 0.10907037 -0.114627704 -0.07249141
000340 11 45 ad bd 79 2f 04 3e 1a 84 43 3d 43 41 8a bc
       -0.08460439 0.12908734 0.047733404 -0.016876822
000350 11 08 0a be fd 42 ab 3d ac b0 94 3d 1e de 17 bd
       -0.1347964 0.083623864 0.0726026 -0.03707706
000360 ad c6 f8 3d c5 c9 09 bd 73 98 4d 3d 93 4c d9 bd
       0.121472694 -0.033639688 0.050194215 -0.106103085
000370 b3 50 8b 3d cc c9 96 3d b0 cf 8d 3d 97 27 4f bd
       0.068025015 0.073627084 0.06924379 -0.050574865
000380 d3 ba 32 bd c0 43 c8 bd 0e 77 95 bd b9 4b a2 3d
       -0.0436352 -0.09778547 -0.072980985 0.07924599
000390 48 07 0d be cb fd a5 bd 3b b8 a3 bd 23 a2 13 3e
       -0.13772309 -0.08105048 -0.079941235 0.14417319
0003a0 ab b2 b4 bc 13 66 a1 3d 0f cd 36 3d bf e4 38 3c
       -0.022057852 0.07880797 0.044629153 0.011285006
0003b0 ee 8b 0a 3d 20 d3 fc bd 4d b7 b5 3d 0e c8 e1 3d
       0.033824854 -0.123449564 0.088728525 0.110244855
0003c0 53 6a eb 3c 39 85 9f bd 87 b8 9b bd 96 c1 a2 bd
       0.028737223 -0.07789082 -0.07603555 -0.0794708
0003d0 c0 50 43 bd 3f d7 fc 3c c7 1a 0a be c7 d2 fb 3d
       -0.04768443 0.030864356 -0.13486777 0.12296062
0003e0 68 4a c8 bc b9 0b 45 3d b9 39 08 3e dc c2 e7 3c
       -0.024449542 0.048106883 0.1330327 0.028291158
0003f0 6b 5f 01 be 63 1a 54 bd aa 1e 05 3e ba 76 c4 bd
       -0.12634055 -0.051782977 0.12999979 -0.09592958

convs.2.bias f4 [128]
000000 cd 4e ca b7 c6 e9 1a 36 a7 af 78 36 4e dc a7 36
       -2.4116971e-05 2.3083862e-06 3.7057123e-06 5.0026347e-06
000010 dc 7f 49 b6 91 1b 91 35 d7 4a 72 b6 07 06 e7 b6
       -3.0025758e-06 1.0811365e-06 -3.6104373e-06 -6.885038e-06
000020 1d 12 3e b7 c2 37 03 b7 56 a6 86 b8 e5 0a fa b7
       -1.13291e-05 -7.821191e-06 -6.4206004e-05 -2.9807396e-05
000030 e6 83 45 37 01 6c c3 b7 b8 2a aa 37 f2 e5 21 b6
       1.1772825e-05 -2.3296105e-05 2.0285472e-05 -2.4124715e-06
000040 09 79 c2 b7 77 20 d3 37 40 20 f8 b7 fd 51 22 37
       -2.3182964e-05 2.5168278e-05 -2.9578921e-05 9.675042e-06
000050 4d 9d 92 37 0d 1d 07 b7 70 2e f4 b7 8f e4 00 37
       1.7477805e-05 -8.053391e-06 -2.910869e-05 7.68261e-06
000060 1a 6e 67 37 ba a7 15 b7 cc 64 19 b7 c7 97 64 b6
       1.3794308e-05 -8.920144e-06 -9.142979e-06 -3.4062994e-06
000070 9b b4 bb 36 56 bf 08 37 9a b1 15 b7 0f 4c 72 b6
       5.5940595e-06 8.150781e-06 -8.922443e-06 -3.6105082e-06
000080 84 15 50 b5 d1 eb 6d 37 f3 33 c4 b6 ac 51 5f b7
       -7.751735e-07 1.4181206e-05 -5.847303e-06 -1.33108515e-05
000090 61 e6 0c 38 95 e4 81 37 0e 3d 0f 37 0f 1c d9 b6
       3.3593158e-05 1.548444e-05 8.53768e-06 -6.4703704e-06
0000a0 85 32 e3 37 94 59 77 b6 db 7b 1d b7 0f b5 f1 b4
       2.7084034e-05 -3.685801e-06 -9.386767e-06 -4.5021486e-07
0000b0 8f 16 70 b5 7b 09 a1 b7 34 a4 d6 b6 41 d5 8b 37
       -8.9439794e-07 -1.919711e-05 -6.3968128e-06 1.6669395e-05
0000c0 cb 0a bb 35 67 e7 8a 36 40 99 e9 36 46 48 15 b7
       1.3935727e-06 4.1396593e-06 6.9617818e-06 -8.8979195e-06
0000d0 10 b0 a2 37 15 a6 16 b8 0e 2e 3b 37 9d eb 30 b7
       1.939389e-05 -3.5917463e-05 1.11567915e-05 -1.05452755e-05
0000e0 c9 ea 9b b6 5e ac d2 b8 10 e7 92 b7 cb f4 a6 37
       -4.6466926e-06 -0.00010045686 -1.7512153e-05 1.9902733e-05
0000f0 04 40 5c 37 48 88 3d 37 d4 74 8e b7 e2 70 d2 b7
       1.3127927e-05 1.1297008e-05 -1.6982121e-05 -2.5086516e-05
000100 15 d8 9d b7 53 ba 4f 37 c4 04 60 37 f0 06 c4 36
       -1.881648e-05 1.23815435e-05 1.335255e-05 5.842063e-06
000110 db cb c1 b7 64 6d df 36 9c 3b 03 b7 54 11 65 b7
       -2.310232e-05 6.6586526e-06 -7.822087e-06 -1.3653498e-05
000120 db bc c2 b7 60 a4 9a b7 e8 e0 80 37 a0 46 77 36
       -2.3214545e-05 -1.8434774e-05 1.536352e-05 3.6846977e-06
000130 c3 48 84 b7 e2 29 00 37 f1 ca 87 36 9d 9d 61 37
       -1.5769509e-05 7.639146e-06 4.046939e-06 1.3447742e-05
000140 25 2d 67 b7 78 ad 8d b7 47 b4 03 38 cc 70 e6 b6
       -1.3779184e-05 -1.6889288e-05 3.140073e-05 -6.8676654e-06
000150 9e 44 48 37 6b 42 62 35 3f c0 ff b6 15 25 23 b8
       1.1936905e-05 8.428821e-07 -7.6219726e-06 -3.8896764e-05
000160 72 b6 86 37 7e 57 0b 37 c7 48 86 36 5b 50 b5 36
       1.6059003e-05 8.3054165e-06 4.0019836e-06 5.403575e-06
000170 8e 4e 81 b7 2a 11 eb b6 db c4 4c 37 05 d4 90 36
       -1.5414578e-05 -7.005544e-06 1.22051815e-05 4.3162167e-06
000180 5e d3 92 36 4e 81 fa 37 48 8f c6 36 9c a8 8c b7
       4.3757454e-06 2.9862535e-05 5.91754e-06 -1.6767815e-05
000190 c9 af ac b7 47 90 b7 37 09 b5 d5 b5 cd ed 79 b7
       -2.0585854e-05 2.1882484e-05 -1.5922425e-06 -1.4896924e-05
0001a0 5f 36 ac 36 b6 bc a1 37 12 bc 08 37 fc 3c 8b b7
       5.132329e-06 1.9280571e-05 8.15002e-06 -1.659849e-05
0001b0 c6 08 65 36 45 29 07 b7 51 c6 96 b6 d9 b8 a0 b7
       3.4128766e-06 -8.056236e-06 -4.4934354e-06 -1.9159563e-05
0001c0 eb 73 04 37 12 97 be 36 21 08 1d 37 b8 20 3e b7
       7.894802e-06 5.680028e-06 9.359822e-06 -1.13325e-05
0001d0 1d d2 14 36 70 3d 4e b7 d3 af bc 35 e1 bd 44 b7
       2.217602e-06 -1.2292861e-05 1.4058263e-06 -1.172672e-05
0001e0 e0 8c a8 36 ee f9 b3 37 f0 49 5d 35 f8 34 90 b5
       5.02319e-06 2.1454845e-05 8.243651e-07 -1.0744252e-06
0001f0 c5 4a aa 37 0c 43 8a b6 8b ca 97 b7 be d9 d4 b6
       2.0300396e-05 -4.120526e-06 -1.809492e-05 -6.343441e-06

convs.2.lin.weight f4 [128, 128]
000000 52 1c 1b 3e 19 d3 bc bd 3a 5d 54 3d c6 94 93 bd
       0.15147522 -0.09219951 0.05184672 -0.07206111
000010 32 7c 00 3e fe 60 0b 3e 85 4a 0e 3e 19 96 b9 bd
       0.12547377 0.13611218 0.13895614 -0.09061832
000020 c1 f3 c5 3d 5e b8 1c be ed 66 ad bd 41 ae 0b bd
       0.09665633 -0.15304706 -0.08466897 -0.03410173
000030 8a 94 0e 3e e3 52 c8 3d 23 9f b8 3d 68 6d 0c be
       0.1392385 0.097814344 0.09014728 -0.1371361
000040 17 56 0d be ee 1c a8 3d 00 fb ac bd 78 00 92 bc
       -0.13802372 0.08208643 -0.08446312 -0.01782249
000050 0e e3 b4 bd cf ee 48 3d f2 39 03 be b0 69 a0 3d
       -0.0883237 0.04905587 -0.12815073 0.07832658
000060 a7 3a 6f bc 30 a7 00 be d9 9a 10 be 3c e1 f4 bd
       -0.014601386 -0.12563777 -0.1412157 -0.119570225
000070 33 23 e3 3d b2 0e a5 3d 80 e4 cd 3d 19 23 41 bd
       0.11090698 0.080594435 0.100533485 -0.047152612
000080 84 6b aa bc 2d cb b0 bd a0 19 0e be 17 bf f3 3d
       -0.02080322 -0.08632503 -0.13876963 0.11901682
000090 17 88 94 bd ed b7 b7 bc 6c 4d b2 bd 18 3d d4 bd
       -0.072525196 -0.02242657 -0.08706173 -0.10363215
0000a0 45 4e e4 3d 4d 00 6c bd 7b a0 d8 3d dd c1 da bd
       0.11147741 -0.057617474 0.10577484 -0.10681508
0000b0 48 13 30 3d 77 de 51 bb 4c 71 de 3c 7b f7 bd bd
       0.042987138 -0.0032023469 0.027153634 -0.09275719
0000c0 62 ac be 3c 44 58 da bc bc 4a 11 bd f9 1c 75 b8
       0.023275558 -0.026653416 -0.035471663 -5.8439535e-05
0000d0 f8 18 e5 bd 86 c7 8a bd 7c 80 65 3d 65 4c 7d bd
       -0.11186403 -0.06776337 0.056030735 -0.061840434
0000e0 ef 71 06 be 62 2d b8 3c 34 28 7a bc bc b7 1e be
       -0.131294 0.022482578 -0.015268374 -0.15499777
0000f0 8d f9 ef 3d 4b 85 e6 bd a6 2f 62 3d 36 b0 e4 3d
       0.1171752 -0.11255892 0.055221222 0.11166422
000100 65 f8 d2 bd c0 ec ae 3c 20 f0 1c 3e 32 ff 5b 3c
       -0.10301284 0.021353126 0.15325975 0.0134275425
000110 00 79 d1 3d 4b d4 e2 3c 21 df f3 3d 7e be a3 bd
       0.10228157 0.02768912 0.11907793 -0.07995318
000120 89 0d e7 3d 67 a9 da bd 61 27 cc 3d 32 c9 35 bd
       0.112818785 -0.10676842 0.099684484 -0.044381328
000130 1d 38 c2 3d 65 d5 fd 3d fd 44 be bb a6 6c b1 bd
       0.09483359 0.123942174 -0.005806564 -0.08663301
000140 cb 27 f5 bd 60 58 2e 3d 2a b4 0e 3e 5b e7 a6 bd
       -0.119704805 0.04256475 0.13935915 -0.08149596
000150 8e 37 a3 3c fb 1e 9d bd f7 96 0a 3e 35 69 dc bd
       0.019923951 -0.07671925 0.13534151 -0.10762254
000160 f9 fd 6e 3d 35 b4 bc bd 5f bb 5f 3d c1 97 90 3d
       0.058347676 -0.09214059 0.05462205 0.07060195
000170 95 68 4a 3c 39 d9 fe bc 6d 88 1a 3e ec 0a b7 3d
       0.012354036 -0.03110944 0.15091105 0.0893763
000180 dc f1 0c be e1 08 9b 3c 65 e8 dc bd e5 64 0c 3e
       -0.13764137 0.018925132 -0.10786513 0.13710363
000190 e8 7f 80 bd a8 99 0f 3d 5e 50 de bd 5e e6 b3 bd
       -0.06274396 0.035058647 -0.108551726 -0.087841734
0001a0 c5 98 0f be eb d1 74 3c 41 6a e4 bd 4e e5 95 3d
       -0.1402312 0.0149426265 -0.11153079 0.07319127
0001b0 94 dd 15 be db 5f 95 bc f0 07 08 bd 76 9e a2 bd
       -0.14635307 -0.018234184 -0.033210695 -0.0794038
0001c0 27 e7 dc bd 0d 39 60 bd 48 49 65 bd cd 18 4b 3d
       -0.10786276 -0.054741908 -0.05597809 0.0495842
0001d0 8f d7 ee bc cd ea a3 bd ed 66 a0 bd cd 28 96 3c
       -0.02915552 -0.08003769 -0.078321315 0.018330002
0001e0 ed 9a 0d be 00 03 72 bd 46 5a 97 3d 1c fd ca 3d
       -0.13828631 -0.059084892 0.07390265 0.09911558
0001f0 23 4c 18 bc ce c4 53 bd cb cc 95 3b 4b a4 05 3e
       -0.009295496 -0.05170136 0.0045715324 0.13050954
000200 b9 6d c1 bc 2a da 26 bd 36 0c 08 be d4 46 06 3d
       -0.02361189 -0.0407354 -0.13285908 0.03278239
000210 80 1e 8e bd 12 15 85 3d fb 20 1b 3e 2c 8d 46 bd
       -0.06939411 0.064981595 0.151493 -0.048474476
000220 9c 8f eb bb dd 9d 1a be 4c f0 c8 3d 70 86 e5 bc
       -0.0071887504 -0.15099283 0.09811458 -0.028018206
000230 6a f4 35 3d 27 7f da 3d b4 9c fc bd 90 f0 85 3d
       0.044422545 0.10668784 -0.12334576 0.06540024
000240 ea 0f 0e bd e1 9f e8 3d 68 fd 46 3d de 41 8b 3c
       -0.034683146 0.113586195 0.04858151 0.016999181
000250 ac 74 62 3d 74 a2 41 3d 79 45 ec bd 0a 65 15 be
       0.05528705 0.047274068 -0.11536688 -0.14589325
000260 6e 6d ff bd 10 b2 18 3e eb 76 99 3d 65 a2 be bd
       -0.12472044 0.14911675 0.07493385 -0.09308318
000270 1d 20 ff bd c2 a7 7d 3d e3 73 4c bc 9b a3 c7 bd
       -0.12457297 0.061927564 -0.012478801 -0.09748002
000280 6a 01 54 bd d5 ef f3 3d 3a d4 0d be 40 5c ae bd
       -0.05175916 0.11910979 -0.1385049 -0.08513689
000290 c6 24 15 3e 0e 2e 30 3c 3e 17 11 be 67 f4 a6 bd
       0.14564809 0.010753168 -0.14169022 -0.08152085
0002a0 5d ca 37 bc 64 fe 04 3d 0f d6 e6 3d ef 4a ea bd
       -0.011217681 0.03246917 0.11271297 -0.11440074
0002b0 08 d4 af 3d 4e 38 72 3d ec 4c 30 bd 68 6a ca 3c
       0.085853636 0.059135728 -0.04304211 0.024708942
0002c0 0e f3 fb 3a bc d0 8e bd b0 04 81 bd 4c aa b1 3d
       0.0019222216 -0.06973407 -0.06299722 0.0867506
0002d0 ff 50 4f 3c df 0a 15 3e 9f 6e 08 3e d4 38 2a 3d
       0.012653588 0.14554928 0.13323449 0.0415581
0002e0 42 ee b1 bd 94 c6 dc bc ab ed d4 bd 76 8c 93 3d
       -0.08688022 -0.026950158 -0.10396894 0.07204525
0002f0 83 bf 79 bd f6 ee 20 3d f8 9f e7 3d 5d b5 3c bd
       -0.060973655 0.03929039 0.113098085 -0.0460714
000300 f3 29 c2 bd af a5 c3 3b 53 9a f3 bd 05 06 91 3d
       -0.094806574 0.0059706788 -0.118946694 0.07081226
000310 48 1c 80 bd 86 4a 8b bc ea 15 8e 3d 4d aa db 3b
       -0.06255394 -0.017003309 0.069377735 0.006703651
000320 75 33 a1 bd e7 44 9e bc a5 db 0c be 21 fa da 3d
       -0.07871143 -0.019319965 -0.13755663 0.106922396
000330 81 57 d3 bd 66 5e 75 3c 13 58 84 bd 22 02 51 bd
       -0.103194244 0.01497612 -0.06462111 -0.051027425
000340 2d 2d fe 3d b5 06 87 3d 53 a6 44 bd c9 eb a2 3d
       0.1241096 0.06593076 -0.04801018 0.07955129
000350 2c 69 ad 3d bd ef b6 bc f9 93 46 3d 3c f2 c1 bd
       0.084673256 -0.022331113 0.04848096 -0.09470031
000360 76 94 da 3c 88 dc f0 3d eb 9a dc 3c 63 1a a8 3d
       0.02668212 0.11760813 0.02692934 0.08208158
000370 26 2e b4 bc 27 1c fe 3d dc 78 5c bc 3e 99 03 3e
       -0.021994662 0.124077134 -0.0134565495 0.12851426
000380 a7 0d 76 3c f3 8e 53 3d df a2 78 bd 82 0a 88 3d
       0.015017903 0.05165 -0.0607022 0.06642629
000390 67 07 06 be d1 59 ba 3d 51 a0 b6 bb ac ee 8f bb
       -0.13088761 0.09099162 -0.0055733104 -0.0043924656
0003a0 02 1d e0 3d bb e6 16 3d ef 1b d3 bc 2f dd 0b be
       0.10943033 0.036841135 -0.025770156 -0.13658594
0003b0 19 66 b4 bc 91 79 ba 3c c5 03 86 3c 0a da 1a bd
       -0.02202134 0.022763046 0.01635922 -0.037805595
0003c0 66 9a 18 be 9c a4 0e 3e d2 c3 c6 bd d3 39 1a be
       -0.14902648 0.13929981 -0.097053185 -0.1506112
0003d0 3c 16 05 3e 75 18 10 be 3d a5 a6 bd 73 21 2b 3d
       0.12996763 -0.1407183 -0.081369855 0.041779947
0003e0 ba c8 f1 bb 9a ba 9d 3d 9e d7 e7 bd f5 4b f8 bd
       -0.007378665 0.07701607 -0.113204226 -0.12123863
0003f0 be 20 0a 3d 33 1c fd bd e9 e1 d2 3c e1 81 a1 3c
       0.03372263 -0.12358894 0.025742488 0.019715251

bns.0.weight f4 [128]
000000 d9 34 7f 3f b4 95 7f 3f 26 54 7e 3f a0 a8 80 3f
       0.99690014 0.99837804 0.9934715 1.005146
000010 ed e5 7e 3f e2 43 7f 3f 48 16 80 3f d6 d5 80 3f
       0.9956959 0.99712956 1.00068 1.0065258
000020 40 49 80 3f 3b ea 80 3f 3e 9a 7f 3f 27 ea 7f 3f
       1.0022354 1.0071481 0.9984473 0.99966663
000030 b5 95 7f 3f d5 31 80 3f b1 a2 7f 3f 94 f0 80 3f
       0.9983781 1.0015208 0.9985762 1.0073419
000040 c5 77 80 3f c5 a0 7e 3f 2b 6e 7e 3f ba 8d 80 3f
       1.0036551 0.99464065 0.9938685 1.0043252
000050 d2 30 80 3f 7c 6c 7e 3f a5 28 80 3f c6 1b 80 3f
       1.0014899 0.99384284 1.0012404 1.0008476
000060 52 29 80 3f 5c 39 7f 3f 7b 59 7e 3f 4a 5f 7f 3f
       1.001261 0.996969 0.99355286 0.99754775
000070 92 dd 7d 3f 2d 19 7e 3f 75 9c 7e 3f 54 65 7e 3f
       0.99166214 0.99257165 0.99457484 0.99373364
000080 f6 53 7e 3f 4b 1a 80 3f ca 88 80 3f 5b 84 80 3f
       0.99346864 1.0008024 1.0041745 1.0040392
000090 b7 33 80 3f e9 00 80 3f fb 13 7f 3f 8d ae 7c 3f
       1.0015782 1.0000278 0.9963986 0.98703843
0000a0 6c 38 80 3f 63 6b 81 3f dc 49 7f 3f 00 bd 80 3f
       1.0017219 1.0110897 0.99722075 1.0057678
0000b0 6b dd 7e 3f 3a f5 7f 3f 22 11 81 3f 08 30 80 3f
       0.99556607 0.9998356 1.0083354 1.0014658
0000c0 35 e4 7f 3f 39 17 80 3f f3 1c 7f 3f 96 14 81 3f
       0.9995759 1.0007087 0.9965355 1.0084407
0000d0 39 a6 7c 3f 72 e4 7f 3f 90 87 7e 3f 86 a8 7f 3f
       0.98691136 0.99957955 0.994256 0.9986652
0000e0 c1 7a 80 3f 6f 9d 7e 3f d2 5c 7f 3f 2c af 7e 3f
       1.0037462 0.99458975 0.9975101 0.9948604
0000f0 71 c8 81 3f 84 28 80 3f e4 41 7e 3f 44 be 80 3f
       1.0139295 1.0012364 0.9931929 1.0058064
000100 9c 10 80 3f b2 d8 80 3f 26 ac 80 3f 16 16 7f 3f
       1.0005069 1.006613 1.0052536 0.99643075
000110 84 75 80 3f 0c c1 7e 3f 24 4b 80 3f db 8e 80 3f
       1.0035863 0.99513316 1.0022931 1.0043596
000120 cb 6c 80 3f 09 67 7f 3f 1f 7c 7f 3f a1 c8 80 3f
       1.0033201 0.99766594 0.9979877 1.0061227
000130 68 61 80 3f b6 2d 80 3f 88 0b 80 3f 13 10 80 3f
       1.0029726 1.001395 1.0003519 1.0004905
000140 ce f0 7f 3f a5 5c 80 3f b8 67 80 3f e9 f8 7f 3f
       0.99976814 1.0028273 1.0031652 0.9998918
000150 32 76 80 3f 5f 52 80 3f cb 33 80 3f bd de 7e 3f
       1.003607 1.0025138 1.0015806 0.9955862
000160 6c 6f 80 3f ad f6 7d 3f fa 9d 7e 3f b8 ea 7f 3f
       1.0034003 0.9920452 0.99459803 0.9996753
000170 28 b1 7f 3f 17 c8 7f 3f cf 9e 80 3f 8e b0 7e 3f
       0.99879694 0.9991469 1.0048465 0.9948815
000180 34 77 7f 3f b9 7c 7f 3f 7f 95 7e 3f 93 b0 7e 3f
       0.99791265 0.99799687 0.9944686 0.9948818
000190 65 a8 7f 3f 5a e0 80 3f e2 0d 7f 3f dd 6b 80 3f
       0.99866325 1.0068467 0.9963056 1.0032917
0001a0 5b 43 80 3f d8 ae 80 3f f9 65 7f 3f ea f8 7f 3f
       1.0020555 1.0053358 0.9976497 0.9998919
0001b0 04 6e 7f 3f 03 59 80 3f c0 4d 81 3f 31 f9 7e 3f
       0.99777246 1.0027164 1.0101852 0.99598986
0001c0 50 7a 80 3f e2 7a 80 3f e0 17 80 3f 01 e5 80 3f
       1.0037327 1.0037501 1.0007286 1.0069886
0001d0 44 b0 7f 3f e1 4d 80 3f 92 bb 7c 3f c4 b9 7f 3f
       0.99878335 1.0023767 0.9872371 0.9989283
0001e0 9a f0 7e 3f 4c ca 7e 3f 04 b6 80 3f 4d e6 80 3f
       0.9958588 0.9952743 1.0055547 1.0070282
0001f0 8b b0 7f 3f 1d d9 7e 3f 95 03 80 3f a9 4a 7f 3f
       0.9987876 0.9955004 1.0001093 0.997233

bns.0.bias f4 [128]
000000 83 c1 80 bb 04 fd 7f bb 4f 58 83 bb 09 a3 72 3b
       -0.0039293184 -0.0039060721 -0.00400833 0.0037023446
000010 8c c8 34 b9 0f 33 b3 ba 84 07 63 b8 ea 01 a4 3b
       -0.00017240847 -0.0013671833 -5.4128017e-05 0.005005111
000020 eb 0b 84 bb df e3 32 ba 7a 05 ad 3a 36 c9 b8 b9
       -0.004029741 -0.00068241166 0.0013200485 -0.0003524513
000030 5e 30 e6 ba 67 31 6a bb 90 a6 8c 3a b4 2f 02 3c
       -0.0017562022 -0.0035735012 0.0010730792 0.007945944
000040 09 46 b9 39 1d 18 ac bb fe 43 b3 bb 68 ea e6 3b
       0.0003533813 -0.005251898 -0.005470752 0.0070469864
000050 60 f7 34 bb c9 bf 14 bb 0e da bb 3a c1 ba 5e bb
       -0.0027613267 -0.002269732 0.0014331953 -0.0033985826
000060 74 15 78 ba f6 a9 ab 3a b6 94 08 bc 3a 65 c0 bb
       -0.0009463646 0.0013096917 -0.008336237 -0.005871442
000070 f5 fe fa bb e6 4d 50 bb 71 86 b8 bb 82 8c bb bb
       -0.007659788 -0.0031784712 -0.005631261 -0.005723537
000080 40 ab f5 bb cd 71 63 bb 90 e2 0b bb 20 3a 96 3b
       -0.007497221 -0.0034705282 -0.0021344759 0.0045845658
000090 ca a3 88 ba 3e 5a 00 bb 12 3f 9f bb 86 0c ae bb
       -0.001042479 -0.0019585039 -0.0048598135 -0.0053115515
0000a0 bc c1 7d 3a 96 25 4d 3b 2f 88 10 bb 2c b9 62 3b
       0.0009680053 0.003130292 -0.0022053828 0.0034595234
0000b0 79 45 70 bb 2a 07 d6 39 20 98 82 3b d6 a4 61 3b
       -0.0036662503 0.00040822598 0.00398542 0.0034430525
0000c0 40 fd b8 bb 4a 1f 29 ba ac 65 ee 3a d4 d5 59 3c
       -0.005645424 -0.0006451501 0.001818826 0.0132956095
0000d0 de 0c 3a bc 57 54 d0 39 c7 7d b5 bb 51 d6 e1 3a
       -0.011355607 0.0003973569 -0.0055386755 0.0017230009
0000e0 ee cc 6c 3b 40 18 77 bb 41 ce 8b bb 6d bc 32 b9
       0.003613289 -0.0037703663 -0.0042665307 -0.00017045597
0000f0 14 31 64 3c 1c f2 41 ba cf 73 93 bb d5 d7 48 3b
       0.013927717 -0.0007398443 -0.0044998894 0.0030646224
000100 20 ea 1f 3b 9a 8d 0a 3c b0 e8 d9 3a 6c dc 93 bb
       0.0024401024 0.008456612 0.0016625132 -0.0045123603
000110 29 8b 4e 3b a3 07 80 bb 15 da 18 3c 03 03 a9 bb
       0.0031516051 -0.0039071604 0.009329339 -0.0051578297
000120 3f f9 b0 bb b8 8f eb bb ae 68 8f bb 73 c4 b2 3b
       -0.005400806 -0.0071887635 -0.0043764925 0.0054555475
000130 93 ee 2c 3b 1e 1a 67 bb 76 bf 38 3c ec 01 dc 3a
       0.0026387319 -0.003526337 0.011276117 0.0016785241
000140 d4 d6 7c ba 24 9b 92 3a 81 4a bb bb b0 ca d8 bb
       -0.0009645049 0.0011185152 -0.0057156687 -0.006615959
000150 82 b8 42 ba a9 07 83 bb 0f 1f 90 3a b3 37 85 bb
       -0.00074280065 -0.003998716 0.0010995584 -0.0040654778
000160 2a dd 91 3b 0b 52 93 bb 6c f9 cc bb b3 87 91 bb
       0.0044514136 -0.0044958643 -0.0062553193 -0.0044412254
000170 49 30 e8 3a 9f 15 ea ba f2 4a 86 3b 3e 90 1b bb
       0.0017714585 -0.0017859227 0.0040982896 -0.0023737098
000180 ff 71 1c 3b 8b c6 37 39 9a b3 e0 ba c6 de be bb
       0.0023871658 0.00017526203 -0.0017143369 -0.0058248965
000190 39 e4 56 3b de 1b 80 3b 17 69 0c bc ca e4 1b 3c
       0.003278984 0.003909572 -0.008569977 0.009514997
0001a0 26 26 1e bb 84 0f 79 bb 26 90 31 3b 81 e3 0a bb
       -0.0024131625 -0.0038003633 0.0027093976 -0.0021192732
0001b0 cb 78 c6 bb 8d e9 f6 b9 e7 4b a7 3b e1 1f e1 ba
       -0.00605688 -0.00047094785 0.005105484 -0.0017175638
0001c0 dd fa a2 3b 72 c2 1d 3a f0 18 3d bb d9 22 c1 3b
       0.004973753 0.00060180493 -0.0028853975 0.0058940467
0001d0 59 72 1a bb 50 23 34 3b 03 80 f3 bb 15 a8 82 ba
       -0.0023566692 0.0027486868 -0.0074310317 -0.0009968305
0001e0 37 44 10 bb 58 d9 09 bb 7c 89 7b 3b 8d d1 b6 3b
       -0.0022013315 -0.0021034088 0.0038381508 0.0055791796
0001f0 a4 fc a0 ba f8 56 76 bb fa b0 58 3b 6e 10 a2 bb
       -0.0012282324 -0.0037588459 0.003306447 -0.004945806

bns.0.running_mean f4 [128]
000000 f1 63 18 bd b1 30 c8 3d 0a 2f 24 3e 23 02 8f bd
       -0.037204687 0.09774912 0.16033569 -0.069828294
000010 28 44 c7 bc ca 7b cc bd 3d ba c8 3d 9e 21 44 3d
       -0.024324492 -0.099845484 0.09801147 0.047883622
000020 39 0b 05 bd 1e 48 eb 3b 1d 26 8a 3d 7d 84 63 3e
       -0.032481406 0.007180228 0.06745551 0.22218509
000030 fc 6f 0d 3e ff 4a 92 3d 74 b5 62 3d 96 d8 13 3e
       0.1381225 0.071432106 0.05534883 0.1443809
000040 2e c3 f9 3d be a8 11 3e cf df 28 3e eb 66 ed 3d
       0.12195431 0.14224526 0.16491626 0.11591896
000050 04 c8 d0 bb 9d 26 10 be fb 81 45 3e fa 45 73 3e
       -0.0063715 -0.1407723 0.19287865 0.23757163
000060 c4 cd 3f 3e 3e 47 1b 3d b7 56 85 be 47 44 07 be
       0.18730837 0.03790974 -0.2604272 -0.1320964
000070 22 6d 55 bd ba 54 a7 3d 7e 9d d0 3d 98 0b c1 bd
       -0.05210603 0.08170457 0.10186289 -0.094260395
000080 61 c4 ed bc 9d 1b 24 3e b9 07 47 3e 3e 14 cf bd
       -0.029024305 0.16026159 0.1943654 -0.10111283
000090 4c 8b bb bd bd ac 84 bd fe 47 3f 3e fd 17 8b be
       -0.09157428 -0.0647826 0.18679807 -0.2716674
0000a0 e8 e2 b1 bd 7b 72 24 be 08 87 8a bc 55 54 74 3e
       -0.08685857 -0.16059296 -0.016910091 0.23860295
0000b0 cc 0b 00 be bc f9 f9 bc c7 dc 92 3d 50 d3 3c be
       -0.125045 -0.03051459 0.07171016 -0.18439984
0000c0 d6 5a 86 3d fc 55 3b be 05 c6 16 3e 3b ee f6 bc
       0.06560294 -0.18294519 0.14723976 -0.030142894
0000d0 ce 2b e8 bd 9e 76 1b 3e ea a1 d7 bd c3 72 7e 3d
       -0.1133648 0.15181968 -0.105289295 0.062121164
0000e0 6a 3b 1a be 1f ed 96 3b a3 69 8c 3b a5 48 76 3d
       -0.15061727 0.0046059038 0.004285054 0.060127873
0000f0 e4 aa 18 3e 67 7f 41 be 63 0b cd bd b1 51 d0 3d
       0.1490894 -0.18896256 -0.100119375 0.101718314
000100 38 96 04 3d 39 d7 d5 bd 05 0b 0b 3e e5 53 b3 3d
       0.032369822 -0.10441441 0.13578422 0.08756236
000110 49 31 60 3d b7 06 47 bd 31 75 15 3c 7b 9c 9d 3d
       0.054734502 -0.04859039 0.009122179 0.07695862
000120 ce 19 1e 3d 14 b2 67 3e cb 4e 1c bd a5 e5 de 3d
       0.038598828 0.22626525 -0.03816108 0.10883645
000130 8e f4 b7 3c f9 4b 46 bd 42 ca ae 3d e4 35 1c 3e
       0.02245548 -0.048412297 0.08534671 0.15254933
000140 16 da 90 3d 83 c0 84 3d a8 cd 3b be 68 4d e3 3d
       0.070728466 0.06482031 -0.1834017 0.110987484
000150 72 a5 2d 3e fd ab f5 3d f0 ab 5e 3e e9 c7 51 3e
       0.16957644 0.11995695 0.21745276 0.20486416
000160 35 a9 f3 bd 4f 82 f8 bd b6 13 0d 3e bd 72 a0 bc
       -0.11897508 -0.121342294 0.1377705 -0.019585961
000170 30 1f 2a 3c 80 b8 bf bd 0b 9e 36 be 23 79 b9 3d
       0.010383412 -0.093613625 -0.17833726 0.09056308
000180 1c 67 34 be c8 cd 31 3e 6d 96 34 bd b2 c3 b9 3d
       -0.17617458 0.17363656 -0.04408877 0.09070529
000190 68 68 81 3d 5c 4e b1 3d 0a 4f a7 3d c8 8c c6 bd
       0.06318742 0.08657524 0.081693724 -0.09694821
0001a0 fb 43 b2 bd 8d 5d e6 3c c9 0b 5a 3e 1f c4 40 bd
       -0.087043725 0.02812078 0.21293558 -0.047062036
0001b0 9a 50 34 3d 44 fc ac bd a0 7b 1c 3c e7 80 0c be
       0.04402218 -0.08446553 0.009550959 -0.13721047
0001c0 93 43 40 3e 53 62 43 3d 59 40 48 be 32 c4 d2 3d
       0.18775778 0.04770119 -0.19555797 0.102913275
0001d0 75 f3 a7 3b 36 9e b7 3d ea 13 e0 bc 09 bc 0c be
       0.005125458 0.08965723 -0.027353246 -0.13743605
0001e0 37 5e 6c 3d 74 5d 7a be 9b 2a 31 3e 0e ef 5e 3e
       0.057707038 -0.24449712 0.17301409 0.2177088
0001f0 98 e1 e8 bd e0 66 1a 3e 89 ae 31 be 0e 29 4e bd
       -0.113711536 0.15078306 -0.17351736 -0.05033212

bns.0.running_var f4 [128]
000000 9e ee cb 3b e6 ef 1e 3b ec 42 a9 3b 5b 5f 05 3c
       0.0062235137 0.0024251877 0.0051654484 0.00814041
000010 6b b6 43 3b a2 9d 51 3b 2a b9 9e 3c 92 a0 84 3b
       0.0029863368 0.0031984826 0.019375402 0.004047462
000020 f3 de c4 3b a7 8a 83 3b 47 9c ac 3b c0 21 09 3c
       0.006008023 0.0040143314 0.005267653 0.008369863
000030 16 6c 98 3b b8 cd 00 3b f8 26 8d 3a 4e 47 a5 3c
       0.0046515567 0.0019653868 0.001076906 0.020175602
000040 9b b5 a5 3b 66 c5 b4 3b f1 6c 1d 3b 9c 51 49 3c
       0.0050570494 0.005516696 0.0024021233 0.012287524
000050 9d e0 26 3b 63 77 38 3c 5f f4 00 3c d3 bd 29 3c
       0.002546347 0.011258933 0.007870763 0.010360199
000060 c8 f8 8b 3b a5 e8 a0 3b ae 02 e6 3a 37 d7 1d 3c
       0.0042716004 0.004910546 0.0017548406 0.009633831
000070 da 30 1a 3c f2 96 16 3b 2c f0 58 3c 7c 98 b5 3c
       0.009411061 0.0022978154 0.013240855 0.022167437
000080 39 0d 36 3c 9a 8b b1 3c 10 8a db 3b a3 0a b3 3b
       0.011111551 0.021673013 0.006699808 0.0054639145
000090 1b e4 b0 3b 9a aa df 3b 71 c5 8f 3c 7b 89 ec 3b
       0.005398286 0.006825757 0.017550202 0.0072185374
0000a0 48 a8 4b 3b 0e b5 a0 3a bb 2f 88 3c a5 74 d4 3b
       0.0031075645 0.001226099 0.016624322 0.0064836317
0000b0 86 05 72 3b af 51 9a 3b 4c b2 f5 3a fd f4 0c 3b
       0.0036929562 0.0047094445 0.0018745153 0.002150833
0000c0 0d 67 8b 3b cc f5 14 3c 9a 5a 01 3b 19 d2 87 3b
       0.004254228 0.009091806 0.001973784 0.0041449186
0000d0 ea fd 1d 3c e2 1e 27 3c cc d8 28 3a e6 14 13 3b
       0.009643057 0.010200234 0.00064409967 0.0022442876
0000e0 5f 2a 90 3c 57 fd 4d 3c 43 fc 33 3c 26 cf 23 3b
       0.01759833 0.012572608 0.010985437 0.0024995296
0000f0 b8 a8 6c 3b 16 af 95 3c 63 63 51 3b f0 c9 aa 3b
       0.0036111306 0.018271964 0.0031950108 0.005212061
000100 7b 4f 51 3b 67 ff f4 3a 2e a0 9e 3b 40 4f 5f 3b
       0.0031938243 0.0018691838 0.0048408723 0.0034074336
000110 18 4e b0 3b f4 5b 53 3b b0 8d b4 3b c8 bd 16 3c
       0.0053804033 0.0032250853 0.0055100545 0.009200521
000120 71 f4 e2 3a 70 46 8c 3b 6e 53 9d 3a 83 28 b6 3a
       0.0017315281 0.0042808577 0.0012003013 0.0013897571
000130 51 74 19 3c 14 e5 29 3c bf 44 e0 3b de 05 a5 3c
       0.009366111 0.010369558 0.0068441327 0.0201444
000140 04 06 8f 3c c1 a4 c5 3b 66 b3 80 3c e7 5f 94 3b
       0.017458923 0.006031603 0.015710544 0.004528034
000150 97 e9 40 3c 25 bb 64 3b 1a 15 2d 3c 13 dc b8 3c
       0.011774442 0.0034901586 0.010564113 0.022565877
000160 dd 2f 15 3b c0 45 35 3c 67 e2 d5 3b e8 0e fe 3b
       0.0022764124 0.011063993 0.0065272334 0.007753242
000170 7d 11 ac 3b b4 34 a4 3b 06 63 54 3c ba 0a 4f 3c
       0.005251108 0.0050111655 0.012963062 0.012636835
000180 b4 d9 71 3c 1e 2a a9 3b e0 70 11 3c a5 8a 08 3c
       0.014761377 0.0051624915 0.008877009 0.008333837
000190 dd 5d e8 3b 41 f3 2e 3c 94 96 d5 3a e6 b1 68 3b
       0.0070912675 0.010678113 0.0016295486 0.0035506426
0001a0 2c c3 5a 3c be 02 04 3b 68 f3 a1 3c 94 cb 16 3b
       0.013352197 0.0020143236 0.019769385 0.0023009526
0001b0 32 49 28 3b 1d 5b 36 3b a4 7d 23 3c 42 2b 84 3c
       0.0025678393 0.0027825304 0.0099786855 0.016133908
0001c0 ba 98 78 3c a7 e4 04 3c 98 f8 47 3c 30 1f 6a 3c
       0.015173132 0.008111156 0.012205265 0.014289662
0001d0 f0 65 c6 3b 1c fa 73 3b 2d 7b e6 3b 8f 9f dc 3b
       0.0060546324 0.0037227934 0.0070337267 0.006732888
0001e0 00 58 62 3c fc e1 65 3c a4 f3 2c 3c 11 21 54 3b
       0.013814926 0.01403093 0.010556135 0.0032368342
0001f0 3f 19 5c 3c 10 25 26 3c 87 1a b0 3b a8 28 b1 3b
       0.0134337535 0.010140672 0.005374256 0.005406458

bns.1.weight f4 [128]
000000 9b a2 80 3f d7 83 80 3f 14 b5 7f 3f 6b 68 7e 3f
       1.0049623 1.0040234 0.9988568 0.9937808
000010 23 83 7e 3f cf 37 7f 3f 29 2e 80 3f 9b 7d 80 3f
       0.9941885 0.9969453 1.0014087 1.0038332
000020 c9 f8 7c 3f b2 32 80 3f 43 16 80 3f 7d 32 80 3f
       0.98817116 1.0015471 1.0006794 1.0015408
000030 3a a9 7e 3f 9a 51 80 3f 21 4d 80 3f 59 19 7f 3f
       0.9947697 1.0024903 1.0023538 0.9964805
000040 e2 57 80 3f ae 36 7f 3f 33 03 7f 3f ff 9e 80 3f
       1.002682 0.9969281 0.99614257 1.0048522
000050 23 55 7f 3f 4d 7f 7e 3f fd 1c 80 3f e9 27 80 3f
       0.99739283 0.99412996 1.0008847 1.001218
000060 ff 76 80 3f 64 27 7f 3f f5 cf 80 3f 32 a5 7e 3f
       1.0036315 0.9966948 1.0063463 0.9947082
000070 63 fc 7e 3f 14 78 7e 3f 6a b3 7f 3f 0b 2e 7f 3f
       0.9960386 0.99401975 0.9988314 0.9967963
000080 b7 f7 7f 3f 03 84 7f 3f f0 62 80 3f 47 af 80 3f
       0.9998736 0.9981081 1.0030193 1.005349
000090 09 d5 80 3f 5a 99 7d 3f a8 7b 7d 3f 8e 95 7f 3f
       1.0065013 0.9906212 0.9901681 0.9983758
0000a0 33 65 7f 3f fc d0 7f 3f 07 12 81 3f 02 6b 80 3f
       0.9976379 0.9992826 1.0083627 1.0032656
0000b0 dd 3e 80 3f 74 04 80 3f b8 a1 80 3f 9e 87 80 3f
       1.0019184 1.0001359 1.0049353 1.0041387
0000c0 88 fa 7e 3f a1 86 80 3f 2c d8 7e 3f e9 5a 7f 3f
       0.9960103 1.0041085 0.995486 0.9974809
0000d0 10 57 80 3f 26 96 7f 3f 2b 44 7f 3f c5 40 7e 3f
       1.0026569 0.99838483 0.9971339 0.9931758
0000e0 eb 20 80 3f f7 58 80 3f 31 a7 80 3f b0 c7 7e 3f
       1.0010046 1.002715 1.0051023 0.9952345
0000f0 b7 8a 80 3f 38 e2 80 3f 75 bf 80 3f f4 3b 80 3f
       1.0042332 1.0069036 1.0058428 1.0018296
000100 d6 be 7e 3f 57 5e 7f 3f 3b 67 80 3f ff 82 7f 3f
       0.9950994 0.99753326 1.0031503 0.9980926
000110 f6 58 80 3f fb 16 81 3f 82 61 7f 3f 7f 62 81 3f
       1.0027149 1.0085138 0.9975816 1.0108184
000120 de cf 80 3f ac d7 7f 3f e3 4b 80 3f f6 9d 80 3f
       1.0063436 0.99938464 1.0023159 1.0048206
000130 9b e1 7f 3f b7 6a 7f 3f e6 d0 7f 3f 63 97 80 3f
       0.9995362 0.9977221 0.9992813 1.00462
000140 5e 3b 7e 3f c0 fa 7e 3f 54 f7 7e 3f 9f 37 80 3f
       0.9930934 0.99601364 0.9959614 1.0016974
000150 ac ab 80 3f 36 c7 7f 3f 82 22 80 3f 44 c5 7e 3f
       1.005239 0.99913347 1.0010531 0.99519753
000160 ba 2c 80 3f c8 bf 7e 3f 4e 17 7f 3f dd 84 7e 3f
       1.001365 0.99511385 0.99644935 0.99421483
000170 a7 0e 7f 3f 77 2a 80 3f 7c a9 80 3f e7 e1 80 3f
       0.9963173 1.0012959 1.0051723 1.006894
000180 ef a8 80 3f fa 4f 7f 3f 1b 64 80 3f fc 34 7f 3f
       1.0051554 0.9973141 1.003055 0.9969022
000190 96 20 7f 3f 2c 44 7f 3f cb 9a 80 3f 57 b6 7f 3f
       0.996591 0.997134 1.0047239 0.99887604
0001a0 91 6e 80 3f 29 07 80 3f e8 74 80 3f d2 c0 7f 3f
       1.0033742 1.0002185 1.0035677 0.99903595
0001b0 62 c9 80 3f a3 1c 80 3f d4 81 7f 3f 33 a0 7e 3f
       1.0061457 1.0008739 0.99807477 0.99463195
0001c0 44 6e 7e 3f b1 f7 7f 3f dc aa 7e 3f 39 1a 81 3f
       0.99387 0.9998732 0.9947946 1.0086128
0001d0 2f 90 7d 3f 44 05 80 3f e7 dc 80 3f a0 31 7f 3f
       0.9904813 1.0001607 1.0067414 0.99685097
0001e0 f8 0e 80 3f 44 1f 80 3f 55 a9 7f 3f 75 89 7f 3f
       1.0004568 1.0009542 0.99867755 0.9981912
0001f0 4c c7 80 3f 4a 83 7f 3f 6d e5 80 3f bb e7 80 3f
       1.006082 0.99809706 1.0070015 1.0070719
