MY_GNN/trained_models/density/model_Density_fold2.pt (torch, 569525 bytes, 23 tensors)

convs.0.bias f4 [128]
00000000: 2465 9a3a 7435 88b9 1bdf ceb9 2511 edb8
00000010: cfe3 e639 9f85 2038 d6e4 8c39 3799 363a
00000020: 3d5b 82b7 0820 e5b8 1cce d439 697b 8b3a
00000030: 5517 9e37 7abb aeb8 7a40 183a fcbd 88b7
00000040: 4c95 1e39 59f0 0439 8374 42b9 4802 ffb9
00000050: 4f7d b239 88c4 17bb aa96 a2b9 56a6 283a
00000060: e8c3 c4b8 8e46 51b9 f146 2f3a 9113 dd38
00000070: 12da 04b7 983f 0a3b d5bf 9639 9ff2 75ba
00000080: 5e94 48b9 92e2 55ba bb6a 0c38 1fc9 3639
00000090: d85e 6c38 231d b4ba 4a88 9a38 b3cf a1b9
000000a0: d731 f3b9 5511 55b9 c665 a339 d794 8f39
000000b0: e388 343b c4bd 1e38 a135 9fb9 1f65 d8b7
000000c0: 764d b639 728a 0fba ca12 9139 5266 5aba
000000d0: 4aa0 8639 5a30 5bb9 335b 95ba f79c 5bb9
000000e0: 489d d7b8 5183 c0b9 b025 073a 9cb9 c838
000000f0: e056 34b9 9c2e 163a 3197 b838 5553 c639
00000100: fb99 543a 805d 7cb8 f8d2 27b9 e55d 3939
00000110: fb36 5ab8 11d0 5a38 90f3 4439 edae 2738
00000120: 5326 72b9 ecf6 4338 9d23 f439 ee8f 2e39
00000130: fcb1 093a b259 ebb9 b3cb 2d38 1d1f b737
00000140: d68a 0f39 b4eb 2e38 b7f0 9739 043e d539
00000150: d8c5 2bb9 bcf3 aa38 bcd8 443a 2a83 83b6
00000160: 95d2 0eba 0e26 11b8 88bc de38 9295 61b9
00000170: 88aa 58ba 53bc daba 11d0 afb8 f169 bb39
00000180: 784e a23a 9b06 2bb9 5ae9 d6b9 92b1 143a
00000190: aa1f de3a c6e8 4fb9 092f 8539 2438 0c3a
000001a0: f31b 0c39 2ad1 4dba 7ebc 74b9 86bf 43ba
000001b0: b60a a3b9 a238 0539 2a92 35b8 d2b0 f3b8
000001c0: dbf1 3b3a 1139 9938 576d ab39 908a 9039
000001d0: 5f54 b0b8 532a b539 64da 8c38 25b8 773a
000001e0: 1df3 48b9 8ae4 ae39 5a17 483a bd52 4cb9
000001f0: ab49 8539 a0d9 e737 e16e f1b8 4175 afb9
0.001177941 -0.00025979767 -0.00039457608 -0.00011304234 0.0004403875 3.8271417e-05 0.00026873377 0.000696558
-1.5539694e-05 -0.00010925537 0.00040589354 0.0010641637 1.8845933e-05 -8.331887e-05 0.00058079476 -1.6300932e-05
0.00015123672 0.00012678037 -0.00018544686 -0.0004863909 0.00034044168 -0.0023157913 -0.000310113 0.00064334774
-9.382499e-05 -0.00019958077 0.00066862913 0.00010541746 -7.918587e-06 0.0021095034 0.00028753155 -0.00093821617
-0.00019128757 -0.0008159067 3.3478e-05 0.00017431796 5.6355115e-05 -0.0013741594 7.368678e-05 -0.0003086306
-0.00046385705 -0.0002031972 0.0003116561 0.0002738598 0.002754741 3.784687e-05 -0.000303668 -2.5796295e-05
0.00034771458 -0.0005475647 0.00027670554 -0.0008331287 0.00025677896 -0.0002090348 -0.0011394977 -0.00020943941
-0.00010281295 -0.00036718932 0.0005155457 9.5713156e-05 -0.00017198501 0.0005728991 8.801965e-05 0.0003782759
0.0008110103 -6.016856e-05 -0.00016004953 0.00017677953 -5.2026455e-05 5.2169027e-05 0.0001878275 3.9978815e-05
-0.00023093195 4.6721587e-05 0.0004656584 0.00016647551 0.0005252657 -0.0004488952 4.1436124e-05 2.1829788e-05
0.00013689263 4.170435e-05 0.0002898031 0.0004067273 -0.00016381533 8.151631e-05 0.00075091026 -3.9193737e-06
-0.0005448249 -3.4606135e-05 0.000106209016 -0.00021513391 -0.0008265157 -0.0016688205 -8.383406e-05 0.00035746352
0.0012383005 -0.00016310292 -0.0004099112 0.0005672212 0.0016946692 -0.00019827773 0.0002540278 0.0005348942
0.00013361852 -0.0007851297 -0.00023339872 -0.0007467199 -0.00031097763 0.00012704966 -4.328989e-05 -0.00011620078
0.0007169523 7.306238e-05 0.00032697126 0.00027569057 -8.408049e-05 0.00034554544 6.716399e-05 0.0009449742
-0.00019164053 0.0003335814 0.0007632874 -0.00019485778 0.00025422624 2.7638685e-05 -0.00011512428 -0.00033465962

convs.0.lin.weight f4 [128, 19]
00000000: 3ad3 31be 27a6 1cbe 0cc2 0cbe 9993 ce3d
00000010: f798 113d 7770 413e 77e7 0cbe 3662 533e
00000020: 1672 abbd 57b1 dc3d 4990 f03d 89d1 80bc
00000030: c267 b1bd a12c a9bd d9b4 6e3d 3fe0 06be
00000040: 3c05 febd 25f3 1b3e 950b 4ebe 3e4c 28be
00000050: 390c a6bd 850c a23d 36a6 003e a049 a03d
00000060: f3d2 003e ef4c 183d 160d 1dbe cb61 4a3d
00000070: a70e 27be 6ea3 ed3d aca8 32be ba7f fe3b
00000080: 663b 0abe d22d 463e 0609 0c3e 5b4a 3dbe
00000090: 64e0 56be 5d36 2dbc 7a8f 163d 8d76 253d
000000a0: 181d 803d af4c cc3c c454 d8bd f98d 373e
000000b0: 156a 1bbe 23c8 8b3d 6b24 0cbe 5c6d f93b
000000c0: b18b e6bd 18cd 13bd 2424 253e 928d ddbd
000000d0: bd58 803d 0169 a23c 164e e93d 3fc3 b83d
000000e0: 95e9 79bd 3657 c03d ab76 313e b3de cf3d
000000f0: 16a2 0c3e ad56 7d3b 26b2 20be 64ba 843d
00000100: b070 e2bd c5cd d2bd b3c2 14bd 0348 26bd
00000110: 69d5 48be 59ca da3d 9650 9d3d 8373 bbbd
00000120: c62b a83c 6327 43be 2fb7 c7bd 84ed 003e
00000130: 6b0f 473e d901 2ebe ca1c bcbc 32b9 0abd
00000140: 0a1e ab3d 2039 b7bd e955 fe3b a2d0 2ebe
00000150: 1eee 59bd dd82 803d d288 313e a804 a13d
00000160: 37e2 3cbe d795 05be c468 9c3c 6de3 b03c
00000170: 2a41 2fbe 324c 04be 19da 3e3d 748f f9bc
00000180: 732d 143e 386f 48be 9c09 003d 80e2 44bd
00000190: 8b6c 8abd ff90 bdbd ce15 193e 7801 a1bd
000001a0: 6113 42be 91da 1b3c d538 233e 4ade 99bd
000001b0: 08d2 093e c5fc 7bbc 0985 1d3e c607 24be
000001c0: 96ab 713c 5349 9e3d fc26 3fbe e66e 9bbd
000001d0: 50fb c53c 88f1 63bd 0e22 1e3d 5468 b93d
000001e0: 4c6f ba3d 6838 423e 2629 13be 1842 9b3d
000001f0: 726a af3c 443a 47be 7fb6 33be b684 983d
00000200: f612 523d 234f b5bd 1b45 7fbd d696 163e
00000210: 797a cc3d 66d3 14bd 2039 b93c 6fa1 81bd
00000220: 9bcb 303e cf10 02bd a994 343e 4e77 083e
00000230: 6cdb 8bbc cf8f 10be 6e77 273e 3f2c a43d
00000240: b0bc cabd a0ab fbbd 8a2e 4dbe 2d85 cc3d
00000250: 5dd8 e9bd 8e27 1dbe f856 b73b c4f3 a83d
00000260: e02c 15be 2d1b b2bd 9ca6 0fbe db84 8cbd
00000270: 3333 38be 74bd 183e d94f 533d 4b6a 36bc
00000280: 508c 203e 4b91 f43d 6a44 1cbc addf 02bc
00000290: 51a7 57bd cd15 15be a8b0 1dbe 5b75 9e3c
000002a0: e9f1 edbd d4cf a73d b6f8 e1bc ceb3 ecbd
000002b0: ab63 443d b1a7 8b3c e6b6 3dbe 552b 50be
000002c0: 1da8 2c3e d881 63bd 257f 30be c77f a63d
000002d0: 1f06 54bc ebd3 053e 0c4c 263e 0f86 20be
000002e0: f346 243d 35c2 8c3d 3922 463e 3a26 3abe
000002f0: 1bb4 293e f88f 80bd 9685 053c 25a3 16be
00000300: be5e 06be c290 973d 1f8b 553c e0ce e1bd
00000310: 3b6c 3bbe 1087 dfbd a50d 27be 21e0 9d3d
00000320: 9ac9 d5bc 9ce7 36be f0c5 b5bb 2610 1a3d
00000330: 0148 17bc bafb 333d 0ae1 ac3d 48a7 f3bd
00000340: ef0a 1dbd a3f1 14be cd4c e13d c27b aabd
00000350: f385 87bd 8483 043e d12c 2f3e aff6 85bd
00000360: ebac 3d3e 072e 2a3d 6b3d cdbd a196 a83d
00000370: edef d0bd 3886 513d 96b2 c9bd 88b4 1f3c
00000380: da6c 3f3e f7e3 1f3e 539b c0bd 5980 43be
00000390: 29ef de3d 8c01 1d3e fe05 c9bd 9e21 143e
000003a0: 576e aebd f2ce bcbd a59f 4bbd bb25 00be
000003b0: 5f8a cebc 8be1 c0bd 4c55 23be be28 083d
000003c0: be55 4bbd 6c50 b6bd ba60 713d 1dfb 27be
000003d0: bdb5 a3bd af21 22be 8425 85bd f907 c9bd
000003e0: 2a18 0cbe c12a bb3c 0d6b 6c3d fab7 bebd
000003f0: b453 81bd 8b07 61bd 7f28 273e 7acb 39be
-0.17365733 -0.15297757 -0.13745898 0.10086746 0.03554627 0.18890558 -0.13760172 0.20642933
-0.083713695 0.107760124 0.1174627 -0.015724914 -0.08662368 -0.082604654 0.05827794 -0.1317148
-0.12403342 0.15229471 -0.20121606 -0.16435334 -0.081078 0.07912544 0.12563404 0.07826543
0.1258047 0.037182745 -0.15337023 0.04940967 -0.16314183 0.11603437 -0.17447156 0.007766691
-0.13499221 0.19353417 0.13675317 -0.18485396 -0.20984036 -0.010572043 0.036757924 0.040396262
0.06255549 0.02493891 -0.10563043 0.17925252 -0.15177186 0.068252824 -0.13685767 0.0076119136
-0.11257113 -0.036084265 0.16127068 -0.10818018 0.062669255 0.01982546 0.11391847 0.09021615
-0.061013777 0.09391634 0.17330424 0.101498984 0.13733706 0.00386564 -0.15692958 0.06480864
-0.1105665 -0.10293154 -0.036318492 -0.04059602 -0.1961266 0.10683126 0.07681386 -0.091528915
0.020528685 -0.19057994 -0.097517364 0.12590605 0.19439475 -0.16992892 -0.022962946 -0.033868022
0.08355339 -0.089464426 0.007761706 -0.17071775 -0.053205602 0.0627496 0.17337349 0.07862216
-0.18445669 -0.1304544 0.019092925 0.02159282 -0.17114702 -0.12919691 0.046594713 -0.030463912
0.14470463 -0.19573677 0.031259164 -0.04806757 -0.06758984 -0.092561714 0.14949724 -0.07861608
-0.18952705 0.0095125595 0.15939648 -0.075131014 0.13459027 -0.015380089 0.1538278 -0.1601859
0.014750382 0.07728829 -0.18667215 -0.075895116 0.024167687 -0.055650264 0.038606696 0.09053102
0.091032594 0.1896683 -0.14371166 0.07580966 0.021413062 -0.1945582 -0.17550085 0.074471876
0.051287614 -0.08852985 -0.062321763 0.14705977 0.09984297 -0.036334418 0.022610247 -0.06329619
0.1726517 -0.03175431 0.17634834 0.13326761 -0.017072402 -0.14117359 0.16354153 0.08016252
-0.098992705 -0.12288594 -0.20037284 0.09986339 -0.11418221 -0.1534712 0.0055950843 0.082496196
-0.145679 -0.086965896 -0.140284 -0.06861278 -0.17988281 0.1491602 0.05158982 -0.011133741
0.15678525 0.11941775 -0.009537796 -0.007987899 -0.0526498 -0.14559098 -0.1539942 0.019343069
-0.11618406 0.08193937 -0.027584415 -0.115577325 0.047946613 0.017047735 -0.18526801 -0.2032903
0.16861005 -0.05554375 -0.17236002 0.0812984 -0.0129409125 0.13069122 0.16239947 -0.1567614
0.040106725 0.068729796 0.19348992 -0.18178645 0.16572611 -0.0627746 0.008149525 -0.14710672
-0.13122079 0.07400657 0.013033657 -0.110257864 -0.18303005 -0.10914433 -0.16313799 0.07708765
-0.026097108 -0.1786179 -0.0055472776 0.037613057 -0.009233476 0.043941237 0.0844136 -0.11897141
-0.038340505 -0.14545302 0.11000977 -0.08324386 -0.06617346 0.12940794 0.1710694 -0.06541192
0.18522994 0.0415478 -0.1002148 0.08231855 -0.10202012 0.05115339 -0.09848516 0.009747632
0.18693867 0.15614305 -0.09404626 -0.1909193 0.1088546 0.15332621 -0.09815596 0.14465949
-0.085171394 -0.09219159 -0.049712796 -0.12514393 -0.025212465 -0.09418019 -0.15950507 0.03324198
-0.049642317 -0.08902058 0.058930136 -0.16404386 -0.07993648 -0.15833162 -0.06501296 -0.09815974
-0.13681093 0.022847535 0.05771928 -0.093124345 -0.06314793 -0.054938834 0.16324042 -0.18144026

convs.1.bias f4 [128]
00000000: 0830 60b6 a15b e538 d697 e636 d85f 05b9
00000010: b207 4db7 a7f9 6bb7 107e 1ab8 eb88 1836
00000020: e783 0fb8 4051 adb6 6779 d2b7 5226 8eb7
00000030: 0fce 36b7 813d 02b8 f4ba aa37 102a 37b7
00000040: e8f5 08b6 7cdd beb6 c9ab d338 9a37 13b7
00000050: 2a8e 53b6 e16c 88b8 e018 c536 9062 68b7
00000060: 45ac a6b7 1452 4538 4545 e6b8 03a8 e537
00000070: 06f2 0138 7644 bf33 5062 22b8 5649 2537
00000080: f972 7537 52ef 5bb8 d243 91b7 a7fa f5b8
00000090: 35ff f837 72d6 8935 ebde 21b8 dd3e e9b6
000000a0: de1f 8836 af23 af36 d1c1 d3b7 b7c4 b4b6
000000b0: 742c ddb8 2a68 90b8 50d9 2db6 5b95 93b6
000000c0: 81c1 b537 4315 b8b7 9913 0438 6287 6cb7
000000d0: 110b 2c38 efd9 00b8 f992 06b6 fcf4 cab8
000000e0: 67d5 8336 94d4 d2b8 2ce1 d1b6 1325 58b8
000000f0: 31f6 2eb7 0cd3 c936 f0de 49b8 9455 33b8
00000100: 7a0e 61b8 9a65 f7b6 edc9 4436 65e4 0b38
00000110: 4cd2 36b7 ce28 cdb6 10bf e4b7 1236 0eb7
00000120: 8b28 6eb7 8141 6cb8 9dc7 2338 e04d d2b8
00000130: ab4d 5537 d3b0 46b8 af2c 0bb8 5e23 d2b7
00000140: c03f c535 7f95 18b8 5ec5 0637 596c 09b8
00000150: 23f9 98b8 de70 6937 3c04 54b5 d129 a1b7
00000160: 41ff 9638 0515 25b7 7379 5ab8 869c f737
00000170: 62b7 d6b7 9197 abb7 3db9 39b7 b7bf a338
00000180: dbd3 f136 6688 07b9 f051 9137 44e8 a2b5
00000190: 7f19 95b8 5739 c0b6 2e3c 9835 bb86 b3b7
000001a0: a109 ae37 d51d 94b7 61fd 5ab7 4500 22b7
000001b0: 97b3 0135 6dc2 98b7 844d 07b8 efa7 3437
000001c0: 6e83 0639 7e15 89b8 90d3 01b7 bb08 91b7
000001d0: 7263 2f38 f87e 0db8 0ef8 16b8 8c23 85b6
000001e0: 6caa 37b8 6029 cdb6 47d3 84b5 cad3 ebb6
000001f0: 35d3 9337 7077 7337 8b11 6237 4b4e d8b6
-3.340656e-06 0.00010936638 6.87221e-06 -0.00012719573 -1.2220744e-05 -1.4065218e-05 -3.6833866e-05 2.2729462e-06
-3.42167e-05 -5.1652605e-06 -2.5090483e-05 -1.6945563e-05 -1.0896022e-05 -3.1051695e-05 2.0352636e-05 -1.0917443e-05
-2.0408715e-06 -5.6882254e-06 0.000100932615 -8.7748285e-06 -3.15242e-06 -6.5052656e-05 5.8739533e-06 -1.3851226e-05
-1.9868961e-05 4.70449e-05 -0.00010980157 2.7377164e-05 3.09814e-05 8.9065836e-08 -3.871537e-05 9.851841e-06
1.4629907e-05 -5.2436553e-05 -1.7316928e-05 -0.00011729198 2.9682744e-05 1.0269707e-06 -3.8593e-05 -6.9512594e-06
4.0568257e-06 5.2195605e-06 -2.5243413e-05 -5.3873187e-06 -0.00010546381 -6.885857e-05 -2.5905501e-06 -4.3983287e-06
2.1666989e-05 -2.194441e-05 3.1489504e-05 -1.4098217e-05 4.1018302e-05 -3.0720545e-05 -2.0053105e-06 -9.6777425e-05
3.9289475e-06 -0.00010053176 -6.254899e-06 -5.153294e-05 -1.0428529e-05 6.014836e-06 -4.812976e-05 -4.2756626e-05
-5.3657663e-05 -7.3730016e-06 2.9323812e-06 3.335289e-05 -1.0897009e-05 -6.1142264e-06 -2.7268688e-05 -8.476449e-06
-1.4195345e-05 -5.632779e-05 3.9048133e-05 -0.00010028086 1.2713873e-05 -4.737156e-05 -3.3181797e-05 -2.505042e-05
1.4696197e-06 -3.6378853e-05 8.0329755e-06 -3.2764252e-05 -7.29433e-05 1.3914161e-05 -7.8982316e-07 -1.9212168e-05
7.200102e-05 -9.83966e-06 -5.208836e-05 2.9517581e-05 -2.5596182e-05 -2.0455367e-05 -1.1069988e-05 7.808155e-05
7.207023e-06 -0.00012925416 1.7323502e-05 -1.2137539e-06 -7.109623e-05 -5.728721e-06 1.1342397e-06 -2.1401202e-05
2.07469e-05 -1.7656866e-05 -1.3052807e-05 -9.656015e-06 4.831758e-07 -1.8210349e-05 -3.22587e-05 1.0767936e-05
0.00012828197 -6.536672e-05 -7.738257e-06 -1.7289412e-05 4.1815867e-05 -3.373527e-05 -3.5993806e-05 -3.967847e-06
-4.3789318e-05 -6.114293e-06 -9.896256e-07 -7.0282013e-06 1.7622117e-05 1.4511737e-05 1.3474734e-05 -6.446416e-06

convs.1.lin.weight f4 [128, 128]
00000000: d47e cbbd 0d1d 883d 7d41 a4bb d379 94bd
00000010: d02d 03be 7fca 0b3e 56a2 0f3e 9925 e3bd
00000020: d4e1 fcbd 507b a93d 78bc c0bd 7c8c a13d
00000030: 3a42 c7bd d99c b53c 69a4 21bc f485 56bd
00000040: 979d 94bb 5156 033e c2c9 0ebd bd6a 8ebd
00000050: c4fb f43d d2f3 64bd 39ed 37bd 3345 163e
00000060: 880e 10be 0d18 ff3d cf54 81bd 53d5 053d
00000070: 4fb8 b2bd 057f 623d 0b2c aabb c7ac 04be
00000080: a2f1 083d ea85 d73c 3005 133e 04c9 a23d
00000090: 90b7 e4bd 77da 61bb fffa bfbd 8868 e13c
000000a0: c165 c73d a209 fb3d 9995 f13d 4dbd c0bd
000000b0: 4185 183c 25d5 6dbd f743 69bd 09ce bdbd
000000c0: cf9a c0bd 1d36 653b e50a 163d 0714 6a3d
000000d0: d352 903d b433 16be 8cbf 933c 2116 70bd
000000e0: adc6 19be e5c6 0a3e 9219 6dbd 0115 0fbe
000000f0: f156 c5bc 890d 123e 7b6b c63d 5899 6c3d
00000100: 420c 17be efbd abbd ab1a a83d a852 cabd
00000110: 45b1 0dbe 06bb fc3d 9308 a43d 5247 e8bd
00000120: 130b f2bd d7f4 8a3d a9de fc3d 7792 a53d
00000130: 1792 f33d 973c 0bbe 8adc e73c 8c0b e83d
00000140: 8894 5d3d 6268 e23a 7c9e 1c3e f174 813d
00000150: 49ed 673d 9222 033d 2d26 c6bc 78fc 09be
00000160: 3dfb 7c3d c99a b9bd fea5 013d 4c2a 62bd
00000170: b901 543d b6f5 ef3d 6306 acbd c238 ce3d
00000180: c302 36bd b627 c0bb bc30 0bbe 8bd6 0b3e
00000190: fca7 71bd 603a 12be 98b2 08bc 33b8 083b
000001a0: 48b5 ce3d cb7d c13d da20 c3bd 9915 febd
000001b0: 2ccd 8ebd 4b2c c2bd 0d53 0d3e e8e4 81bd
000001c0: dede 9bbc b488 3d3d 77f8 2d3d 4530 573d
000001d0: 96ce 9a3c d7bd 00be 8b43 8bbd b5b5 0dbe
000001e0: ffc1 17be 8a3c 91bd bad4 d0bd 44e8 98bd
000001f0: 31e5 e03d 9a89 cc3c 646d a3bd 12bb abbd
00000200: cd97 a3bd d2f8 e93d 32c3 e8bd 4396 04be
00000210: 21c5 483c b9e9 42bd a676 623d 3b57 b43b
00000220: 6397 d2bd 2792 90bd 6a7a 683d 056f 58bd
00000230: 230d 82bb 330a fc3d 0c3a a23d f552 1cbe
00000240: 7f0f 0e3e 71c5 06be a050 1a3e 8285 e7bd
00000250: 3ad2 9abc 36e4 dabd 9612 153d 6180 3f3d
00000260: 3762 373c 0c46 fdbd b693 b9bc 26c1 013e
00000270: f4b0 c3bd 657b 9fbc 3ae7 19be be5a 0b3e
00000280: bbfb 34bd 8916 cebd 2f0c 61bd 4346 babd
00000290: e60b 123e 65ea 09be 4438 f43d 7c41 70bd
000002a0: 4df8 73bd 6f10 8bbd e9c2 eabd 9748 01be
000002b0: 315b 743d 35a3 21be e8b9 acbd f632 4dbb
000002c0: 892d 903d 941b 12be 739e 15be e435 ed3d
000002d0: 5b8d b23d e741 1c3e ed65 12bd 405d d1bd
000002e0: 2a90 adbd 5a62 13bd e181 19bd 330e a13d
000002f0: 2c5f b03d 1893 d7bc 8930 2dbd 1707 0bbe
00000300: 27d2 e2bd 6a38 c3bd 294e f93d 9ef5 ef3d
00000310: 248c 023e b278 13bd 25a1 09be 3cc9 a23d
00000320: 0c10 b3bd 73dc 00be 9ae5 11be db93 a73d
00000330: 8570 09be 165e b6bd ad35 76bd 3dff ae3d
00000340: 8d39 89bd e289 14be 3eb6 d83d c90e 80bd
00000350: ad87 debd deca e2bc 2e2c 66bd 3ec1 0a3d
00000360: 922c 1dbc 5c65 0abe 3621 b83d 7160 ce3d
00000370: e060 61bd 417b 01be ded9 df3d 8d0a 69bd
00000380: d838 c5bd de83 2ebd 27bb f3bb bc7c 03be
00000390: 2af4 82bd 5d91 86bd 80e6 ca3d 1db8 8cbd
000003a0: 5aad 5dbd 5a5d aabd 1275 c9bd 4ba0 773d
000003b0: 40cc 11bd d9dc 3dbc 822e 453d abed f43d
000003c0: 1761 193e 67cc 56bd 42e5 e93d a0f0 f83c
000003d0: bf2d 883d ed46 96bd ef3a a7bc c4f1 2dbd
000003e0: 0ffb 533d 3aaa 8e3c 681b b1bd d50b 17bd
000003f0: 41d9 0cbd 2a10 be3d b331 30bd 98fe d4bd
-0.099363 0.06646166 -0.0050126896 -0.072497986 -0.12810445 0.13651465 0.1402677 -0.110911556
-0.12347761 0.08275473 -0.094109476 0.078881234 -0.097294286 0.022169517 -0.009865859 -0.05237384
-0.0045353877 0.12825896 -0.03486038 -0.069539525 0.11962083 -0.055896588 -0.044903968 0.14674835
-0.14068043 0.12455759 -0.06315004 0.032674145 -0.0872656 0.055296917 -0.0051932386 -0.12956534
0.033433564 0.026308972 0.14357448 0.07948497 -0.11167824 -0.003446249 -0.093740456 0.027515665
0.09736205 0.12257697 0.117961116 -0.09411106 0.009309114 -0.0580646 -0.056949582 -0.09267814
-0.094045274 0.003497488 0.036631484 0.057148006 0.070470475 -0.1466816 0.018035673 -0.058614854
-0.15017195 0.13552435 -0.057885714 -0.13972856 -0.024089308 0.14262976 0.09688469 0.057763427
-0.1475077 -0.08385836 0.082082115 -0.09879047 -0.13837154 0.123403594 0.08009448 -0.11341728
-0.118185185 0.06784981 0.123471566 0.080845766 0.11893099 -0.13597332 0.028303403 0.113303274
0.05409673 0.001727354 0.15294832 0.06321133 0.056622777 0.03201539 -0.024188126 -0.13475215
0.061763037 -0.09062726 0.031652443 -0.05521612 0.051759455 0.117167875 -0.08399656 0.100694194
-0.044436228 -0.005864109 -0.1359281 0.1365606 -0.058998093 -0.14280081 -0.008343361 0.0020861744
0.100931704 0.09447821 -0.0952775 -0.12406463 -0.06972727 -0.094811045 0.13801213 -0.063424885
-0.01902717 0.04627295 0.042473283 0.052536268 0.018897336 -0.12572418 -0.06799992 -0.13838847
-0.14820097 -0.07091625 -0.10196824 -0.07466176 0.10981215 0.024967957 -0.07979849 -0.0838529
-0.07987938 0.11424412 -0.113653556 -0.12947945 0.01225403 -0.047586177 0.055288933 0.0055035627
-0.10282781 -0.07059126 0.05675737 -0.05284025 -0.003968851 0.12306633 0.07921228 -0.1526602
0.13873099 -0.13161255 0.15069818 -0.113047615 -0.018899072 -0.10688059 0.036394678 0.04675329
0.01119285 -0.12366876 -0.022653442 0.12671337 -0.095552355 -0.019468019 -0.15029612 0.13608834
-0.04418538 -0.10062892 -0.05494326 -0.090954326 0.14262351 -0.1346832 0.11924794 -0.0586562
-0.05956297 -0.06790244 -0.114629574 -0.12625347 0.05965728 -0.15784915 -0.08433896 -0.0031310893
0.07039935 -0.14268333 -0.14611225 0.115825444 0.08718368 0.15259515 -0.035741735 -0.10222864
-0.08474763 -0.035982467 -0.037477378 0.078640364 0.086119026 -0.026315257 -0.042282615 -0.13576923
-0.1107524 -0.095322445 0.12173111 0.1171677 0.12748772 -0.036003776 -0.13440378 0.07948539
-0.08743295 -0.12584095 -0.14247742 0.08182498 -0.13421829 -0.08904664 -0.060109783 0.085447766
-0.0670043 -0.14505723 0.10581635 -0.0625282 -0.10865722 -0.027684625 -0.056194477 0.033875696
-0.009593146 -0.13515228 0.089907095 0.100769885 -0.055024028 -0.12644674 0.10930227 -0.056894828
-0.09629983 -0.042606227 -0.007438082 -0.12840551 -0.06394227 -0.065706946 0.09907246 -0.06871054
-0.0541204 -0.08318587 -0.098367825 0.0604556 -0.03559518 -0.011588299 0.048140056 0.11959394
0.14978443 -0.052441027 0.114206806 0.030388176 0.066493504 -0.07337747 -0.020413844 -0.042466894
0.0517531 0.017415155 -0.086478055 -0.03687652 -0.034386877 0.09280427 -0.043016147 -0.104001224

convs.2.bias f4 [128]
00000000: 20d9 c7b5 f4cd 4eb8 88aa 6937 d9bc 9836
00000010: a756 6a38 9de4 2136 1985 4eb8 3727 b538
00000020: e619 13b7 9098 09b7 fb0f 03b8 60fb abb7
00000030: 9fc2 42b7 9cc3 8036 a851 8237 cacb 3538
00000040: 2b83 23b7 0725 01b8 3282 afb6 e641 dc37
00000050: dceb a236 0563 93b8 6f7b dfb7 a0b3 c0b7
00000060: 8848 4238 44ca afb7 36cf 50b7 65d1 0337
00000070: 12e7 2f36 7e65 cdb6 8164 96b6 8a38 29b6
00000080: d26b bf36 a35a 3c37 bc22 1cb7 2e15 a1b6
00000090: 952c 1bb9 e6a7 5eb6 266f 6cb8 fca0 9eb4
000000a0: 5fc5 3ab6 ee7a 14b7 3cb6 df37 4e98 81b7
000000b0: 10f0 b5b7 3a6a 41b3 2d9f fab6 8e22 ceb6
000000c0: e81b 2fb6 b5f4 e836 3507 10b8 fe7b 5f37
000000d0: f419 3137 d6e2 aab6 a93b 7db6 516b 8b34
000000e0: 3278 13b8 67ca 2cb7 092c 43b7 8eec a2b5
000000f0: b163 bd36 7561 0e37 6197 9e37 29bc c537
00000100: 8b04 44b6 c939 f9b6 2667 88b7 dbae 3038
00000110: 9bbc 6d38 9551 03b8 54c8 bf34 8a31 e736
00000120: 656f 0437 d506 3838 0d28 02b6 7e3a a336
00000130: 2498 b438 7bba 3738 052f 9034 eb83 02b6
00000140: 7d1f a236 e639 9eb7 db2c 2f37 ded2 0ab6
00000150: 5e53 b1b7 1483 6db7 7dee b637 50a2 60b8
00000160: f7c8 efb7 260f 1e38 12da ab35 2aec 39b6
00000170: 05c7 dcb6 9e39 3e37 0814 8fb7 7b47 85b4
00000180: d790 edb6 9abf 5838 021c 8db4 bdad 6035
00000190: b71c 44b7 a102 32b6 7c74 0db6 224c 01b8
000001a0: 477a 9737 c107 f0b7 dd3f a837 4979 55b7
000001b0: 6907 5236 e410 6bb7 b9ec 5238 eafc 3cb6
000001c0: 669d 49b8 297e 57b8 d3c0 4fb7 48bc f137
000001d0: cf72 76b8 d67a 8236 b6ba 2bb8 e278 5e37
000001e0: fa3c a738 1a17 c337 d9fd 3e37 212a ed36
000001f0: 3f4a 00b7 d509 a136 eb2a 20b6 a157 8638
-1.4889847e-06 -4.9306036e-05 1.3927587e-05 4.5519378e-06 5.587065e-05 2.412394e-06 -4.9238184e-05 8.638057e-05
-8.767913e-06 -8.201358e-06 -3.1247717e-05 -2.0501844e-05 -1.1608615e-05 3.837469e-06 1.5535232e-05 4.3343556e-05
-9.746097e-06 -3.079048e-05 -5.230563e-06 2.625673e-05 4.855434e-06 -7.02795e-05 -2.664115e-05 -2.2971828e-05
4.6320754e-05 -2.0955813e-05 -1.2446011e-05 7.856962e-06 2.6211533e-06 -6.1212913e-06 -4.4820486e-06 -2.5215872e-06
5.7047955e-06 1.1226776e-05 -9.306412e-06 -4.8006395e-06 -0.0001479856 -3.3178308e-06 -5.63703e-05 -2.9546925e-07
-2.7831045e-06 -8.850109e-06 2.6668531e-05 -1.544892e-05 -2.168867e-05 -4.5032927e-08 -7.469111e-06 -6.143301e-06
-2.6093276e-06 6.9426264e-06 -3.4338987e-05 1.3320705e-05 1.0556065e-05 -5.092802e-06 -3.7734665e-06 2.596885e-07
-3.515947e-05 -1.0299124e-05 -1.16331585e-05 -1.2138787e-06 5.6442445e-06 8.4865505e-06 1.8905559e-05 2.3571849e-05
-2.920892e-06 -7.4275054e-06 -1.6260496e-05 4.2124517e-05 5.6680856e-05 -3.1308813e-05 3.572228e-07 6.8901036e-06
7.893749e-06 4.387538e-05 -1.9394822e-06 4.864588e-06 8.611407e-05 4.3804273e-05 2.68563e-07 -1.9448296e-06
4.831642e-06 -1.8862029e-05 1.0441257e-05 -2.0686343e-06 -2.1138865e-05 -1.415682e-05 2.1807145e-05 -5.3556927e-05
-2.8584602e-05 3.7684244e-05 1.280396e-06 -2.7704614e-06 -6.57968e-06 1.1338298e-05 -1.7056256e-05 -2.482519e-07
-7.080012e-06 5.1676856e-05 -2.6283675e-07 8.3699325e-07 -1.1689196e-05 -2.6525597e-06 -2.107844e-06 -3.08269e-05
1.8057543e-05 -2.861384e-05 2.00569e-05 -1.2724028e-05 3.1296752e-06 -1.4011024e-05 5.0288367e-05 -2.8161398e-06
-4.8068723e-05 -5.137749e-05 -1.2383057e-05 2.8817114e-05 -5.8757894e-05 3.888602e-06 -4.0943465e-05 1.3260376e-05
7.974538e-05 2.3256569e-05 1.1383986e-05 7.068055e-06 -7.646681e-06 4.7993185e-06 -2.386684e-06 6.40594e-05

convs.2.lin.weight f4 [128, 128]
00000000: 1a0e 2bbb 99b9 a1bd 1380 83bd 760d bd3d
00000010: 3902 2c3d 4c17 113e 3d28 d83d 5aad a83d
00000020: 8cbf fabd 898b 083e c737 563c 4590 0bbe
00000030: e602 f43b ddc0 f5bd 8a48 483c 279c 01be
00000040: 7356 15be 4262 043e c46d abbd fd35 843d
00000050: d5dc c03c 82ff 55bd 6f7b a63c db90 6fbc
00000060: 191a 0bbe 3073 9fbd dd56 dcbd 64e1 7cbd
00000070: bb00 4cbd bd58 8fbd bd2b 9f3d d8e8 123e
00000080: a0d1 5abd 6b24 1abd 2c3e d73d f17d ea3d
00000090: 223f 413d e252 0bbe ae98 173e 98b6 d6bd
000000a0: f121 5ebd ad88 b5bd 3286 113e 609e 073e
000000b0: 03c6 de3d dc5b 0d3e 9606 f3bc 91d3 8b3d
000000c0: 8a3b 413d b907 423c f3af a33d 8601 1abe
000000d0: 1054 043e fb4b b53d fb87 d73d 7efe b1bc
000000e0: 9a57 3d3d f66f 013e 8317 153d a72d 163e
000000f0: e36f 303c 3a96 a1bc 44ce 023c f2fb f63c
00000100: c829 1c3e a4e5 d0bb 8309 c6bd 9b6b a33d
00000110: dbf0 163d b284 a2bd 4f4c 943d b859 693d
00000120: 1f11 01bd 9b70 1f3e acd4 c53c c128 9abd
00000130: a171 833c aaa0 33bd 267f 05be b0e1 83bc
00000140: fc11 e53d bac7 d93d 5473 3bbd c560 f13d
00000150: d9d7 98bd 50d3 c1bd 22ab ebbb be6a 0cbe
00000160: 321d e3bd 30f7 d1bd fedf 1cbd 1a62 b13c
00000170: e825 3ebc 74c2 6cbd 6f60 2c3d 0da9 f93d
00000180: 5efd 023e 3ddb 2f3d d143 06be be83 833d
00000190: f288 89bd 641d 833c 29f8 13be d74d c93d
000001a0: a3ae f1bd bae7 733d 2cf1 afbd b274 ab3d
000001b0: c572 a03d 2406 f4bc 3eab 29bd 5fba bb3d
000001c0: 9be9 073e 5429 003e 4b65 3e3d 0840 013e
000001d0: 07ff ff3d e201 e23d 3357 b83c 6ba2 abbd
000001e0: d87f e73d eb2e 12be 175e 03be c48d 98bd
000001f0: c798 3a3d 155c b3bd 9bdc e73c b1bc a03c
00000200: e0da 6cbc 5a5c 2eba 6d92 15be d39a 11bd
00000210: e74d abbd 34b1 083e 5380 eebd 94b2 d8bd
00000220: e304 e9bd b479 8e3d 8465 003e 289c 71bd
00000230: 5bad e33d 8e6d a53c 2c30 ffbd d488 4d3d
00000240: c458 ce3d 7dd1 cf3c 9e6b 50bd 1287 e8bc
00000250: 1d95 ac3d 89ae 8dbd 0826 03bd f748 c5bd
00000260: 9a77 003e 11fe 18be 53aa 933d acee 0c3e
00000270: 6b0f c3bc 225f d23c e92f cb3d 10e2 b73c
00000280: 9511 093e 4f43 003e da98 64bb beb7 0f3e
00000290: b821 cabd 0852 96bd f2ac e1bd 461a 76bd
000002a0: cf36 e2bd f671 d83d b2bc d2bc 67c7 fcbd
000002b0: 6b8a bb3d be80 02be bf36 b2bd 08b9 1a3e
000002c0: 1993 ddbd b3a3 ebbd 7e2f 8a3d f0c0 a93d
000002d0: 48ce 3c3d 4379 8cbd 2241 ddbd b073 c9bd
000002e0: 77f0 963d c003 3dbd 1c94 333d fb22 61bc
000002f0: 8539 8ebd 95e0 023e dbfc 03be b7c2 cebc
00000300: 2db7 223d 6a4d 803d 8aa7 0e3e 744c 3a3d
00000310: c11e debd b3d3 063e b2b5 b4bd 9e01 623d
00000320: b78a 0aba 2a01 00be 0f30 bebd ad3b 51bb
00000330: cf2d 8f3d 719b 833c 8cac db3d 8cbd 34bd
00000340: b256 da3d f210 80bd 5b56 92bc 732e 11be
00000350: 7bba a3bd 1dd8 86bc c79b b23d f2d4 c2bd
00000360: 7fe5 91bb 781b 073d 351b 60bc 28a2 943d
00000370: 7149 223d 5150 0f3e a9bb 11be a5ef 173e
00000380: d9d4 95bc 686e f53c 5d32 04be 3dd4 00bd
00000390: 6bfc c63d bf0c 82bd 56f8 ccbd 6d1a ac3c
000003a0: db0d 5d3d 449e b83d e6dd 3b3d c15b 9c3d
000003b0: 4a81 0b3e 81f2 bb3d 9a91 0c3e b368 0fbe
000003c0: 9a65 9f3d 0636 19bb 4577 07be b809 f33d
000003d0: 08f9 46bc 950f 173e bd58 443d 976a f13d
000003e0: c348 a63d d918 603d afd2 893d 81b1 7b3d
000003f0: f5a3 9b3d 6056 0bbe b7d0 093d 6426 e3bd
-0.0026100934 -0.07896728 -0.064209126 0.09231083 0.041994307 0.14169043 0.1055455 0.08236189
-0.12243566 0.13334478 0.013074822 -0.13629253 0.0074466346 -0.119996764 0.012224326 -0.12657224
-0.14583759 0.12928107 -0.083705455 0.0645561 0.0235428 -0.052245624 0.02032253 -0.014621939
-0.13584174 -0.07785642 -0.10758755 -0.061738387 -0.049805384 -0.06999347 0.07772014 0.14346635
-0.05342257 -0.037632387 0.10509905 0.11449803 0.04717935 -0.13605836 0.14804336 -0.10484046
-0.054231588 -0.088639595 0.14211348 0.13244009 0.108776115 0.13804573 -0.029666226 0.068274625
0.04717592 0.011842662 0.07992544 -0.15039644 0.12922692 0.08852383 0.10523983 -0.021727797
0.04622612 0.12640366 0.036399376 0.14665852 0.010768863 -0.019724954 0.007983748 0.030149434
0.15250313 -0.0063750315 -0.09669783 0.079795085 0.03685079 -0.07935466 0.07241117 0.056970328
-0.03151047 0.155703 0.024149261 -0.075273044 0.016045393 -0.043854393 -0.13036785 -0.016098827
0.11185071 0.10633798 -0.045764282 0.117860354 -0.07463045 -0.09464133 -0.0071920315 -0.13712594
-0.11089553 -0.102522254 -0.038299553 0.021653224 -0.011605717 -0.057802632 0.042084154 0.12190447
0.12791964 0.04293369 -0.13111807 0.06421612 -0.06715573 0.016005225 -0.14450134 0.098293
-0.118008874 0.059547164 -0.08590922 0.08371867 0.078343906 -0.029788084 -0.041423075 0.09166407
0.13272707 0.12515765 0.04648332 0.12622082 0.124998145 0.11035515 0.022502517 -0.08380588
0.11303681 -0.1427571 -0.12828861 -0.07448915 0.045555856 -0.08757798 0.028303435 0.019621225
-0.014456481 -0.00066513347 -0.14606638 -0.035548043 -0.08364468 0.13348848 -0.1164557 -0.10580936
-0.11377885 0.06956807 0.12538725 -0.058986813 0.11117049 0.020193841 -0.1246036 0.050179318
0.100755244 0.025368446 -0.05088388 -0.028384719 0.084268786 -0.069180556 -0.03201869 -0.096330576
0.12545624 -0.14940669 0.07210221 0.13762921 -0.023811063 0.025680128 0.099212475 0.022446662
0.13385613 0.12525676 -0.0034881146 0.14034936 -0.098697126 -0.07339865 -0.11019315 -0.06008365
-0.1104561 0.10568611 -0.025724743 -0.123427205 0.091572605 -0.12744424 -0.08701848 0.15109646
-0.10819072 -0.115058325 0.0674734 0.08288753 0.046095163 -0.06859066 -0.10803439 -0.09836519
0.07370084 -0.046146154 0.04384242 -0.01374125 -0.06944565 0.12780984 -0.12889425 -0.025239332
0.03972547 0.062647656 0.13931099 0.045483068 -0.108457096 0.13166694 -0.08823718 0.055177324
-0.00052849523 -0.12500444 -0.0928651 -0.0031926439 0.06991159 0.016065331 0.1072627 -0.04412608
0.10661067 -0.06253232 -0.017863443 -0.14177875 -0.07994553 -0.016460473 0.087211184 -0.09513272
-0.004452407 0.03298518 -0.013678362 0.07257491 0.03962082 0.13995482 -0.14231743 0.14837511
-0.01828997 0.029959872 -0.12909837 -0.031452406 0.09716114 -0.063500874 -0.10008304 0.021008695
0.05396829 0.09014562 0.045865916 0.07634688 0.13623539 0.09177113 0.13727418 -0.14004783
0.07783051 -0.0023378148 -0.13229091 0.11867088 -0.012144335 0.14752038 0.04793619 0.117879085
0.08119347 0.054711197 0.06729638 0.061448578 0.07599632 -0.13607168 0.03364631 -0.11091307

bns.0.weight f4 [128]
00000000: 6ae7 7f3f ea03 7f3f 8e07 803f 1c18 7f3f
00000010: fbf1 813f cef5 803f 44e9 7f3f b86d 7e3f
00000020: 3374 813f 2e3a 803f ed97 7f3f f936 803f
00000030: 0c4d 813f 7a18 7f3f b5ce 813f e5dc 803f
00000040: 925c 803f 9e6b 803f f341 823f 51cd 7d3f
00000050: ef68 803f 2f2f 803f 606f 7f3f bcf1 7f3f
00000060: 8e4c 7d3f f7d5 7d3f 4305 803f f11a 803f
00000070: f4e5 7f3f 8532 803f cb0e 813f 0436 7e3f
00000080: 0430 7e3f 2fe6 7d3f 2e4d 7e3f 8a65 7f3f
00000090: bf9d 7d3f 1b3d 803f 85f6 7d3f 933a 803f
000000a0: 230a 803f 493b 7f3f 1aef 7f3f d4a9 803f
000000b0: 562e 803f 701d 7f3f 673a 7d3f f2c9 7f3f
000000c0: ac0f 7f3f 1f8d 803f 46d2 7f3f 374a 7d3f
000000d0: 0824 7e3f 4aa6 7f3f 3185 813f c0e8 7e3f
000000e0: 307c 803f 89de 7d3f 3fbe 803f e904 803f
000000f0: 7937 813f f2a4 7f3f 1aee 7f3f 7381 803f
00000100: 056e 803f bb40 7e3f 6c3d 7f3f 15e6 803f
00000110: ded1 803f f784 7f3f 7ddf 7d3f 2422 7f3f
00000120: b741 7e3f 6c35 7f3f 3986 7e3f 2aa9 7f3f
00000130: 54fb 7e3f c71f 7c3f a6ce 803f 0665 7e3f
00000140: 7d61 803f d123 813f 5f3c 813f a8df 7e3f
00000150: 5769 7e3f 1637 7d3f a56a 803f 2e3e 7d3f
00000160: 5fdd 7d3f 7525 813f ffef 7f3f 806c 7e3f
00000170: 1bad 803f 635e 813f 581b 7e3f 92ee 7e3f
00000180: 4fab 803f e60d 7f3f 1666 803f 3f67 7f3f
00000190: 9aaa 813f 244d 803f cf6c 803f 20a7 803f
000001a0: 858b 7e3f 28f4 803f 8594 803f a877 7f3f
000001b0: 5492 803f 9e11 803f 8902 803f 1228 7f3f
000001c0: c337 7d3f 5bbb 7f3f d404 7f3f 7de2 7f3f
000001d0: 5416 803f 034f 7e3f 14a9 803f f08f 803f
000001e0: b774 803f af64 813f e898 803f 0415 813f
000001f0: e5d8 7f3f a27c 7f3f f401 803f abac 7f3f
0.99962485 0.9961535 1.0002306 0.99646163 1.0151972 1.0075014 0.9996531 0.9938617
1.0113586 1.0017755 0.99841195 1.0016776 1.0101638 0.99646723 1.0141207 1.0067412
1.002825 1.0032842 1.0176376 0.9914141 1.0032023 1.0014399 0.9977932 0.9997823
0.9894494 0.9915461 1.0001606 1.0008222 0.99960256 1.0015417 1.008264 0.9930117
0.99292016 0.9917936 0.99336517 0.9976431 0.99068826 1.0018648 0.99204284 1.0017875
1.0003093 0.99699837 0.99974215 1.0051827 1.0014141 0.99654293 0.9891724 0.9991752
0.9963329 1.0043067 0.99930227 0.9894137 0.9927373 0.9986311 1.0118772 0.995739
1.0037899 0.99167687 1.0058059 1.0001498 1.0095054 0.9986106 0.9997269 1.0039505
1.0033575 0.9931752 0.997031 1.0070215 1.0064046 0.99812263 0.9916914 0.9966147
0.9931902 0.9969089 0.9942356 0.998675 0.99602246 0.9848599 1.0063064 0.993729
1.0029751 1.0089055 1.0096549 0.9956002 0.99379486 0.9891218 1.0032545 0.98923004
0.9916591 1.0089556 0.9997558 0.9938431 1.0052828 1.010693 0.99260473 0.9958278
1.0052279 0.9963058 1.0031154 0.99766916 1.0130188 1.0023541 1.0033206 1.0051003
0.9943164 1.007451 1.0045325 0.99791956 1.0044656 1.0005376 1.0000774 0.9967052
0.9891321 0.99895257 0.9961674 0.9995497 1.0006814 0.9933931 1.0051599 1.0043926
1.0035619 1.0108851 1.0046663 1.0084538 0.9994033 0.9979955 1.0000596 0.99872845

bns.0.bias f4 [128]
00000000: e8d1 e0bb 3b19 cebb a799 28bb 6ee7 0bbb
00000010: 82b8 e93b 63cd 1d3c bd83 acba f529 f8bb
00000020: 4f3d f93b 0d8b 063b 3b45 10bc 5ca7 2dbb
00000030: 7702 bbbb dcac 5a3b 3c32 823b 50d7 573a
00000040: 0483 803b e854 88bb 0e66 c83a e9ba e7ba
00000050: eee7 0f3b 2d9c 753b a69e bebb a488 df3a
00000060: d798 4dbb 09de 36bc f44d aa3b a4d0 01bc
00000070: fbd8 2dba 0811 46bb 1e0f 003b e7bd 99bb
00000080: a248 e0bb 87bc 3fba 31d7 cfbb eb89 923a
00000090: 185a d8bb 63d7 3939 3ddd e8bb da0a 613b
000000a0: 4ba9 dabb 2217 e2bb 1a8b 82bb b20c 803b
000000b0: 67d5 bc3a 4209 6abb 6448 3fbc 0ad8 8f3b
000000c0: a462 9fbb 9a9d 873a 49e2 25ba 781b 14bc
000000d0: 0120 33bc 761b 83ba 72f0 2d3c 109e 9e3a
000000e0: 26de 113a a46d 26bc 6938 0d3c 54a2 ac3b
000000f0: bdd4 b73a 105f e7bb e45b 27bb 60cc bcba
00000100: aac6 323a fdaf 8fbb 7b70 d7bb 450a 893b
00000110: 65e6 633b e479 90ba c8ab 783b 03ed 66bb
00000120: 9da1 83bb a1e5 2abb d32a 56bb a9e7 963a
00000130: 48d1 e5bb 6255 11bc e6de d73b a5d8 64bc
00000140: b849 59bc 8f73 293c cd89 543c 3d76 1bbc
00000150: a3c2 dcba 5f4a 69bb 4340 a23a c6a4 cabb
00000160: 482f d2bb dd17 4b3c c20a 3e3a 1fed a8ba
00000170: 8e12 a838 4f9f d43b f022 faba aedc b6bb
00000180: 12a8 d43b 35c3 9abb 123a 7a3a 7b3b fdba
00000190: 5080 373c b2c7 61ba f0b2 b43b 170b 36bb
000001a0: 8bee d4bb 4774 b63b 18aa ef39 ad28 c53b
000001b0: 37d0 41bb 7d7d 02ba e125 f7bb b5c0 04bc
000001c0: 79b1 3abc 1286 aeba c4c8 a1bb 782f c3bb
000001d0: 9bee 083c 0286 b4bb 096b 1c38 0d6d 0cbb
000001e0: 7a9b f23b 43c8 593c baaf 923b 1e71 973b
000001f0: 7782 caba ad0e 50ba 0d55 8f3b dd48 223b
-0.0068609603 -0.006289629 -0.002572635 -0.002134766 0.0071325907 0.009631488 -0.001316182 -0.007573361
0.0076061855 0.0020529658 -0.008805568 -0.002649746 -0.005707081 0.0033367192 0.0039732736 0.0008233683
0.0039218683 -0.0041605122 0.0015289204 -0.0017679605 0.002195831 0.0037477121 -0.005817252 0.0017054272
-0.0031371617 -0.011161336 0.005197281 -0.007923279 -0.0006631759 -0.0030222554 0.001954026 -0.0046918276
-0.006844596 -0.00073141645 -0.0063427915 0.0011180019 -0.006602537 0.00017723213 -0.007106452 0.0034338743
-0.0066730133 -0.0068997303 -0.0039838674 0.0039077634 0.001440686 -0.0035711084 -0.011674974 0.0043897675
-0.004864054 0.0010346652 -0.00063279696 -0.009039752 -0.010932923 -0.0010002691 0.010616409 0.001210155
0.0005564414 -0.010157976 0.008619406 0.0052683745 0.0014025193 -0.007060893 -0.0025536949 -0.001440417
0.00068197644 -0.004384993 -0.006574688 0.0041821324 0.0034774777 -0.0011022654 0.0037944186 -0.0035236485
-0.0040170685 -0.002607681 -0.0032679334 0.0011513132 -0.0070134737 -0.0088704545 0.006587851 -0.013967668
-0.013262205 0.010342493 0.012972307 -0.009488639 -0.0016842674 -0.0035597307 0.0012378771 -0.0061841933
-0.006414328 0.012395826 0.0007249528 -0.001288805 8.01432e-05 0.0064887176 -0.0019083899 -0.0055805063
0.006489762 -0.0047229775 0.00095453963 -0.0019320095 0.011200026 -0.0008612826 0.005514495 -0.0027777606
-0.006498163 0.0055680606 0.00045712362 0.006016812 -0.0029573569 -0.00049778057 -0.0075423573 -0.008102586
-0.011394852 -0.0013315103 -0.004937263 -0.0059565865 0.008357669 -0.005509139 3.7292983e-05 -0.0021427304
0.007403788 0.013292375 0.0044765146 0.004621639 -0.0015450259 -0.0007936757 0.0043741525 0.0024762668

bns.0.running_mean f4 [128]
00000000: 9c8b 5cbe caa4 59bc 023c ce3d 5bd9 443d
00000010: de25 d23d e13e 92bb b66f 52be e5f5 d8bd
00000020: 3679 34be 1e0d 2dbc aa6e bb3c a176 143d
00000030: 438b 47bd 840d bcbd e023 993d 2287 96bd
00000040: dd7c 1e3e d3a7 3b3d e1c8 073e 6c89 28bd
00000050: e411 193d 0d93 9bbd 974c bd3d b427 28be
00000060: 2353 6fbd ddcd d73d 68ba c2bd 12b1 6a3d
00000070: 17a5 e83d 3ce2 9c3c 4e34 ff3b 56ef 66be
00000080: fdb0 e63d 9b4e 7fbd 7115 873d 5ee2 4f3e
00000090: 0a2d 083d 1115 c2bd 10b2 983a d2ed 2ebd
000000a0: 91db 39be 5583 40bd 8f62 113e ed1d 443d
000000b0: 1424 283e 10b3 f23d a0d2 843c 9eeb 953c
000000c0: 4ec8 9c3c 5f1b 30be e808 2d3e 3bbe 593d
000000d0: 4ee3 58bd 2835 733e 8670 8cbd 4b09 e5bd
000000e0: cbfb 323d a1b1 cb3b 3832 aebc 2f2d c83d
000000f0: 5a57 c8bd b4fc 7cbd 0f7d c6bc 6ecd d23d
00000100: bce0 54be eab6 0c3e 6e2e 94bc 5f05 1e3e
00000110: 92cd afbd ff81 b53d ae6c 94bd ae40 393c
00000120: 5845 e93d 1204 07bd a0a9 063e 3c08 c83c
00000130: 5057 b4bd 39ec de3c 4b98 b9bd f64c ca3d
00000140: 8caf 2dbc ad2f 60bd 5296 323d c6fb 083e
00000150: 974f a5bb fa79 bbb9 f99c 4fbe caf3 84bd
00000160: 0c44 213e 07e8 1a3e 53c8 653e 4be0 583e
00000170: 2c61 6abc 12a5 6fbd ae9e 233e f2a5 ecbd
00000180: 3647 e63d 72a7 6ebd 0fdb 2c3e 5a5c 7ebe
00000190: df12 d43d 28a8 31be e26b f0bb 4540 dbbb
000001a0: f64c 463d cfd3 22be 9176 99bd 421f 7c3d
000001b0: cc04 a1bc 59f4 573e fe48 7f3d 7cb0 22be
000001c0: b694 88bd 9d3f 273e db6a d33d 5630 ed3d
000001d0: 8dcb d43d 8737 9539 dd40 3d3e a71b 8cbe
000001e0: 25db 88bc 0fe6 b23d bb0c f7bd 9ca0 4abe
000001f0: 2c61 7f3d f0c3 10bc 9fca 633e 4a42 b3bd
-0.21537632 -0.013283918 0.10070039 0.04805885 0.10261129 -0.004463062 -0.20550427 -0.10593776
-0.17624363 -0.010562209 0.022879917 0.036245946 -0.048716795 -0.091822654 0.07477546 -0.07349993
0.15477319 0.045814347 0.13260223 -0.04114668 0.037370577 -0.07596407 0.09243124 -0.16421396
-0.058428895 0.10537312 -0.095082104 0.057297774 0.113596134 0.019150846 0.0077882176 -0.22552237
0.112642266 -0.062330823 0.065958865 0.20301196 0.033246078 -0.09476674 0.0011649746 -0.042707272
-0.18150164 -0.047000248 0.14197753 0.047880102 0.16420013 0.1185056 0.016213715 0.018300828
0.019138481 -0.17197941 0.16897929 0.053159934 -0.05295115 0.23750746 -0.068574 -0.11183413
0.04369716 0.0062162434 -0.02126418 0.09774243 -0.09782286 -0.061764434 -0.024229554 0.10293089
-0.20788854 0.13741651 -0.018088546 0.15431736 -0.08584131 0.088626854 -0.072472915 0.011306925
0.113901794 -0.032962866 0.13150644 0.024417989 -0.08805716 0.02721225 -0.09062251 0.098779604
-0.010600936 -0.054732967 0.043600388 0.13377294 -0.0050448882 -0.000357583 -0.20274724 -0.064918116
0.15748614 0.15127574 0.22439699 0.21179311 -0.014305394 -0.058507033 0.159785 -0.11555089
0.11244051 -0.058265157 0.16880439 -0.24839917 0.10355162 -0.17349303 -0.0073370794 -0.006691011
0.04841324 -0.15901111 -0.07493318 0.061553247 -0.019655608 0.21089305 0.06232547 -0.15887636
-0.06668989 0.1633286 0.103231154 0.11581485 0.10390387 0.00028460866 0.18481775 -0.27364847
-0.016706059 0.087352864 -0.12062975 -0.1978783 0.06234853 -0.008835778 0.22245263 -0.08752878

bns.0.running_var f4 [128]
00000000: 9893 873c 47e0 093c bf99 b33b 534a cf3b
00000010: 445e 183c 33db 193c f274 8b3c 321f 373c
00000020: b093 4f3b af7c 5d3c d2c4 f43a bbb5 263b
00000030: 2898 173b 23c6 803b 3d81 f53a 9025 183b
00000040: 3215 993c 31ea df3b ec00 883b b8e9 3f3c
00000050: afb7 cb3b 004c 833a d2c6 2f3b 6719 463b
00000060: 2ca9 793b 7acc 7c3c d12f d53b 15db ab3b
00000070: c7ac 743c 5c6d e83a 45f2 033c 5a22 333c
00000080: bf31 a53b 3627 bd3b 8e64 a63b 88b4 ba3b
00000090: 4e31 d13b f3bb bc3a 6bfa 033c bcb0 923b
000000a0: 4697 4e3c 85e4 373c 5512 d93b 1db8 133b
000000b0: cbba 7e3a 0d14 933b 59b4 893b db2e 3d3b
000000c0: cd9c 983b 3d3b da3b 93b7 083c 63dd c53b
000000d0: 5c9e 883c a4e5 613c ff3b c63a 7427 953c
000000e0: 7d25 a83b fffd 673c 9ca4 4d3b 9371 513c
000000f0: 0b46 763c 6c94 3b3b 4fe2 e33b b1e1 be3b
00000100: e448 363c c0a0 953c 4258 403b fec9 103b
00000110: 6e13 c13b 3115 dd3b 8ae8 da3b ec69 a43b
00000120: cb3e 113c f145 b23b c047 da3b 05b2 ca3a
00000130: 35d0 a83b 7503 f03b 9c70 023c 5022 c43b
00000140: d4d8 843b e9d4 813b eca0 033b 1c43 113b
00000150: 5966 1d3c 9220 9f3b 82c0 c63b 1539 6b3c
00000160: dc82 b23b c9c5 313c 5eb8 6f3c 160b 1d3c
00000170: 0216 603c e2c3 223b 9c3c 143c 1f05 1b3b
00000180: 64de 703b de81 5d3b dc39 253b f0b5 323b
00000190: e97b 873b ee3b b63b 4a08 023c 39e2 cc3b
000001a0: 06d8 ab3b 7c43 863b d0c0 c93b f0fb bf3b
000001b0: 3b24 813b f06f 1b3c 5f92 d23b f158 b83c
000001c0: ee41 a03b 2c10 223c e85d 813b bb07 2d3c
000001d0: e889 193c 5134 b43b 4e28 113b 7b13 383b
000001e0: eedb 293b 4742 ac3b 432a 893b 9e69 253c
000001f0: aa6c c43b ede3 813a 2363 0e3c af4e 7c3b
0.01654987 0.008415288 0.0054809744 0.006325999 0.009299818 0.00939064 0.017023537 0.011176871
0.0031673722 0.013518496 0.001867438 0.002543791 0.0023131464 0.0039298697 0.0018730533 0.0023215748
0.018686865 0.0068333377 0.0041505005 0.011713438 0.006216965 0.0010017157 0.0026821387 0.0030227543
0.003809522 0.01542961 0.0065059443 0.0052446225 0.014933771 0.0017732787 0.008053367 0.010933483
0.0050413306 0.0057724966 0.005077905 0.0056977905 0.0063840514 0.0014399275 0.00805531 0.004476635
0.012609309 0.011223917 0.0066245 0.002254016 0.00097171654 0.004488474 0.0042024073 0.002886704
0.004657364 0.006659894 0.008344549 0.0060383542 0.016677074 0.013787661 0.0015124081 0.01820729
0.005131422 0.0141596785 0.0031378632 0.012783426 0.015031348 0.0028622402 0.0069544683 0.0058252444
0.011125777 0.018265128 0.002934948 0.0022093053 0.005892209 0.006746911 0.006680553 0.0050175097
0.008865069 0.0054404666 0.0066613853 0.0015464431 0.0051517733 0.007324631 0.0079614185 0.0059855357
0.0040541682 0.0039621484 0.002008493 0.0022165244 0.009606921 0.0048561776 0.006065429 0.014356871
0.0054477286 0.010850378 0.014631359 0.009585163 0.013677122 0.0024835994 0.0090476535 0.0023654175
0.003675365 0.003379933 0.0025211489 0.0027269088 0.0041346443 0.0055613434 0.007936547 0.006252554
0.005244258 0.0040974002 0.0061570182 0.0058588907 0.0039410866 0.009487137 0.00642614 0.022503348
0.004890672 0.009891551 0.003947962 0.010560925 0.009371258 0.0054994007 0.0022149268 0.0028087783
0.0025918442 0.0052569243 0.004185946 0.010095982 0.005994399 0.0009909846 0.008690628 0.0038499048

bns.1.weight f4 [128]
00000000: f21e 7f3f 3eda 7f3f 178d 803f afd5 803f
00000010: a57a 7d3f 646f 803f 909b 803f d87e 7d3f
00000020: b36f 7f3f 7d52 803f 21db 803f 583c 803f
00000030: e747 803f cce1 7f3f 1350 7f3f 2601 803f
00000040: 9283 7e3f a26f 803f 693a 803f e72f 803f
00000050: 3d16 813f 51d4 803f 7f38 7c3f 1f2d 803f
00000060: f08b 7f3f 457d 7e3f 6fd6 7f3f d6d1 7d3f
00000070: 736e 7f3f 9e8b 803f 3083 803f 5bc0 7f3f
00000080: 79e7 7f3f 9a1b 803f 9b5d 7f3f d68d 803f
00000090: d80d 7f3f a856 813f f2d2 7d3f 6188 7f3f
000000a0: 4831 7e3f d027 813f d099 803f ccfc 7f3f
000000b0: 3f84 803f 388f 803f 62ca 7e3f 13dd 7f3f
000000c0: 3791 7f3f 2a0c 7f3f ebb1 803f 4963 803f
000000d0: 88b2 7f3f 509e 803f 9adc 7e3f b974 7d3f
000000e0: 8b1e 803f c7d1 7e3f ca47 803f 85b2 803f
000000f0: 35a7 803f 5219 7e3f 7369 813f 159d 7f3f
00000100: 84b2 7f3f 5909 803f 0c1b 803f c69e 803f
00000110: 8139 7f3f dcf1 7f3f 1ae0 7f3f 1bcd 7f3f
00000120: 66c1 7e3f d08a 803f e0c0 803f e860 7e3f
00000130: 6297 803f 7ddb 7e3f 47b2 803f 2f67 813f
00000140: 6f33 803f 30d7 7e3f 482f 7d3f cd4f 803f
00000150: f899 803f fa15 813f e67e 7e3f ba9e 803f
00000160: b36e 7e3f 01a0 803f afdd 803f 6438 7f3f
00000170: 1e12 803f e771 803f 9ba8 7d3f 2b9a 803f
00000180: 55b4 7f3f 566a 7d3f 8e84 803f 0f8f 803f
00000190: 1552 7f3f 570f 7e3f 9b4d 803f d33d 7f3f
000001a0: e8dc 7f3f cb10 803f 1619 7e3f 03f0 7f3f
000001b0: a423 7f3f ab1b 803f e3ed 7e3f dbf3 7e3f
000001c0: 395a 803f f742 803f 7466 7f3f fbe7 7f3f
000001d0: d0d3 7f3f e165 803f 27e5 803f 4dfd 7f3f
000001e0: 3573 7e3f af2b 803f 2018 7e3f c42a 7e3f
000001f0: e928 803f 9e6c 7e3f 244b 813f b7b4 7f3f
0.99656594 0.99942386 1.0043057 1.0065211 0.99015266 1.0033994 1.0047474 0.99021673
0.99779814 1.0025173 1.0066873 1.0018415 1.0021943 0.99953914 0.9973156 1.000035
0.9941951 1.0034068 1.0017825 1.0014619 1.0084912 1.0064794 0.98523706 1.001377
0.998229 0.99409896 0.99936575 0.9914831 0.9977791 1.0042608 1.0040035 0.99902886
0.99962574 1.0008423 0.99752206 1.0043285 0.996305 1.010457 0.9915 0.9981747
0.9929395 1.0090275 1.004694 0.9999511 1.0040358 1.0043707 0.9952756 0.9994671
0.99830955 0.99627936 1.0054296 1.00303 0.9988179 1.0048313 0.9955536 0.9900623
1.0009321 0.99538845 1.0021908 1.005448 1.0051028 0.99257386 1.0110306 0.99849063
0.9988177 1.0002853 1.0008254 1.0048454 0.9969712 0.99978423 0.99951327 0.9992234
0.9951385 1.0042362 1.0058861 0.9936662 1.0046198 0.9955366 1.0054406 1.0109614
1.0015696 0.995471 0.9890027 1.0024353 1.0046988 1.0084832 0.9941238 1.004844
0.99387664 1.0048829 1.0067652 0.9969542 1.0005529 1.003476 0.99085397 1.0047048
0.9988454 0.9899038 1.0040452 1.0043658 0.9973462 0.99242157 1.0023683 0.9970371
0.9994645 1.0005125 0.9925703 0.99975604 0.9966376 1.0008444 0.99581736 0.99590844
1.0027534 1.0020436 0.99765706 0.9996335 0.99932575 1.0031091 1.0069932 0.9999588
0.9939454 1.0013331 0.9925556 0.99284005 1.0012485 0.99384487 1.0101056 0.99885124

bns.1.bias f4 [128]
00000000: a335 8dba 03c2 6bbb 0c6f f63b a396 e5ba
00000010: d0c8 e2bb c33b 763b 5974 063c 79b6 1bbc
00000020: cfad ddba 2547 173c 75ec cf3b 0864 203b
00000030: 987f a7b9 16da 16ba 2e93 6fba 2fad 6e3a
00000040: cb1f b4bb 5f93 d23b 189b f539 d3a8 bbba
00000050: c5b9 9c3b bd51 f83b 8d99 12bc ecf4 1fbb
00000060: 5405 bd3a 82fa 7d3a 21e0 843a b875 c5bb
00000070: c83a 8f39 9730 afba 1284 3a3b af67 c93b
00000080: 552f a13b df6c bd3a 1efb 49ba be2a 383c
00000090: 4164 c7bb 8cf4 f53b 2d7a cbbb a09c 123b
000000a0: 3ac0 22bc 9ba4 f83b 349e c23b 49de f93a
000000b0: f437 b9ba 5103 3cbb 7ebb 5a38 35df 5838
000000c0: 09c8 ce3a e726 d5bb c052 a23b db5e 07bb
000000d0: ee5e 18bb d855 50bb 2299 ac3a ec9b 3bbb
000000e0: f88c e83b a789 38b9 f5a8 823b 6b7b e63b
000000f0: 6261 973a 940a 7bba 87ef 543c c2ad ef39
00000100: 35de 5d3b cec7 a03b 4e0c e7bb 40dd f43b
00000110: 7d9d c2bb 2c1d 8d3b b42e b43b 41d0 92ba
00000120: 4ddf 35bb 0774 1a3b 4837 663c 02d5 dabb
00000130: 5217 e63b 9153 2bbb 1848 feb8 f351 4f3a
00000140: 39c0 5c3b 8ec4 74bb 8be3 37bc aa1a f33a
00000150: 4fd5 c0ba 44f1 443c 24ad a2bb 5d8f 663b
00000160: 7961 8cbb 4f34 133c b65b 7eba f348 733b
00000170: 88ff 303b 804b b03a 9004 77bb 73d7 3a3c
00000180: 8045 bfbb aa3c 88bc 776b c03b e489 163b
00000190: 8e1d 82ba a2c7 3abb 4c3f b13b 6bd7 a2bb
000001a0: 5041 0abb d422 8bba 1012 e1bb 6670 153a
000001b0: cd57 4dbb 63fa b73a 67de adba e2ac b0ba
000001c0: 4393 953a 8856 b23a d78f 9cbb c7b6 83bb
000001d0: 35c0 353b 7a8c 8f3b a659 0d3c f344 983b
000001e0: a0ab 83bb 99eb c03a d975 4bbc 9a74 99bb
000001f0: bbe7 03bc b189 efbb ca30 4c3c 6c1d 383b
-0.0010773431 -0.0035973794 0.007520562 -0.0017516207 -0.0069209114 0.0037572242 0.00820645 -0.009503954
-0.0016912761 0.009233271 0.0063453265 0.0024473686 -0.00031947787 -0.0005754543 -0.0009139058 0.0009104786
-0.005496954 0.0064262594 0.00046845595 -0.0014317281 0.0047828876 0.0075781033 -0.008947742 -0.002440746
0.0014421144 0.00096885127 0.0010137596 -0.006025996 0.0002731888 -0.0013365921 0.0028460068 0.0061463933
0.0049189725 0.0014452002 -0.0007704961 0.011240659 -0.0060849492 0.007505959 -0.006209633 0.0022371188
-0.009933526 0.007587982 0.0059392694 0.0019063439 -0.0014131055 -0.00286885 5.2149866e-05 5.170629e-05
0.0015776168 -0.0065048817 0.004953712 -0.0020655903 -0.0023249942 -0.0031789448 0.0013168196 -0.0028626872
0.007096883 -0.00017598887 0.0039874264 0.0070337555 0.0011549408 -0.00095764664 0.012996561 0.00045715092
0.003385437 0.004906631 -0.0070510274 0.007472664 -0.005939184 0.004306456 0.0054987315 -0.001120098
-0.0027751506 0.0023567693 0.014051266 -0.0066782245 0.007021823 -0.0026142339 -0.00012125092 0.0007908635
0.003368391 -0.00373486 -0.011223684 0.0018547375 -0.0014712008 0.012020413 -0.0049644876 0.0035180666
-0.0042840806 0.008984639 -0.0009702997 0.0037122339 0.0027007777 0.0013450235 -0.0037691928 0.011403906
-0.0058371425 -0.01663049 0.005872186 0.0022970373 -0.0009927021 -0.0028500338 0.005409157 -0.0049695275
-0.0021096058 -0.0010615238 -0.0068686083 0.00057006476 -0.003133285 0.0014036413 -0.0013265134 -0.0013479257
0.0011411685 0.0013606111 -0.0047778892 -0.0040195915 0.0027732973 0.00438076 0.008627331 0.0046468913
-0.004018262 0.0014718651 -0.012418234 -0.0046830894 -0.008050854 -0.0073101153 0.012462804 0.0028093709
