MY_GNN/trained_models/density/model_Density_fold1.pt (torch, 569525 bytes, 23 tensors)

convs.0.bias f4 [128]
000000 33 2b 35 39 c7 a0 ec b9 d8 03 06 ba ef 90 b4 b9
       0.00017277598 -0.00045133216 -0.0005112267 -0.0003444026
000010 04 7e 0f 3a fa 8e 45 3a 51 d0 0d 39 f5 af 00 ba
       0.0005473795 0.0007536259 0.00013524412 -0.0004909032
000020 c4 eb 95 b9 84 25 39 38 56 6b 8b b9 2a e6 be b9
       -0.00028595154 4.4142376e-05 -0.00026592118 -0.0003641111
000030 9c 5e 0e 39 24 cf 03 3a e5 ff 0c 3a f0 9d aa 39
       0.0001357742 0.000502812 0.00053787074 0.000325426
000040 6b 0b 97 b8 cd fa ce b7 51 7e 2d b9 ae f2 65 39
       -7.202368e-05 -2.4673902e-05 -0.00016545622 0.00021929547
000050 91 ff d5 39 fe c1 35 39 0f 57 d7 3a ba 37 21 b9
       0.00040816938 0.00017333773 0.0016429144 -0.00015374916
000060 46 b4 0f 3a 9d 05 a7 3a fe 79 b8 b9 42 b5 a4 b9
       0.000548188 0.0012742762 -0.00035186106 -0.00031415565
000070 b9 fa 18 b9 7d c5 8c 39 be f7 e7 b9 67 c1 53 ba
       -0.00014589251 0.0002685002 -0.00044244336 -0.00080778304
000080 8c 3c b7 39 59 f2 2e 38 1d fb 3b 39 24 f5 54 39
       0.0003494959 4.1710537e-05 0.00017927257 0.00020309218
000090 f6 29 02 b9 50 08 a2 b9 6c e0 eb 39 05 98 bb 39
       -0.00012413398 -0.0003090524 0.000449899 0.00035780683
0000a0 68 ca 18 b8 0c f5 22 39 b8 c4 75 39 eb a7 2b 39
       -3.642813e-05 0.00015540811 0.00023438304 0.00016370385
0000b0 30 f0 10 38 0c e6 84 b9 5d fe 97 ba 6a 55 04 3a
       3.4555967e-05 -0.000253484 -0.0011596192 0.0005048128
0000c0 cf 60 13 3a 8f 10 b3 37 de 7f 00 ba c4 1b a8 b9
       0.00056220306 2.1346174e-05 -0.0004901866 -0.00032064144
0000d0 f3 29 8f 39 bf 3d 5e 37 96 c8 5a 38 54 51 8b 39
       0.0002730634 1.32466075e-05 5.216206e-05 0.0002657274
0000e0 57 4a 17 b8 cd 3a e7 38 d0 58 cc b9 a0 79 18 37
       -3.607044e-05 0.00011025891 -0.00038976083 9.088224e-06
0000f0 2e e1 cd b8 54 95 ac 39 84 0d c2 b9 96 08 b8 b8
       -9.817105e-05 0.00032917655 -0.00037012633 -8.775403e-05
000100 0c 34 59 39 11 f2 f1 b9 23 a4 f5 39 d9 0b f0 38
       0.00020714122 -0.00046147456 0.00046852333 0.000114462986
000110 56 aa 75 b9 3d 9a 31 39 ab 61 ca b9 e7 15 56 b9
       -0.00023428476 0.00016937494 -0.0003860121 -0.0002041679
000120 42 25 3b b8 9b 55 b2 38 1f 17 24 ba d1 51 27 ba
       -4.4618973e-05 8.503647e-05 -0.0006259549 -0.0006382736
000130 1c 64 5a 39 e6 d3 1a 38 c2 f5 df b7 d4 4c 5b b8
       0.00020827394 3.6913807e-05 -2.6698111e-05 -5.228522e-05
000140 58 56 af 39 d7 6a 8d 3a 71 58 9c 39 3d ba c1 ba
       0.00033442932 0.0010789287 0.00029820533 -0.0014780235
000150 e9 42 06 39 a2 60 26 b9 df 2f ba b9 bd b7 c3 39
       0.00012804162 -0.00015866992 -0.0003551235 0.00037330194
000160 8b 2c 1d 3a 1c 8b 64 39 33 4f bb 39 ae d1 55 b9
       0.0005995712 0.00021795597 0.00035726427 -0.00020391375
000170 a4 7d 24 b9 2e 97 6b 39 e6 03 bc b9 2b cf 6b 38
       -0.00015687064 0.00022467665 -0.0003586106 5.6221306e-05
000180 1c de 00 b9 64 e0 86 3a 32 18 af b7 47 82 4f b9
       -0.00012289773 0.0010290262 -2.0872892e-05 -0.0001978959
000190 f1 c7 09 3b 25 56 52 b8 69 ba 39 b9 e8 f9 6b 39
       0.0021023715 -5.014813e-05 -0.00017712418 0.00022504444
0001a0 be 0b c0 b8 d7 e0 c4 39 1b 16 d4 38 75 fb 3e ba
       -9.1574606e-05 0.00037551552 0.00010113065 -0.0007285395
0001b0 59 0a cd b9 49 7e 93 39 c3 6a 81 ba 14 64 5e 3a
       -0.00039108357 0.00028132115 -0.0009873736 0.0008483541
0001c0 87 fa cb b9 86 65 1e 3a 30 c7 5e 3a 50 cb 43 ba
       -0.00038905835 0.000604235 0.0008498309 -0.00074689556
0001d0 9c 97 2f 39 17 db a4 ba 06 af 05 3a fe a6 b9 b9
       0.0001674578 -0.0012577501 0.0005099628 -0.0003541037
0001e0 9c 16 09 3a e6 99 f9 39 1c b5 1f ba e6 e3 0c b9
       0.00052295043 0.00047607644 -0.0006092356 -0.00013436339
0001f0 31 7e 16 3a ff c3 44 39 8d d7 68 38 aa 7f 87 39
       0.000574085 0.00018765031 5.5513858e-05 0.00025844324

convs.0.lin.weight f4 [128, 19]
000000 bd d0 e4 bd 5d 57 a8 3d 38 4d 99 bd 8a 5a ec 3d
       -0.11172626 0.08219788 -0.074854314 0.115407065
000010 96 99 31 3e cf 32 1c bc 31 e4 2a bd 64 ab a8 3c
       0.17343745 -0.009533598 -0.041721527 0.020589538
000020 ba d1 bf bd 2c 90 36 3d 10 c6 2c be 15 6e 27 be
       -0.09366174 0.044571087 -0.1687243 -0.16350587
000030 5a f8 8f bd fe e1 0a 3e a8 e3 08 be c6 1e aa bd
       -0.07029791 0.13562772 -0.13368094 -0.08306651
000040 e0 55 b4 bd 82 42 b9 3d 28 cb 5e 3d 96 b5 13 be
       -0.08805442 0.090458885 0.054392964 -0.14424738
000050 90 71 6c bd c4 d0 33 3d c9 75 11 3e 2d 04 bc 3d
       -0.05772549 0.043900266 0.14205088 0.09180484
000060 dd 93 ae bd c2 54 96 bd 64 bd 41 3e d6 83 97 bc
       -0.085242964 -0.07340385 0.18919903 -0.018495481
000070 9e 3c bd 3d ad e9 0f be 6c d6 9e bd 99 b4 25 3e
       0.092400774 -0.14053984 -0.077557415 0.16182174
000080 bf e0 0d be 80 63 32 bd a3 98 ed bc 6a 3b 78 bd
       -0.13855265 -0.04355192 -0.029003447 -0.060603537
000090 54 0a f9 3d 5e 66 23 3e f6 37 2a be c5 f5 e2 bd
       0.12160173 0.15957019 -0.1662291 -0.11082033
0000a0 fb 21 c4 bc 04 77 2a 3d f0 6f 9b 3d 14 bc c5 bd
       -0.023941984 0.04161741 0.0758971 -0.09655014
0000b0 40 ef 5b 3d e5 4f 11 3e 81 b9 bb 3d 58 27 9e 3d
       0.053694963 0.14190634 0.091662414 0.07722348
0000c0 01 0f 78 3d a1 60 4a bd 4e b0 cb bd cf 28 28 3e
       0.060561184 -0.04940856 -0.09945737 0.16421817
0000d0 dc ec 08 be d5 18 09 be fb ef 6a 3d 92 13 c6 3d
       -0.13371605 -0.13388379 0.05735777 0.096717015
0000e0 d2 66 ec 3d 33 e7 a4 3d d1 17 b8 3d bf c8 25 3e
       0.11543049 0.0805191 0.089889176 0.1618986
0000f0 51 00 45 3e 1a bd 1d 3d 87 ef 19 bb d6 d9 29 be
       0.19238402 0.03851042 -0.0023488717 -0.16587004
000100 98 ae 27 3e 04 78 c9 3d 07 70 c0 3c 19 d7 d0 3d
       0.16375196 0.09837344 0.023490919 0.101972766
000110 c5 56 2b bd 99 e1 f2 bd f3 72 27 3e ea d1 da 3d
       -0.041830797 -0.118594356 0.16352443 0.10684569
000120 12 8f 1d 3e 33 40 ab 3c 31 ec 80 bc 47 cc bb 3d
       0.15386608 0.020904636 -0.015737625 0.09169822
000130 15 15 18 be d6 8a 19 3e 32 b7 af bd 79 b0 16 3e
       -0.14851792 0.14994368 -0.085798636 0.14715756
000140 91 ab a0 3d 86 4b 71 bd 61 1c 6a 3d 79 e7 c7 bd
       0.07845224 -0.058909915 0.05715597 -0.09760947
000150 74 14 7e 3d 9d fb d4 bd af 21 1c be aa cc c8 3d
       0.062031224 -0.10399554 -0.15247224 0.098046616
000160 79 51 85 bd 43 96 c2 bd 88 f2 11 bc 53 fb 06 3e
       -0.0650968 -0.095013164 -0.008907922 0.1318181
000170 8c 13 1a bd bf 40 03 bd d6 14 46 3e 21 07 27 be
       -0.037616298 -0.03204417 0.19343886 -0.16311313
000180 64 87 3b be 9c 30 d1 bd 76 85 04 3d 9b d7 31 3d
       -0.18313366 -0.1021435 0.03235384 0.043418508
000190 72 0c a2 bb 50 24 c3 bd a7 39 1a 3e c3 81 19 3c
       -0.0049453313 -0.095284104 0.15061055 0.0093693165
0001a0 4b 59 0e be 01 6d 29 3e 49 e0 1c bd fb 4d 95 bd
       -0.1390125 0.16545488 -0.038299832 -0.07290264
0001b0 71 b0 bf 3d 8c 8a 04 be 71 c2 3a 3a ba c8 35 be
       0.093598254 -0.12943476 0.0007124311 -0.17752352
0001c0 28 ec 09 be 3d 21 4b be 84 b5 5d bd 52 4f 56 3d
       -0.13468993 -0.19836898 -0.054128185 0.05232174
0001d0 7f 19 f4 bb 15 f0 2b be c5 4e 3d be e2 9f c3 3d
       -0.0074493284 -0.16790803 -0.1848708 0.095519796
0001e0 57 d5 09 3d 48 3c af bd 35 f0 32 3e 04 40 7f bd
       0.033650722 -0.085564196 0.17474444 -0.06231691
0001f0 d6 d7 50 3e e4 94 ec 3d 61 d3 44 3e 45 05 1e 3d
       0.20394835 0.11551836 0.1922126 0.038579244
000200 17 e6 3c be 58 86 d7 bd 21 bf 20 3e 8c d2 b4 3d
       -0.18447147 -0.10523671 0.1569791 0.08829221
000210 b6 90 e3 3c 29 7d 78 bd 0d 08 f4 bc bf 30 52 be
       0.027778964 -0.060666237 -0.029788995 -0.20526408
000220 c3 c6 7c 3d 1d dd 25 3d a5 b0 26 bd 0f bf ee 3c
       0.06171299 0.040494073 -0.040695805 0.029143838
000230 59 c0 24 3e e1 05 1f be ea fe 20 3e 43 45 3b be
       0.16089 -0.15529586 0.15722242 -0.1828814
000240 0f bc 95 bd 05 02 48 bd 3d 19 a2 3d fc 02 cb bd
       -0.0731126 -0.04883005 0.0791497 -0.099126786
000250 ea 91 c4 bd 66 4c 2a be 7c e6 97 3d a6 25 28 3e
       -0.095981434 -0.16630706 0.07417008 0.16420612
000260 18 0e 11 bd ba 02 8c bd d3 bd f3 bd 55 d8 89 bd
       -0.03541383 -0.068364576 -0.119014405 -0.06730715
000270 50 f4 87 3d 23 c0 24 3e af 09 89 3d 72 07 10 3e
       0.06638396 0.1608892 0.066913 0.1406534
000280 ec 2b 12 be 44 78 29 3e f3 c2 ed 3d cb 68 20 be
       -0.14274567 0.16549784 0.11609449 -0.15664975
000290 3f 4f 84 3d 9f 8f ce 3d cc ca 01 be b0 13 42 3c
       0.064604275 0.10085987 -0.12675017 0.011845514
0002a0 a1 f8 09 be 07 f2 4d 3e be e7 a2 bc 29 05 80 bd
       -0.1347375 0.20111857 -0.019885894 -0.06250984
0002b0 d5 b0 76 3d 0a 61 92 3d 4f 46 a1 bd d7 e4 18 be
       0.060227234 0.07147415 -0.078747384 -0.14931045
0002c0 af e6 4e 3e e4 05 c5 bd 25 7a 32 be 03 f9 56 3d
       0.20205186 -0.09620264 -0.17429407 0.05248357
0002d0 29 ed 1d be e5 d9 ae bd 49 95 e5 bd 9e 40 3c 3e
       -0.154225 -0.08537654 -0.112101145 0.18384025
0002e0 74 60 5a bd 20 7d 0b 3e 09 03 39 3e c8 16 6b 3c
       -0.05331464 0.1362195 0.18067564 0.014348693
0002f0 47 95 9f 3d 8a 2c 39 3c 40 c8 80 bd fe bc 50 3e
       0.07792144 0.011302123 -0.06288195 0.20384595
000300 11 3a 28 be 22 25 2d bd a2 f1 35 be 9d 77 0a be
       -0.164284 -0.04227174 -0.17767957 -0.13522191
000310 d2 95 ee bc 22 89 ac 3b 80 b9 34 3e 69 b1 1c bd
       -0.029124174 0.005265371 0.17648888 -0.03825513
000320 2e 21 0a 3e 82 92 1b be f1 84 26 3d 13 de c6 3d
       0.1348922 -0.15192607 0.040654127 0.09710326
000330 94 1a 44 be 6c d1 a3 bd cb 65 32 be 79 91 ff 3c
       -0.19150764 -0.079989284 -0.17421643 0.031197296
000340 a4 3d d6 bd ba 0e 52 3d 54 5e 97 bb aa c7 4d 3d
       -0.10460976 0.051283576 -0.004619399 0.050239243
000350 05 66 37 be d0 90 3a be 72 75 01 be 67 2f 67 3d
       -0.17910011 -0.18219304 -0.12642458 0.05644169
000360 84 d4 c2 bd 73 8e 5d bd 01 7b 88 bc bb 5a d0 bb
       -0.095131904 -0.05409093 -0.016660215 -0.006358472
000370 56 c7 8a 3d 5b 3e 26 be b6 ed 08 3e 9a 79 da 3d
       0.067763016 -0.16234724 0.1337193 0.10667725
000380 f9 a4 a3 3d 0f 0a a9 bd 93 3d af 3d 90 73 fd bd
       0.079904504 -0.08253872 0.08556666 -0.123755574
000390 bc 9c 28 bc 68 cb 3f 3e cf e2 48 3d bb e6 be 3d
       -0.010291275 0.18729937 0.049044427 0.09321352
0003a0 13 ba bb 3d 1c f7 d8 bd d8 f8 c7 3d 55 fd 38 be
       0.0916635 -0.105940074 0.0976426 -0.18065389
0003b0 48 4d 23 be ed 39 fa 3d 8d ad 09 3e 06 38 a8 3d
       -0.15947449 0.1221808 0.1344511 0.082138106
0003c0 ff 93 e2 3c 37 61 34 3d 53 ab 4b 3c 49 4a 2b be
       0.02765846 0.044038024 0.012430984 -0.16727556
0003d0 30 e5 17 3e 2b ed 86 bd 74 ad 0f 3e 3e 38 b4 bd
       0.14833522 -0.06588205 0.14031011 -0.0879979
0003e0 0b 17 d3 3d f6 c4 1f bd 21 41 dc bd 02 52 3a 3e
       0.103071295 -0.039006196 -0.1075461 0.18195346
0003f0 5d 22 74 3d 98 87 98 3d 4f f3 05 be 2b 5a 8b bd
       0.059603084 0.074477375 -0.13081096 -0.068043076

convs.1.bias f4 [128]
000000 1b cb e0 b6 62 ee 45 b7 9b 4a bf b5 ce 55 77 37
       -6.699365e-06 -1.1797618e-05 -1.4252322e-06 1.4742325e-05
000010 7a a8 61 38 9e fe d3 37 a8 28 cb b7 52 18 b3 36
       5.3801086e-05 2.5271725e-05 -2.4218418e-05 5.337447e-06
000020 af 37 b4 b7 5a 81 5e 36 61 3c 28 37 22 08 eb b7
       -2.1483602e-05 3.315587e-06 1.0027638e-05 -2.801797e-05
000030 44 74 23 37 80 f2 0a b8 9e 6a 9a b7 01 49 c6 b7
       9.742627e-06 -3.312761e-05 -1.8407878e-05 -2.3637434e-05
000040 10 0d 11 37 ed 0a ba 37 89 9d 15 b8 49 41 ee b7
       8.645715e-06 2.2178016e-05 -3.5671084e-05 -2.8402212e-05
000050 f1 a3 49 37 6f c8 ec b5 d8 2a 6f 38 8e 8e 15 b7
       1.2018704e-05 -1.7641704e-06 5.702194e-05 -8.914283e-06
000060 67 0f 1d b7 0f 2e 4c b7 c8 a4 83 38 0a 1c ce 37
       -9.361515e-06 -1.2170071e-05 6.27726e-05 2.457017e-05
000070 a1 1d 64 37 0e e6 cd 38 8d 23 ca 37 80 b9 3f 37
       1.35967575e-05 9.818013e-05 2.4096831e-05 1.1427677e-05
000080 f6 ae 4a b7 b1 da fb b7 db 7c 8c b8 d9 f8 3e b8
       -1.20808745e-05 -3.0023368e-05 -6.698976e-05 -4.5531287e-05
000090 a5 df 3f 36 4f 84 7b 38 fc f9 5d 38 a7 bf 4d b8
       2.8591396e-06 5.9966285e-05 5.2923322e-05 -4.90543e-05
0000a0 08 70 11 37 11 a8 60 b7 6b 66 19 38 81 34 70 b7
       8.668758e-06 -1.3390571e-05 3.6573427e-05 -1.4317339e-05
0000b0 f4 87 02 38 ae 4b 11 38 4f 83 4c b7 e8 d2 4c 37
       3.112103e-05 3.4641176e-05 -1.218992e-05 1.2208453e-05
0000c0 8a d9 c3 37 16 65 29 36 be 71 3c 37 36 a6 3f 37
       2.3347111e-05 2.5241802e-06 1.1232156e-05 1.1423186e-05
0000d0 f4 24 2f 38 95 83 69 37 e6 13 f2 36 b8 2f 8e b7
       4.1757667e-05 1.3918519e-05 7.2144785e-06 -1.694994e-05
0000e0 d9 66 d9 36 f3 b2 0a b6 24 42 14 b7 b9 72 61 b7
       6.479077e-06 -2.0667765e-06 -8.836887e-06 -1.3437756e-05
0000f0 e1 12 15 38 de 8a a5 37 b8 bd c0 b7 b9 77 4a b8
       3.554195e-05 1.9734198e-05 -2.2976528e-05 -4.8272053e-05
000100 67 92 81 37 e6 54 3b 38 3a 82 46 b6 6f a1 7b 37
       1.5446172e-05 4.4663342e-05 -2.95801e-06 1.49983525e-05
000110 29 2c 66 b8 ee 2a 1e b8 72 b8 c8 35 c0 ce 05 b7
       -5.48774e-05 -3.7710117e-05 1.4954842e-06 -7.9755555e-06
000120 7e 16 ed b7 2e 44 81 b6 c1 d9 2b b7 a4 80 f0 b7
       -2.8263075e-05 -3.8524367e-06 -1.0243094e-05 -2.8670132e-05
000130 88 b2 34 b5 19 95 be 38 7e a2 94 b7 75 73 5b b7
       -6.731502e-07 9.0876776e-05 -1.7718641e-05 -1.3080299e-05
000140 ff ab 84 b8 a8 01 06 b8 e7 8c e7 34 bc dd 17 38
       -6.326287e-05 -3.1949632e-05 4.3129623e-07 3.620771e-05
000150 ca 1d 19 b7 06 99 bb 37 e5 10 45 37 ab 34 06 b8
       -9.1264465e-06 2.2363394e-05 1.1746049e-05 -3.199714e-05
000160 22 a1 07 37 5a 3a d4 35 fd 75 a7 b7 57 b8 e4 b8
       8.084144e-06 1.5812213e-06 -1.9962894e-05 -0.00010906223
000170 ea c1 0a b8 e9 6f 04 38 72 74 34 38 2e 15 0a 38
       -3.308236e-05 3.1575477e-05 4.3023792e-05 3.292149e-05
000180 65 95 0f b9 4c 43 95 b6 3e a2 99 b7 79 22 c9 37
       -0.00013693197 -4.4483804e-06 -1.8314571e-05 2.397712e-05
000190 da 3f 48 b6 9b 74 1f 37 3c f1 97 37 00 2a 15 b8
       -2.983949e-06 9.504288e-06 1.8112936e-05 -3.5563484e-05
0001a0 58 39 c3 b7 65 39 d6 37 e5 c5 29 b8 d2 6a 8c b5
       -2.3272514e-05 2.5537514e-05 -4.0477044e-05 -1.0461902e-06
0001b0 34 6e 15 38 14 31 32 38 d0 3f 7c b8 b0 68 95 37
       3.5627003e-05 4.2484215e-05 -6.0140912e-05 1.7810933e-05
0001c0 5e 51 2e b8 f9 78 82 38 6e d4 10 38 35 3e ae b8
       -4.1560612e-05 6.221416e-05 3.4530116e-05 -8.3085535e-05
0001d0 7e a7 b9 37 9a 25 b0 37 b6 a8 7a b7 e0 16 0c b8
       2.2131713e-05 2.0998345e-05 -1.4940442e-05 -3.3399905e-05
0001e0 90 bc 0a 36 75 89 94 b6 32 dd 80 38 47 0f 6c 38
       2.067336e-06 -4.426746e-06 6.1447165e-05 5.6281013e-05
0001f0 31 86 7b 38 d2 1e bc 38 ca 98 9a 36 45 4c cd b7
       5.996804e-05 8.970279e-05 4.6073446e-06 -2.447342e-05

convs.1.lin.weight f4 [128, 128]
000000 c9 ce be bd 91 4e 0e be 3e 9d 6b 3d c2 84 c9 bc
       -0.09316785 -0.13897158 0.057523005 -0.024599437
000010 c6 44 94 3d a0 fc e8 bb 7f 9c 62 3d 57 4c 0d 3e
       0.0723968 -0.0071101934 0.055325028 0.13798653
000020 c2 2c ca bc 3a 5a 13 3d 5c 9c e1 bd 3e e6 20 bd
       -0.024679545 0.03597472 -0.11016151 -0.039282076
000030 47 e7 b9 bd 6b 03 be 3d c8 05 a7 3d 0e 26 aa bd
       -0.09077316 0.09277996 0.081553996 -0.083080396
000040 79 11 06 3d 0a 4d 1a 3d 1f 36 02 bc 28 0c 1c 3e
       0.032731507 0.037671126 -0.007947474 0.15239012
000050 0e 93 09 3e 47 03 1c 3c 0c b8 fd 3d 86 2f 7e 3b
       0.13435003 0.009522266 0.1238862 0.003878565
000060 c1 d3 27 bb 74 db 05 bc ea 38 2f bb c7 b4 af 3d
       -0.0025608393 -0.0081699975 -0.0026736804 0.085794024
000070 32 39 b6 3d 81 06 27 bd 3c 0e ff bd f3 ae fe 3c
       0.08897628 -0.040777687 -0.12453887 0.031089282
000080 f6 0e f4 3c 57 d8 14 3d 41 4c b8 3d d5 c4 15 be
       0.02979229 0.03633913 0.08998919 -0.14625867
000090 20 83 be bd c2 b1 23 3d 6e ae b8 3d 19 27 e0 3d
       -0.09302354 0.039964445 0.09017645 0.10944957
0000a0 9d 54 80 3d 9b 60 5a 3d 88 db 99 bd 54 b3 ed 3d
       0.06266139 0.053314786 -0.075125754 0.1160647
0000b0 8b 34 c1 3d 7b f8 de bc b8 fa 56 3c 85 6a 0e be
       0.0943385 -0.027218094 0.013121299 -0.13907821
0000c0 31 62 51 bd 9a 85 03 3d c9 0b bf bc 1b 90 9f 3d
       -0.051119033 0.032109834 -0.02332105 0.07791158
0000d0 87 2a 04 3e 51 26 9a 3d 83 93 8e 3d d8 71 01 bd
       0.12906848 0.075268395 0.069617294 -0.03160271
0000e0 c9 10 ab bd 48 1e a1 bd af 2f 97 bb e5 65 a8 3d
       -0.08352811 -0.07867104 -0.0046138386 0.0822256
0000f0 ed 7d 52 bd 5e 57 22 bc 74 12 ec 3c 72 c9 15 be
       -0.051389623 -0.009908525 0.028817393 -0.14627627
000100 9b 12 b0 3b ca 32 bc 3b 8e 01 04 be b4 6e 0f be
       0.0053733117 0.005743359 -0.12891218 -0.14007074
000110 c6 2e 3b 3b 9b c2 f8 3d c5 1c dc bd 02 47 08 3e
       0.0028561815 0.12146493 -0.10747675 0.13308337
000120 26 2f 4f 3d 70 64 6e 3d c5 19 8a bd 27 9f 5a bb
       0.050582074 0.058201253 -0.067431964 -0.0033359022
000130 c8 b6 10 be b6 31 a2 3b 11 1d f0 bb 7b 2c 5b 3d
       -0.14132226 0.0049497737 -0.0073276837 0.053509217
000140 51 85 8d bc a5 11 c9 3d 36 ed 15 be d8 81 f5 bd
       -0.017275484 0.098178186 -0.1464127 -0.11987656
000150 24 ab 59 3b 83 1b e3 bd 15 7e 6e bd 7e d0 1b 3e
       0.003321358 -0.11089232 -0.05822571 0.15216252
000160 1f b8 37 bd 22 b7 93 bd 8e a3 a0 bd eb bd 1d bd
       -0.044853326 -0.07212664 -0.078436956 -0.038511198
000170 14 c0 c0 bd af b2 9b bd e1 3f a8 bd b6 46 a9 bc
       -0.09411636 -0.076024406 -0.08215309 -0.0206636
000180 92 74 a7 bb eb 1f 49 3d d9 c8 00 3e e9 97 e4 bd
       -0.005110332 0.049102705 0.12576617 -0.11161787
000190 7e bd ea 3d 63 d7 28 bd c2 c1 08 3d 59 55 82 3d
       0.11461924 -0.041221034 0.033387907 0.06363935
0001a0 fe 22 0e be a3 b4 03 3c 85 4c 14 bd 62 70 4e bc
       -0.13880536 0.008038673 -0.036205787 -0.012600036
0001b0 f1 9b 45 3d 84 0a 97 3d 19 41 42 bd 57 88 53 bd
       0.04824442 0.073750526 -0.047425363 -0.051643696
0001c0 d9 6d 9e bd 6a 13 17 bc 2d 96 c8 3d 27 ed 9d bd
       -0.077357955 -0.009220937 0.09794269 -0.07711249
0001d0 51 0d 59 3c 88 9b 41 bc c0 47 0d 3e f1 94 13 3e
       0.013247804 -0.011816867 0.13796902 0.14412285
0001e0 aa 71 4b bd 15 41 d3 3d 76 7d c6 bd fe 2c b6 bd
       -0.049668945 0.10315148 -0.096918985 -0.088953
0001f0 69 fe 94 3d cf d4 84 bd 7d 8d 00 3d 2a 2b fc 3c
       0.072750874 -0.064859025 0.031384934 0.030782301
000200 3e 39 6f bc d5 ca 96 3d 14 d2 0e 3e bf 2b a4 3b
       -0.01460105 0.07362906 0.13947326 0.0050100978
000210 9a 33 b4 bc 8b ed 14 3c 6f be f0 3d 6d 99 c8 bd
       -0.021997262 0.009089838 0.11755072 -0.09794889
000220 bd be 92 bd 5d e6 1c be c1 20 91 3c b7 27 e5 3a
       -0.07165287 -0.15322252 0.017715814 0.001748315
000230 0c 94 e2 3d 1e b6 04 be b7 54 07 be 20 9e 62 3d
       0.11063394 -0.12960097 -0.1321591 0.05532658
000240 cb 34 ea 3c 32 99 33 3d a8 91 6a 3d 5c 91 a3 3d
       0.028589627 0.04384727 0.057267815 0.079867095
000250 84 6d 16 3e 59 12 04 bc 45 03 ed 3d d7 8a bf bd
       0.14690214 -0.008061015 0.11572889 -0.093526535
000260 09 bc ee bd 21 f4 82 3d d9 ba a3 bd 47 4d a8 3c
       -0.116569586 0.0639422 -0.07994623 0.020544661
000270 05 48 e0 bd 6a d4 8b 3d b9 f4 13 3d f9 f3 14 be
       -0.10951237 0.06827624 0.036122058 -0.14546193
000280 eb 67 6e bd 85 0f 0b 3e cc 9a 85 3d 1b b8 b2 3d
       -0.058204573 0.13580139 0.06523666 0.087265216
000290 df 98 de bd cf e6 1c bd c5 b5 e9 bd 8d 45 55 3c
       -0.108690016 -0.038306054 -0.11411623 0.0130170705
0002a0 b8 8e 84 bc 97 38 59 bd 0f 07 0d be e2 29 01 bc
       -0.016181335 -0.053032484 -0.13772224 -0.007883521
0002b0 66 e6 0f be e9 d8 cf 3c ea 9b 12 be e3 ce e8 3c
       -0.14052734 0.025371986 -0.14317289 0.028418964
0002c0 44 51 9d 3d bb 8b c1 3d 69 26 72 3d bb ee 67 bd
       0.07681516 0.094504796 0.059118662 -0.056624155
0002d0 0c 11 d5 3d e5 49 b6 bd 77 41 1b bd 6a 25 db 3d
       0.10403642 -0.08900813 -0.03790423 0.107004955
0002e0 fc a0 b7 3d 3c 72 91 bd ec 17 7a 3d d4 fd 8b 3c
       0.08966252 -0.071018666 0.06105797 0.017088808
0002f0 d0 83 dc 3d eb e1 5e bd 37 59 bd bd 3c 80 cc bd
       0.10767329 -0.05441467 -0.09245532 -0.09985396
000300 c5 2e a8 bd 05 b5 89 bd ed c7 de 3d e3 81 b9 3d
       -0.082120456 -0.0672398 0.108779766 0.09057977
000310 a8 31 1b bc 53 4b 8b bd 4a 2e 1f 3e 3e 87 40 3d
       -0.009472288 -0.06801476 0.15545002 0.047003977
000320 ba d8 2b bd 1b 38 06 be 4a a4 0e 3d d6 94 13 3d
       -0.041954733 -0.1310734 0.034824647 0.036030613
000330 45 37 aa bd 98 dc 10 bd 08 0d a2 bd f7 48 72 bd
       -0.08311323 -0.035366625 -0.07912642 -0.059151616
000340 bc 2d 0b 3e f4 55 43 3d 2d 2b 7a 3c a0 3c 5c 3c
       0.13591665 0.047689393 0.015269083 0.0134421885
000350 12 11 14 be 2e 5e 96 bc 09 1c ad bb 99 28 15 be
       -0.14459637 -0.018355455 -0.005282883 -0.14566268
000360 0a c3 c3 3d 35 a3 11 3e 9d d6 d0 3d e8 23 19 bc
       0.09558685 0.14222415 0.10197184 -0.00934694
000370 fd 03 e3 3c 85 6b c6 3d ac 64 4b 3c fb 84 dd bd
       0.027711863 0.096884765 0.012414139 -0.1081638
000380 2f 52 9a bb 6f 61 06 3e c6 8f 1f be 63 e0 80 bc
       -0.004709504 0.13123105 -0.15582189 -0.015731996
000390 8c ed 07 be fe 33 0e 3e ca bc 07 3e c7 04 44 3d
       -0.1327421 0.13887021 0.13255611 0.04785612
0003a0 b8 73 3f bc 32 3b d6 bd 79 5a 08 bd c8 68 18 bd
       -0.011685304 -0.10460509 -0.033289406 -0.037209302
0003b0 de 8e 35 bc 3c 2c d4 3d c5 73 32 bd a1 e2 a3 3c
       -0.0110814255 0.103599995 -0.043567438 0.020005526
0003c0 c5 eb cc bd f9 e7 fe 3d 32 9a 17 be ee e5 90 3c
       -0.10005907 0.12446589 -0.14804915 0.017687764
0003d0 b0 80 53 3d fe 41 f4 bd db 24 bf 3c 55 6a 0c 3e
       0.051636398 -0.119266495 0.023333004 0.13712437
0003e0 4f 4b 1e be 9a e9 9e 3d 44 e9 05 3d 1b 0d 0e 3e
       -0.15458415 0.077594 0.032693163 0.13872187
0003f0 02 9d ba 3d 79 06 9d 3d 06 9e 23 bd 21 19 f9 3d
       0.09111978 0.0766725 -0.039945625 0.12162996

convs.2.bias f4 [128]
000000 79 35 8b b7 7c e5 86 b6 a7 e9 49 38 91 e4 18 b8
       -1.6594991e-05 -4.0202267e-06 4.813974e-05 -3.6452493e-05
000010 be 62 e8 37 bf b7 73 37 5c 38 89 b7 1c 26 8e 37
       2.7702536e-05 1.452671e-05 -1.6357917e-05 1.6945465e-05
000020 e9 9d 14 37 46 67 94 36 ff 96 60 b7 3e 3c a1 b5
       8.858254e-06 4.4227663e-06 -1.3386597e-05 -1.2012968e-06
000030 34 69 78 35 ec d8 80 b7 cb 63 86 38 92 e6 7e 37
       9.254029e-07 -1.5359801e-05 6.408206e-05 1.5193264e-05
000040 e1 ba c2 b7 09 20 1e b6 85 ed 63 b7 3d 6a 37 b8
       -2.3213624e-05 -2.3562482e-06 -1.3585556e-05 -4.3729542e-05
000050 93 77 fd b6 66 33 f0 37 d8 a4 94 b7 3b 3f f8 37
       -7.553908e-06 2.8634164e-05 -1.7719736e-05 2.9593348e-05
000060 32 38 3e b7 f6 2f 3a 37 29 8d b1 b7 e2 da aa b8
       -1.13379665e-05 1.1097631e-05 -2.1165777e-05 -8.147002e-05
000070 45 59 ba b6 e4 59 90 b7 b8 44 13 b7 26 85 90 b7
       -5.5536243e-06 -1.7207996e-05 -8.777883e-06 -1.722814e-05
000080 2a 29 9f 36 a3 70 66 33 e6 ed b8 35 9a c2 d7 b7
       4.7433614e-06 5.365349e-08 1.3778306e-06 -2.5720616e-05
000090 b0 ba 32 b7 78 09 30 37 c7 79 bf b7 ea dd f9 37
       -1.0653093e-05 1.0492622e-05 -2.2825681e-05 2.978645e-05
0000a0 c9 66 01 37 3a be c8 37 81 c7 f0 b6 f5 51 9e 36
       7.712931e-06 2.3930439e-05 -7.1757827e-06 4.718308e-06
0000b0 1a 2b 8e b8 b1 23 fd 36 fe cd 2a b8 be e6 56 36
       -6.779116e-05 7.5441426e-06 -4.0723004e-05 3.2022795e-06
0000c0 36 e0 8d b7 fb ef 51 37 5f 30 54 37 f6 f8 41 38
       -1.6912916e-05 1.2513246e-05 1.2647447e-05 4.624665e-05
0000d0 20 82 9c b5 c4 a1 f9 36 4b 21 0b b8 92 1d 32 b7
       -1.1660777e-06 7.4396103e-06 -3.317119e-05 -1.0616512e-05
0000e0 60 d4 72 38 58 88 ae b7 51 42 45 37 0b a7 db 37
       5.7895086e-05 -2.0805906e-05 1.17575555e-05 2.618462e-05
0000f0 b4 cf 6c 37 08 54 c9 b6 1f 58 9a 36 14 43 75 b5
       1.4115056e-05 -6.0000493e-06 4.5998163e-06 -9.1367224e-07
000100 25 11 4e b7 d5 32 71 b8 89 e4 26 b8 8e 84 53 b7
       -1.2282549e-05 -5.750622e-05 -3.9790324e-05 -1.2607443e-05
000110 bc 2b 05 b9 d0 11 65 b3 fd 4b ac b6 c5 8b 18 b7
       -0.00012700161 -5.3334418e-08 -5.1348457e-06 -9.092449e-06
000120 68 88 a2 b7 38 88 e8 36 13 83 b6 b7 b7 2a b1 36
       -1.9375424e-05 6.9299967e-06 -2.1757127e-05 5.2799837e-06
000130 21 ab c9 b7 c6 d9 1b 38 3d 56 37 b7 95 ee 9c 37
       -2.4040755e-05 3.7157697e-05 -1.0927729e-05 1.8707748e-05
000140 d9 90 53 b7 10 8d 7c b8 1a 0a 0b 38 dc 54 4a b8
       -1.2610305e-05 -6.0212857e-05 3.314959e-05 -4.8239584e-05
000150 a5 75 81 35 10 be 2c b7 c5 31 d3 37 0f 9c 91 b8
       9.645488e-07 -1.0296251e-05 2.5176336e-05 -6.943207e-05
000160 47 ce 39 38 ea 1f 1b b7 09 18 9c b7 38 8b 2a 38
       4.4299548e-05 -9.2461505e-06 -1.8607841e-05 4.0660816e-05
000170 fb 4a 90 36 93 2f 9c 37 17 02 33 35 74 dd 34 37
       4.3002633e-06 1.8618803e-05 6.668574e-07 1.0780397e-05
000180 58 72 d1 b7 fe ad e6 37 18 4d 17 b7 7f 93 de 36
       -2.4967987e-05 2.7499158e-05 -9.018251e-06 6.6332864e-06
000190 05 20 f0 b6 f5 8c e1 36 c3 f5 41 b7 81 37 2b 37
       -7.156285e-06 6.721932e-06 -1.1560917e-05 1.0205317e-05
0001a0 ab 01 0a 38 b6 0c 1f b8 d4 4e 46 37 cf 88 cd 37
       3.2903317e-05 -3.7920392e-05 1.1820073e-05 2.450161e-05
0001b0 f0 7a 4b 38 29 40 98 b7 76 2e 00 b8 26 6f a0 37
       4.8513466e-05 -1.8149689e-05 -3.056085e-05 1.9125244e-05
0001c0 94 d8 4c 35 81 45 91 b8 d6 68 3a 37 09 f9 fb 35
       7.6311085e-07 -6.927085e-05 1.1110873e-05 1.8773436e-06
0001d0 d3 13 a6 b7 5d 84 ea 36 ff 95 58 b6 e4 56 dd 38
       -1.9797973e-05 6.9891526e-06 -3.2273817e-06 0.00010554286
0001e0 b9 3a 28 38 68 c3 06 b9 1f 17 d8 b7 03 5a 82 b6
       4.010901e-05 -0.0001285203 -2.5759973e-05 -3.8847807e-06
0001f0 75 fe 11 38 07 82 d1 b5 c9 de fa 36 54 de 61 b7
       3.4807676e-05 -1.5609556e-06 7.476516e-06 -1.346281e-05

convs.2.lin.weight f4 [128, 128]
000000 11 b6 47 bc 3b e5 0f be da d9 c0 3d c2 bd d5 3c
       -0.012189404 -0.14052288 0.09416552 0.02609146
000010 f2 b3 6f 3b be a4 95 bd e8 9c d5 3d 00 50 05 3e
       0.0036575762 -0.07306813 0.10430318 0.13018799
000020 3b 8e 22 3e 54 b4 a7 bd 33 0e b8 3d a3 2c 25 be
       0.15874569 -0.08188692 0.08987083 -0.16130309
000030 8d dd 09 3a f5 a0 9a 3d 62 8b e3 3d 82 f4 9f bd
       0.0005259149 0.07550231 0.111105695 -0.07810308
000040 e1 c0 a5 bd 07 ef f9 3d 63 4e 9f 3d e7 e1 f8 bd
       -0.08093429 0.12203794 0.07778623 -0.121524625
000050 21 d4 45 3c ef 1b f1 3d e0 a7 a8 3d 16 f4 2b bc
       0.012074501 0.11772906 0.082351446 -0.010495206
000060 61 a3 de 3d ca 11 1c bc 73 96 55 3d f6 c9 1b be
       0.10871006 -0.009525726 0.052145433 -0.1521376
000070 d9 f0 09 3e 46 2d 0f 3a 66 29 57 3d 05 38 db bc
       0.13470782 0.00054617634 0.052529715 -0.02676011
000080 21 1d fa bd ed 4a 9c 3d 70 a0 c7 3d 10 f9 22 bd
       -0.12212587 0.076314785 0.09747398 -0.039788306
000090 01 4a 16 3d c7 0b 6d 3b 93 14 e8 bd d5 b3 94 bc
       0.03669167 0.003617035 -0.11332049 -0.018152157
0000a0 31 72 c6 b9 a1 92 02 be d8 43 fe 3c c3 d8 51 3d
       -0.00037850582 -0.12751247 0.03103821 0.05123211
0000b0 e0 02 a5 bd 84 86 44 bd 0c cd a5 3d f1 8e b9 3d
       -0.08057189 -0.047979847 0.0809575 0.09060467
0000c0 4b 12 d2 bd e1 37 91 3d 23 53 41 bd 59 45 bc 3d
       -0.10257395 0.07090736 -0.047198426 0.091929145
0000d0 33 8b 13 be a2 d6 5b bd 49 6f 8d 3d 93 23 ec bd
       -0.14408569 -0.053671487 0.069059916 -0.11530223
0000e0 d0 f5 8c 3c 44 8e 9a 3d cc 96 e0 3d 2a 41 d5 bc
       0.017207056 0.07546666 0.10966262 -0.02603205
0000f0 2c de d3 3d 18 26 f1 3d ee 66 85 3d f8 88 1a 3d
       0.1034511 0.11774844 0.06513773 0.03772828
000100 60 88 6e bd c2 ec 92 bd 96 9e 06 3e b4 1d 13 be
       -0.058235526 -0.07174064 0.13146433 -0.143668
000110 2b c4 03 bc 3e bc 0d be 7c c0 dd bd af 7b 0e 3d
       -0.008042376 -0.1384134 -0.10827729 0.034785923
000120 7d 3a 53 bd 82 4e d8 3d 99 85 af bd 90 d1 11 3e
       -0.05156945 0.10561849 -0.085704036 0.14240098
000130 49 eb 6e bd 43 61 fb 3d 95 f7 09 3e 37 68 ce 3c
       -0.058329854 0.122744106 0.13473351 0.025196178
000140 a5 bc cc bd 42 67 e3 3d cd f2 64 3c ab be ea bc
       -0.099969186 0.11103679 0.013973904 -0.02865537
000150 d9 b7 ca 3d 06 22 51 bd 78 4a 3c 3d 63 24 ca 3d
       0.098983474 -0.051057838 0.045969456 0.098702215
000160 dc 5c a1 bd 1d aa 49 3d de fc de 3d 67 5e a3 3d
       -0.0787904 0.0492345 0.10888074 0.0797699
000170 28 f5 80 3c 66 4e 0d be 18 2c 06 bd ba 3b b9 bd
       0.0157419 -0.13799438 -0.032756895 -0.09044595
000180 95 e2 d7 bd 5f 50 cf bd cd ae 1c 3d 97 d8 e0 3d
       -0.10541264 -0.101227514 0.03825264 0.10978811
000190 19 82 02 be b4 6a 18 3e b2 44 07 3e ec a6 0a 3e
       -0.12744941 0.14884454 0.13209799 0.13540238
0001a0 6f ee 15 be ed 90 8c 3d 05 e9 8c 3d 74 c6 fe 3d
       -0.14641736 0.0686358 0.068803824 0.12440196
0001b0 c0 7c cc 3d b8 dd 0b be f8 34 bb bd e7 a0 dd bd
       0.09984732 -0.13658798 -0.09140962 -0.10821705
0001c0 d7 bb 1a be 9d b3 02 bd 1d f6 7e bd 38 26 d1 3c
       -0.15110718 -0.031909574 -0.06224643 0.02553092
0001d0 50 3e da 3d d7 eb 2c bd 05 e2 24 be 2b 9a ae 3c
       0.106564164 -0.042217102 -0.16101845 0.021313747
0001e0 f5 8b 06 3e ac 8e d1 3d 61 01 17 be 20 23 0c 3c
       0.13139327 0.102322906 -0.1474662 0.008553296
0001f0 38 bc 03 be a6 a0 84 3c 46 a0 b9 3b f5 ea d9 3d
       -0.12864769 0.016189884 0.005664858 0.106405176
000200 78 a5 3c 3d cf 06 14 be e7 70 78 bd ee 19 a4 3c
       0.04605624 -0.14455722 -0.060654547 0.020031895
000210 21 38 19 3e 29 16 ef 3d 23 1c e4 bd 3c e8 0b be
       0.14962818 0.116741486 -0.11138179 -0.13662809
000220 e9 23 d5 3c 7c b1 28 bd 0d 8b 06 be db 70 9a bd
       0.0260181 -0.041184887 -0.13138981 -0.07541057
000230 2f 7d 0a be 4c 4d 83 bd 04 48 d0 bb 1e 29 17 be
       -0.13524316 -0.064112276 -0.006356241 -0.14761779
000240 33 53 71 3c bd cb e6 bd da 54 5a 3c 4d 06 f8 bd
       0.014729309 -0.11269329 0.013325894 -0.12110577
000250 16 98 dc bd 67 34 76 bc 3c b6 aa 3d 2e 57 03 be
       -0.107711956 -0.015027142 0.0833554 -0.12826225
000260 0a 56 be bb b1 f6 a6 3d ac 43 00 3e 18 74 87 3d
       -0.0058085965 0.081525214 0.12525815 0.0661394
000270 2e 2d 07 be 1e 9d 95 bc d5 d6 fe bd b9 a9 a3 3d
       -0.13200828 -0.018263396 -0.1244332 0.079913564
000280 6c f4 86 bd 2f ce d0 3d f3 4e 6a bd 64 37 51 3c
       -0.065895885 0.101955764 -0.057204198 0.012769554
000290 5d c9 0b 3d 7d e4 01 3e 68 a3 12 3e d2 c6 f5 bc
       0.034127582 0.12684818 0.14320147 -0.030002031
0002a0 6d 25 a3 3d 5e 6d 1d be 9e 40 e9 bd 94 60 e9 bd
       0.07966123 -0.15373752 -0.11389278 -0.11395374
0002b0 4f e8 2c be 2d 29 8b 3d ff 54 d2 bd 99 40 6f 3d
       -0.16885494 0.06794963 -0.10270118 0.058411215
0002c0 3b 32 76 bd 8d a5 f9 bd 4b 4b ab bd a7 10 db bd
       -0.060106497 -0.121897794 -0.0836397 -0.106965356
0002d0 6e 29 80 3d f3 0e 8f 3d b2 a5 e9 3c 0e 08 94 bd
       0.06257902 0.06985273 0.028521392 -0.07228099
0002e0 1a fd 62 bc 37 2d d2 3d f4 db a3 bc 8c 05 9c bd
       -0.013854289 0.1026253 -0.020002343 -0.076182455
0002f0 cf 50 13 3e 61 c0 dc bd 36 ca 04 3e 87 38 8f bb
       0.14386295 -0.10778881 0.12967762 -0.0043707523
000300 0a 74 3b bd 7c e3 42 3c 8c dd 36 3d 13 a9 81 3c
       -0.04576496 0.011895057 0.044644877 0.015827691
000310 dc 42 40 bd be 6f 80 3c bc 62 28 3c 2e 3c 2d 3d
       -0.046938762 0.015678283 0.010277446 0.04229372
000320 14 d7 0a 3e c1 af 5f bd 9d e2 c1 bd 74 96 96 bd
       0.13558608 -0.05461097 -0.09467051 -0.073529154
000330 a0 c0 d8 3d 48 41 23 3e 24 65 c9 3d c0 03 c2 bd
       0.10583615 0.15942872 0.09833744 -0.094733715
000340 73 9a e9 bc 90 2a 98 bc e0 b1 0d bd ae c9 ff 3d
       -0.02851603 -0.018574983 -0.034593463 0.12489639
000350 7d 34 13 3e e2 5c 57 bd d9 98 8c bd 24 0c 74 bc
       0.14375491 -0.052578814 -0.06865091 -0.014895473
000360 36 84 1f 3e 5e f3 02 3e 17 f9 87 3d 84 05 d1 3d
       0.15577778 0.1278815 0.06639307 0.1020613
000370 91 72 36 bd a4 d1 61 3d a3 dd cc bd ea f1 bf 3c
       -0.044542853 0.05513157 -0.10003211 0.023430783
000380 15 51 e7 ba 66 de 9d bc a7 c8 ac bd 9a e7 24 bd
       -0.0017648066 -0.019271087 -0.08436709 -0.040259935
000390 ca 0b b7 bc ee fa 8f 3d 68 63 fd 3d 0a 30 82 3d
       -0.022344489 0.07030283 0.12372476 0.06356819
0003a0 d5 86 05 3d a6 58 91 3d 93 3f 3b 3d 10 f5 b7 3d
       0.03259929 0.070969865 0.045714926 0.08982289
0003b0 3e f5 87 bd a9 f1 73 3d ae f7 19 3e 87 0a c2 bc
       -0.06638573 0.059556637 0.15035889 -0.02368666
0003c0 6d 5e f3 3d 49 ca b5 bd 8c e1 45 bd eb 51 e1 3d
       0.11883245 -0.088764735 -0.0483108 0.11001953
0003d0 7c ca c1 3c 29 55 4b 3d 04 f3 f9 3d 3d bc eb 3d
       0.023656122 0.049641762 0.12204555 0.11510513
0003e0 b0 80 ab 3d 64 ac 03 be 17 7d 04 be ea 84 df 3d
       0.083741546 -0.1285873 -0.12938343 0.10914023
0003f0 95 94 8f 3d 60 05 09 be 8f 26 1e be d6 27 fb 3b
       0.07010762 -0.13380957 -0.15444396 0.007664661

bns.0.weight f4 [128]
000000 43 1d 80 3f 76 c2 80 3f 35 7f 80 3f 44 a8 7f 3f
       1.000893 1.0059345 1.003882 0.9986613
000010 e7 5e 7f 3f 75 6a 7e 3f f7 a0 80 3f a4 4f 80 3f
       0.99754184 0.9938119 1.0049123 1.0024304
000020 ad bc 80 3f 81 de 7f 3f 6f f7 80 3f 1d e5 7c 3f
       1.0057579 0.9994889 1.0075511 0.987871
000030 c7 ac 7f 3f 48 5f 81 3f f2 91 7f 3f 7e 2b 81 3f
       0.9987301 1.0107203 0.9983207 1.0091398
000040 b5 c2 7e 3f 99 2b 7f 3f 41 a1 7f 3f ce 1a 81 3f
       0.9951585 0.996759 0.9985543 1.0086305
000050 33 52 80 3f ac e6 7e 3f 92 92 81 3f d8 27 81 3f
       1.0025085 0.9957073 1.0122855 1.0090284
000060 ad 27 81 3f f5 aa 7f 3f 8f 9e 7b 3f 2a cd 81 3f
       1.0090233 0.99870235 0.98288816 1.0140736
000070 03 c3 7e 3f 34 a6 7e 3f 2c 49 80 3f 1f 7f 7f 3f
       0.99516314 0.99472356 1.002233 0.99803346
000080 83 15 7d 3f 02 1e 82 3f b7 ef 7c 3f cf a6 7f 3f
       0.9886095 1.0165408 0.98803276 0.99863905
000090 17 bf 80 3f 73 12 82 3f 1f 82 81 3f 52 66 7f 3f
       1.0058316 1.016188 1.0117835 0.99765503
0000a0 27 eb 7f 3f cd d0 80 3f 23 7d 80 3f 09 e1 80 3f
       0.9996819 1.0063721 1.0038189 1.0068675
0000b0 c5 a0 7e 3f 74 8d 7e 3f a1 bc 80 3f 7d f7 7f 3f
       0.99464065 0.9943459 1.0057565 0.9998701
0000c0 e6 65 80 3f de 2b 7f 3f 4f 1b 7f 3f fe 27 7f 3f
       1.0031097 0.9967631 0.99651045 0.996704
0000d0 31 58 7f 3f a8 c0 7e 3f 3d d7 7f 3f 96 5d 7f 3f
       0.99743944 0.9951272 0.999378 0.99752176
0000e0 84 90 80 3f 80 83 7f 3f 17 12 81 3f 20 0d 7f 3f
       1.0044103 0.9981003 1.0083646 0.996294
0000f0 47 1a 7d 3f 67 a5 7e 3f 94 48 7e 3f 9a a8 7d 3f
       0.9886822 0.99471134 0.99329495 0.9908539
000100 3f 91 80 3f 08 e1 7e 3f e8 af 80 3f d0 04 7d 3f
       1.0044326 0.9956212 1.0053682 0.9883547
000110 eb 88 7f 3f ed 2e 80 3f d3 d3 7e 3f 9f 65 7d 3f
       0.99818295 1.0014321 0.9954197 0.98983186
000120 68 f6 7d 3f a8 1c 80 3f e0 27 81 3f 31 41 80 3f
       0.9920411 1.0008745 1.0090294 1.0019895
000130 65 51 80 3f 44 4b 80 3f c3 07 7e 3f 2a c7 7e 3f
       1.002484 1.0022969 0.99230593 0.9952265
000140 3d 49 80 3f dd 48 81 3f 5b 6f 7f 3f f7 f2 7d 3f
       1.002235 1.0100361 0.9977929 0.9919886
000150 c3 a7 7d 3f 71 fc 7f 3f e0 42 80 3f d0 32 7d 3f
       0.9908411 0.9999457 1.0020409 0.9890566
000160 5e 60 80 3f e5 cc 81 3f b0 22 80 3f 1d 6e 80 3f
       1.0029409 1.0140654 1.0010586 1.0033604
000170 7e 95 7f 3f 8a c2 81 3f 79 f4 7d 3f bb cb 80 3f
       0.9983748 1.0137494 0.9920116 1.0062174
000180 dc 25 7f 3f db 3c 80 3f ba 3b 7e 3f b7 d3 7f 3f
       0.99667144 1.0018572 0.99309886 0.99932426
000190 90 33 81 3f 26 49 81 3f a9 ff 81 3f dc 9b 80 3f
       1.0093861 1.0100448 1.0156146 1.0047565
0001a0 f9 04 81 3f 57 e4 7f 3f 49 c7 7e 3f 54 8b 7f 3f
       1.0079643 0.99957794 0.99522835 0.9982197
0001b0 3b 3a 81 3f c6 eb 7d 3f 57 e4 80 3f ce 64 7f 3f
       1.0095896 0.99187887 1.0069684 0.9976319
0001c0 c3 d1 80 3f db fb 7b 3f 9c 7b 80 3f 90 04 80 3f
       1.0064014 0.98431176 1.0037723 1.0001392
0001d0 8f eb 7c 3f 53 79 80 3f 81 33 7f 3f 0b fa 80 3f
       0.98796934 1.0037025 0.99687964 1.0076307
0001e0 30 06 7e 3f f5 84 7d 3f f7 3a 7f 3f 98 25 7e 3f
       0.9922819 0.99031 0.9969935 0.99276114
0001f0 4f 86 7f 3f 1a 48 7e 3f 67 f6 80 3f 34 47 7e 3f
       0.99814314 0.9932877 1.0075196 0.993274

bns.0.bias f4 [128]
000000 23 65 a0 3b e3 a3 84 3c 7f ef 85 3b d0 7b bd 3b
       0.004894869 0.016191429 0.004087388 0.005782582
000010 ff 07 2f bb d1 ff c6 bb 57 64 8b bb 05 a2 88 3c
       -0.0026707647 -0.006072976 -0.004253905 0.01667882
000020 de ec 56 3c 5a 4b 6c 3c 80 c0 0f 3c 11 69 0e bc
       0.013117997 0.014422262 0.008773923 -0.008692042
000030 be 52 21 bc 26 86 d8 3b bf 38 63 bc 12 02 c9 3a
       -0.009846387 0.0066077886 -0.01386851 0.00153357
000040 f1 c7 1e bb 0c 12 69 39 42 49 79 ba 03 7d 70 3c
       -0.002422806 0.00022227335 -0.00095095125 0.014678243
000050 bf a5 20 3c 23 88 3f bc 62 ee 4f 3c 50 26 b8 3b
       0.009805142 -0.011690172 0.012691112 0.0056198016
000060 90 47 43 3c 37 51 9f bb c2 5a 82 bc 40 1c 23 bb
       0.011918917 -0.0048619765 -0.015912417 -0.0024888664
000070 97 fc 98 bb 43 6f 6d bb 48 2c 19 b9 48 8b d4 3b
       -0.004668783 -0.0036229647 -0.00014607713 0.00648633
000080 ac 6c 32 bc 0f 53 e6 3b 4e 7a f5 bb e1 b1 f9 3a
       -0.010890167 0.0070289443 -0.0074913865 0.0019050204
000090 d8 79 05 3c 5b 29 68 3c 2d 3c 2b 3b c0 9b 87 bb
       0.008146726 0.014170016 0.0026128397 -0.00413844
0000a0 82 63 97 3b 6b d9 92 3b 8b 51 0e bb 7a 0e 6f ba
       0.0046200166 0.0044814846 -0.0021716084 -0.00091192836
0000b0 53 d2 1e bc 02 98 9c bb 38 26 03 3c a2 b9 51 3c
       -0.0096937 -0.004778863 0.0080047175 0.012800606
0000c0 cd fa 17 3a 16 f9 46 3c 07 82 c9 bb 13 e8 8b 3b
       0.0005797565 0.012144348 -0.0061495337 0.0042696088
0000d0 7b 6f 3d bc 36 e8 81 3b b2 ff a1 3b fd ab 49 b9
       -0.011562224 0.0039644493 0.0049438113 -0.00019232924
0000e0 4c 8c f5 3b 84 de e6 bb 02 3e f1 3b c1 1d 15 bb
       0.0074935313 -0.007045569 0.0073621282 -0.002275333
0000f0 9c da e6 bb 4e 1f 0f bc 6c 9e 0f bb ba 6d 22 bc
       -0.0070451032 -0.008735491 -0.0021914495 -0.009913856
000100 75 0c ee 3b c7 3e d8 bb a4 92 77 3b 07 c8 07 bc
       0.0072646686 -0.0065992805 0.0037776614 -0.008287436
000110 71 00 30 bb 82 c7 01 bc f4 5d 8d b9 af 99 fa ba
       -0.0026855732 -0.0079211015 -0.00026963616 -0.0019119288
000120 40 8f c1 bb 25 67 90 3a 4c fe de 3b c2 97 91 ba
       -0.0059069693 0.0011017068 0.006805217 -0.001110785
000130 66 32 3a ba 95 b5 99 bb a9 9e 5d ba 7f cc 89 bb
       -0.0007102847 -0.0046908357 -0.0008454123 -0.004205286
000140 b4 21 94 3a 23 9a 94 bb e7 9b 94 bb 43 51 9d bb
       0.0011301548 -0.004534976 -0.0045351866 -0.004800947
000150 da 05 48 bc dc f7 90 bb f3 b4 1e 3b 21 1f de bb
       -0.012208426 -0.0044240784 0.002421674 -0.006778613
000160 73 2e e6 ba 69 8b 07 3c 48 0d 0f 3b 38 b0 4a bb
       -0.001756145 0.008272984 0.0021827985 -0.0030927788
000170 e0 38 42 bc b7 cd 1f bc cc d0 50 bc ac 35 36 3a
       -0.01185438 -0.009753636 -0.012745094 0.0006950747
000180 f4 c8 f3 3b 04 fc 01 b9 b3 72 82 bc ea ec 06 3c
       0.007439727 -0.00012396282 -0.015923833 0.008235196
000190 53 0f 67 3b ce ae 10 bb 7d cf 33 3c 41 13 7d 3c
       0.0035256937 -0.0022076848 0.010974762 0.015446485
0001a0 63 8e 52 3c 37 35 b3 3a fa e1 48 bb f0 73 da bb
       0.01285133 0.0013672475 -0.003065227 -0.006666653
0001b0 55 eb 77 3b 19 e7 13 bb 07 79 1d bc 70 82 66 3b
       0.0037829478 -0.0022568165 -0.009611375 0.0035172962
0001c0 c2 cf 17 3c 89 74 97 bc f2 0c 44 ba 9d 8d 8b bb
       0.009265842 -0.018488185 -0.00074787356 -0.004258825
0001d0 50 2c 3d bc 3f ee fc bb b7 1e f4 ba b7 4c 20 3c
       -0.011546209 -0.007718831 -0.0018624876 0.009783915
0001e0 a9 00 15 bc 23 8d 54 bc 5f fa b3 3b 80 dc 16 bc
       -0.009094396 -0.012973103 0.005492493 -0.009207845
0001f0 37 90 8b 3b 87 de cb bb 76 f1 74 3b 2b 87 69 bb
       0.004259135 -0.0062215957 0.0037375367 -0.0035633545

bns.0.running_mean f4 [128]
000000 75 43 52 be 47 05 d3 bd 96 9d 70 be 89 0c 2c 3e
       -0.20533545 -0.10303741 -0.23497614 0.16801657
000010 7a bf a6 bd c0 54 4e be b7 c8 2e bd 03 1f 47 be
       -0.0814199 -0.20149517 -0.042671885 -0.19445424
000020 52 2f 4b bd 3a d8 05 3e cf 17 28 be 05 32 27 3d
       -0.049605675 0.13070765 -0.16415332 0.040819187
000030 ec f7 31 bd a7 02 34 be a3 08 ff 3d 1e 5d 28 3e
       -0.043449327 -0.17579137 0.12452819 0.16441771
000040 72 89 05 3d 26 ab 98 3d c8 e4 ff 3d 40 cc eb 3d
       0.03260178 0.07454519 0.124948084 0.11513567
000050 d3 22 27 3e 93 bb 58 be db 00 54 be f5 f5 37 3d
       0.16321878 -0.21165304 -0.20703451 0.044912297
000060 b0 c9 01 3e 38 cf 95 bd 64 c9 0e 3d ae 89 1b 3c
       0.12674594 -0.073149145 0.03486003 0.009493275
000070 d5 13 25 3d 96 ea 39 3e a6 27 8a 3c 5b f3 13 bd
       0.040302116 0.18155894 0.016864609 -0.036120754
000080 2e c8 58 3d 79 db f1 3d 87 3a 13 3e 54 83 2c 3d
       0.05292528 0.11809439 0.14377795 0.04211743
000090 cc 48 61 3d ee 7d a2 bc a7 c1 f4 bd ed 79 c3 bd
       0.055001065 -0.019835439 -0.11950999 -0.0954474
0000a0 c0 81 3c 3e e5 0a f0 3c c3 a3 88 bd c4 d2 e7 3c
       0.1840887 0.02930207 -0.0667186 0.028298743
0000b0 01 d3 bb 3d d2 2a 98 3d 0e b2 e7 bd 07 7a eb 3c
       0.09171105 0.07430042 -0.11313258 0.02874471
0000c0 e7 1c 89 3e e9 4e c3 bd 44 b5 bd 3b 72 34 9c 3c
       0.26779863 -0.09536535 0.005789431 0.019067977
0000d0 b8 8b 2b be dd 63 72 bd e8 d1 a0 bb 01 ce 3f 3e
       -0.16752517 -0.05917727 -0.0049078353 0.18730928
0000e0 5a c7 98 bd 89 ac 44 3e 11 3b 3c be 13 2f 94 3e
       -0.07459898 0.19206442 -0.18381907 0.28942165
0000f0 f6 d1 c8 3c 17 44 99 3d 48 0a 15 3e 16 02 30 bd
       0.02451418 0.0748369 0.14554703 -0.04297074
000100 01 c3 28 3e 5c 49 d3 bd 16 d7 ae 3c 62 65 42 bd
       0.16480638 -0.103167266 0.021342795 -0.047459967
000110 db 4c 5d 3e ce 67 37 3c 5f bf 59 3e cc 06 45 3e
       0.2161135 0.011194183 0.21264409 0.19240874
000120 be 4d 5e 3e 67 57 da 3d 49 32 fd bc 9e 82 31 be
       0.21709344 0.10661202 -0.030907767 -0.17334983
000130 4e 15 22 3e b9 5d c6 bd 85 99 31 3c 54 bd 97 3c
       0.1582844 -0.09685845 0.010839825 0.018522896
000140 0c d5 25 be 98 c2 19 3d ba 9c a2 bd 7a 29 5a 3e
       -0.16194552 0.037539095 -0.079400495 0.21304885
000150 95 f2 35 be 04 2a 95 bd 6a 0b 1a 3e 09 1a 98 bd
       -0.17768319 -0.072834045 0.15043417 -0.07426841
000160 3f 17 0e 3d c7 ad 8f 3d fe 28 da 3d 24 51 21 be
       0.034690138 0.07015567 0.1065235 -0.15753609
000170 0f 70 69 bd f1 8b e4 bb d7 b7 18 3d bf 8c cb 3d
       -0.056991633 -0.00697469 0.0372847 0.099389546
000180 12 20 01 3c fe 67 1a be 86 7d 38 3c c5 a2 29 bd
       0.007881181 -0.15078732 0.011260396 -0.041414995
000190 34 88 e4 3c ff 53 8c bd 5c 7b 44 3d 18 ae b6 3d
       0.027896978 -0.068519585 0.047969207 0.089199245
0001a0 32 35 7b 3d 66 ea 81 bc 2b 7c 11 3e e1 8a a4 3c
       0.061330028 -0.01585884 0.14207523 0.020085754
0001b0 3b fd 1e 3e ee 73 83 be c9 23 83 bd 32 a0 96 bd
       0.15526287 -0.25674385 -0.0640331 -0.073547736
0001c0 c2 45 92 bc 13 a5 8a bd 58 cd ae 3d 05 05 23 3c
       -0.017855529 -0.06769767 0.0853526 0.009949927
0001d0 fc 8f 0a be be 6b 0f be 3a 04 96 bd 9d 90 46 3d
       -0.13531488 -0.14005944 -0.07325025 0.048477758
0001e0 27 4f 75 be da a5 8c 3d c8 1b 9c 3d fe e5 0c 3d
       -0.23955975 0.06867571 0.07622486 0.034399025
0001f0 7d 35 84 be b7 4f 99 3b ca 7b 32 bd 47 a0 5a be
       -0.25822058 0.004678692 -0.043575086 -0.21350203

bns.0.running_var f4 [128]
000000 e0 de 20 3b 14 2b a2 3b 12 b2 ee 3b 9b c6 a2 3b
       0.0024546906 0.004948983 0.007284411 0.0049675233
000010 97 21 6e 3b 8a 87 c9 3b 9d 50 48 3c bb 97 1f 3b
       0.003633594 0.0061501907 0.012226251 0.0024351913
000020 ea 56 74 3b ed af b4 3b 94 17 44 3b ea 87 03 3c
       0.003728325 0.005514136 0.002992128 0.00802801
000030 ae 85 07 3c 72 7b 42 3b 8d 41 39 3b 24 a5 f5 3b
       0.008271618 0.002967563 0.002826783 0.007496493
000040 a4 f7 6d 3c d3 f0 7d 3c 3d d1 84 3c c2 32 e2 3b
       0.014524374 0.0154993115 0.016213054 0.0069030235
000050 ed ac f9 3b 68 96 26 3c ec 13 17 3b 25 83 1d 3c
       0.0076194913 0.010167696 0.0023052646 0.009613787
000060 a1 77 6d 3b 6d 6d cb 3a cd c1 84 3b 18 1a cd 3b
       0.0036234634 0.0015520282 0.004051423 0.006259214
000070 fc 5b d4 3b 7f df d1 3b ca 0d 01 3c 7f 11 b3 3a
       0.006480692 0.0064048166 0.007876823 0.001366183
000080 b6 57 da 3a 89 fc 20 3c ec 49 54 3b 14 ac ec 3b
       0.001665822 0.009825834 0.0032392694 0.0072226617
000090 b4 a7 2b 3c 3a 21 86 3b d6 a2 7d 3c ff d7 80 3b
       0.010476995 0.0040933164 0.015480718 0.0039319987
0000a0 48 56 98 3c f8 e2 90 3b 1e c9 f7 3b f4 06 e5 3b
       0.01859583 0.004421588 0.007561817 0.0069893543
0000b0 3b c6 ce 3b fa c5 02 3c 75 26 1f 3b 7a eb a8 3b
       0.006310252 0.007981772 0.0024284397 0.005155024
0000c0 f7 31 a5 3b 21 73 c4 3b f1 6b 0d 3c 35 63 2c 3c
       0.0050413567 0.0059951697 0.008631692 0.0105217
0000d0 5a d7 a7 3b f9 4d 1a 3c 10 cc c4 3a f0 12 12 3c
       0.0051221075 0.009418004 0.0015014429 0.008915648
0000e0 d5 78 c0 3b 81 90 6e 3c e9 c1 86 3b 5a 0c d3 3c
       0.0058737793 0.01456082 0.0041124714 0.025762726
0000f0 13 12 2f 3c f5 d9 23 3c 1a 97 b0 3b 5e 38 2b 3c
       0.010685462 0.0100006955 0.0053891065 0.010450451
000100 98 26 a1 3b 0b af 86 3b 0f 05 9e 3b 8d 63 da 3b
       0.004917931 0.004110222 0.0048223804 0.0066646994
000110 34 f8 98 3c 08 07 bf 3b eb c4 ff 3b 66 e7 5a 3c
       0.01867304 0.0058296956 0.007805457 0.013360834
000120 a8 21 61 3b 7f 08 42 3b 01 4d 43 3b c3 94 61 3c
       0.0034352336 0.0029607115 0.0029800537 0.013768378
000130 be 3b 66 3c 82 50 d4 3b f2 d7 c4 3b d2 8b 1e 3c
       0.01405233 0.006479324 0.006007188 0.00967689
000140 6a b1 02 3c de 83 7d 3b ae 07 f2 3b 3b c0 6c 3b
       0.007976869 0.0038683335 0.0073861694 0.003612532
000150 86 26 c7 3b 4c 62 52 3c b7 e8 aa 3b 63 fe fc 3b
       0.0060775904 0.012840819 0.00521573 0.007720755
000160 09 37 5c 3b 13 4a f9 3b c1 73 1d 3c 0a be ea 3b
       0.003360214 0.0076077073 0.009610117 0.0071637677
000170 a2 29 b3 3b 8b 52 73 3b c8 eb 1c 3c c4 78 52 3c
       0.0054676095 0.0037128057 0.009577699 0.012846176
000180 0b 02 71 3b 49 ed 57 3b d5 35 5c 3c 53 02 41 3c
       0.00367749 0.003294783 0.013440569 0.011780339
000190 5e 99 91 3a 55 28 08 3c c5 62 9c 3b 68 d3 53 3c
       0.0011108329 0.008310397 0.0047725164 0.012928821
0001a0 bb d5 9a 3b a3 a8 a7 3b ed 71 98 3b c7 c0 34 3b
       0.0047251857 0.0051165386 0.004652253 0.0027580725
0001b0 34 ab b9 3b ef cd f9 3b b1 4b a3 3b 39 0e ed 3b
       0.005666161 0.007623426 0.0049833884 0.0072343615
0001c0 c6 d5 f6 3b b6 54 d7 3a 39 49 8a 3b 92 61 ae 3a
       0.007532808 0.0016428444 0.0042201546 0.0013304225
0001d0 c3 41 17 3c 37 91 0a 3c 0d 5f 98 3b f6 28 54 3c
       0.009231987 0.0084574735 0.004650003 0.012949219
0001e0 8d 1a 06 3c 73 e4 bf 3b 9b 90 8e 3b da a8 f6 3b
       0.008185041 0.0058560907 0.0043507344 0.007527453
0001f0 8d 8b b9 3b 1b fb ec 3b 39 38 bc 3b a7 f9 73 3b
       0.0056623877 0.0072320825 0.005744007 0.0037227662

bns.1.weight f4 [128]
000000 da 4c 81 3f e8 a2 7d 3f 0b 18 80 3f 58 53 7e 3f
       1.0101578 0.990767 1.0007337 0.9934592
000010 0f 87 81 3f 20 59 7f 3f 79 64 80 3f c9 49 7e 3f
       1.0119342 0.9974537 1.0030662 0.9933134
000020 fe 7e 80 3f f6 d1 7b 3f 8b 2a 80 3f 0f 33 80 3f
       1.0038755 0.9836725 1.0012983 1.0015582
000030 cd 2d 80 3f 1d e8 7e 3f 05 55 7f 3f 68 62 82 3f
       1.0013977 0.99572927 0.99739105 1.0186281
000040 71 04 80 3f 69 89 7e 3f f6 9c 80 3f d7 48 80 3f
       1.0001355 0.9942842 1.0047901 1.0022229
000050 7f 13 82 3f 4b 9a 7c 3f f5 d9 81 3f 25 c2 7d 3f
       1.01622 0.9867293 1.014464 0.99124366
000060 14 31 7e 3f e3 cc 80 3f ca da 80 3f 70 75 7d 3f
       0.9929364 1.0062526 1.0066769 0.9900732
000070 ea 53 80 3f 07 2d 7d 3f 67 f3 7d 3f 4e be 7e 3f
       1.0025609 0.9889683 0.9919953 0.9950913
000080 58 27 7e 3f 12 3e 7f 3f b1 ab 7d 3f 1f 84 7c 3f
       0.99278784 0.99704087 0.99090105 0.986391
000090 e2 e2 7e 3f 9d c8 80 3f 76 32 7d 3f 76 e6 7e 3f
       0.99564946 1.0061222 0.9890512 0.99570405
0000a0 3e 16 7f 3f 55 63 81 3f c3 ad 80 3f 99 1e 80 3f
       0.99643314 1.0108439 1.0053028 1.0009338
0000b0 55 42 80 3f 59 b2 7d 3f 0c 2f 81 3f 70 70 7f 3f
       1.0020243 0.9910026 1.0092483 0.9978094
0000c0 50 ed 7d 3f 6d 1c 80 3f 15 86 7e 3f eb 27 81 3f
       0.99190235 1.0008675 0.9942334 1.0090307
0000d0 a8 68 7e 3f 61 d5 7e 3f b6 9d 80 3f 3e cd 7d 3f
       0.9937844 0.9954434 1.004813 0.991413
0000e0 ea 90 80 3f 28 8a 7f 3f 76 e2 7d 3f 26 56 81 3f
       1.0044224 0.99820185 0.99173677 1.0104415
0000f0 e2 19 7f 3f 7d 4b 7e 3f e5 1f 7f 3f 51 08 80 3f
       0.9964887 0.99333936 0.9965804 1.0002538
000100 05 91 80 3f 8b 6b 7e 3f a9 8c 7e 3f 08 be 7f 3f
       1.0044256 0.9938285 0.9943338 0.9989934
000110 81 53 80 3f 36 b6 7e 3f 15 51 80 3f ee 4c 80 3f
       1.0025483 0.9949678 1.0024744 1.0023477
000120 ae 52 80 3f 87 15 80 3f 1e 42 7f 3f 4f 89 80 3f
       1.0025232 1.000657 0.9971026 1.0041903
000130 99 49 80 3f 2c af 80 3f c2 a0 7f 3f 90 ba 81 3f
       1.002246 1.0053458 0.9985467 1.0135059
000140 95 70 80 3f d7 88 7e 3f 9d ff 80 3f b3 08 80 3f
       1.0034357 0.9942755 1.0078007 1.0002655
000150 04 e0 80 3f d4 c4 7f 3f ea 8a 80 3f e0 95 80 3f
       1.0068364 0.9990971 1.0042393 1.0045738
000160 bd 18 81 3f 61 66 7e 3f 06 07 80 3f d4 7b 80 3f
       1.0085675 0.9937497 1.0002143 1.0037789
000170 54 5d 7f 3f 06 8a 80 3f 71 97 7e 3f 60 e4 7e 3f
       0.9975178 1.0042121 0.9944983 0.9956722
000180 13 d9 80 3f 4f 66 80 3f be 41 7f 3f bb ac 7d 3f
       1.0066246 1.0031222 0.9970969 0.9909169
000190 0b 1a 80 3f a9 11 80 3f 5d de 80 3f d2 2b 80 3f
       1.0007948 1.000539 1.006786 1.0013373
0001a0 8d 50 7f 3f f7 e4 80 3f 9d b6 7f 3f 92 ae 82 3f
       0.99732286 1.0069875 0.9988802 1.0209525
0001b0 02 c9 80 3f d7 13 82 3f 2c 89 7f 3f e5 b3 7c 3f
       1.0061343 1.0162305 0.9981868 0.98712
0001c0 f5 6f 80 3f 1c 72 80 3f fc 79 7f 3f 5f 6c 80 3f
       1.0034167 1.0034823 0.9979551 1.0033072
0001d0 27 fe 80 3f 90 a3 7d 3f 4e 05 7f 3f f0 21 7f 3f
       1.0077561 0.990777 0.9961747 0.9966116
0001e0 57 6d 80 3f ce fa 7f 3f e9 e8 7f 3f 91 50 80 3f
       1.0033368 0.9999207 0.9996477 1.0024587
0001f0 f7 57 7e 3f 26 97 7e 3f 69 4d 80 3f 18 0b 7f 3f
       0.99352974 0.99449384 1.0023624 0.996263
