MY_GNN/trained_models/density/model_Density_fold0.pt (torch, 569525 bytes, 23 tensors)

convs.0.bias f4 [128]
0.00047838356 -0.00010868506 -0.00021238683 -0.00025864554 6.3850275e-05 5.3394207e-05 9.4682284e-05 0.00011168601
-0.00038881958 -0.0001862309 -4.0145776e-05 0.00024592463 0.0003585422 -4.228648e-05 -0.0002776006 0.0005115614
-0.00029553717 0.0001708562 2.0383231e-05 -0.000103492835 0.00019074748 -9.646524e-05 -3.4027016e-05 0.00015926782
0.0006742119 0.0003675867 2.5172005e-05 -2.2343018e-05 0.00055557827 0.00012559518 9.0662834e-05 0.0005637776
-3.7169073e-05 0.000100084966 9.2791015e-06 0.00042677295 -0.0002973122 0.00045602667 -2.7704207e-05 0.0004815461
0.00021033939 -8.453745e-05 -2.626433e-05 0.000250067 0.00024758885 4.3448268e-05 -5.2349846e-05 0.00023101256
-0.000441243 0.00014560652 0.00021401395 -0.00010188892 0.000378821 0.0005072 0.00020655873 -5.288922e-05
0.00013799305 0.000114988776 -1.2357111e-05 0.00017673225 6.829703e-05 -0.00025949551 0.00011269987 3.6235037e-05
-2.9654908e-05 -0.0001959974 -9.2590744e-05 -0.00053563603 -7.814163e-05 -0.0005928369 0.00013606528 0.00013574639
1.646698e-05 -0.0001759708 5.2885596e-05 2.0013687e-05 -9.788922e-06 -0.00034782104 0.00015838371 0.0005658335
0.00021080188 6.187881e-05 0.00041283754 0.00022664087 -1.7771143e-05 -0.000103263534 5.2902367e-05 8.791341e-05
-0.000206102 -4.573721e-05 -7.469457e-05 -0.00017898603 0.00012162103 -0.00011257062 -3.184846e-05 -0.00066014467
-0.000102718855 -0.00014351198 0.00026248585 5.6622866e-05 5.2575015e-06 -4.2438118e-05 -0.00022038705 -0.00012446012
-8.9599846e-05 -2.1841499e-05 4.9195936e-05 -2.0548025e-05 3.5748766e-05 0.0002059127 -0.00018663808 0.00025066172
-7.4331685e-05 2.3987832e-05 -4.5900135e-05 -0.00037284702 0.00028536972 -0.00014733437 4.5736328e-05 0.0002982627
-0.00049112545 -0.0001711929 -0.0003333114 1.8418259e-05 -0.0002305637 -6.06427e-05 -7.553772e-05 -6.987629e-05
00000000: 8ecf fa39 d9ed e3b8 28b4 5eb9 d19a 87b9
00000010: 5be7 8538 98f3 5f38 2a90 c638 f838 ea38
00000020: 7bda cbb9 fa46 43b9 3362 28b8 72ef 8039
00000030: b8fa bb39 c35c 31b8 ec8a 91b9 4e1a 063a
00000040: 54f2 9ab9 dd27 3339 a8fc aa37 4b0a d9b8
00000050: 6303 4839 624d cab8 3bb8 0eb8 2101 2739
00000060: 98bd 303a a7b8 c039 7828 d337 446d bbb7
00000070: 3aa4 113a 33b2 0339 3d22 be38 79ca 133a
00000080: fde5 1bb8 b5e4 d138 70ad 1b37 7fc0 df39
00000090: 91e0 9bb9 dd16 ef39 5566 e8b7 0678 fc39
000000a0: 8d8e 5c39 b349 b1b8 3852 dcb7 6d1b 8339
000000b0: d0ce 8139 393c 3638 3892 5bb8 f63b 7239
000000c0: a256 e7b9 f4ad 1839 ef68 6039 33ad d5b8
000000d0: 7e9c c639 9ef5 043a b097 5839 5ed5 5db8
000000e0: 3ab2 1039 2126 f138 6351 4fb7 3451 3939
000000f0: b03a 8f38 e60c 88b9 4859 ec38 13fb 1738
00000100: 6ec3 f8b7 a784 4db9 472d c2b8 ed69 0cba
00000110: f8df a3b8 9c68 1bba bfac 0e39 2557 0e39
00000120: 9222 8a37 cd84 38b9 7ad1 5d38 11e3 a737
00000130: 1a3b 24b7 c05b b6b9 ce13 2639 7254 143a
00000140: b30a 5d39 efc4 8138 1e72 d839 72a6 6d39
00000150: 3d13 95b7 308f d8b8 7ce3 5d38 275e b838
00000160: 161d 58b9 f5d5 3fb8 58a5 9cb8 32ae 3bb9
00000170: cb0e ff38 e413 ecb8 0695 05b8 8f0d 2dba
00000180: c46a d7b8 b47b 16b9 419e 8939 577e 6d38
00000190: 9869 b036 95ff 31b8 b317 67b9 8281 02b9
000001a0: 8de7 bbb8 4338 b7b7 bc57 4e38 8c5e acb7
000001b0: f2f0 1538 45ea 5739 47b4 43b9 3f6b 8339
000001c0: 85e2 9bb8 7a39 c937 e584 40b8 ae7a c3b9
000001d0: ad9d 9539 c57d 1ab9 02d5 3f38 2460 9c39
000001e0: dfbe 00ba 3f82 33b9 4cc0 aeb9 e980 9a37
000001f0: 79c3 71b9 9a5a 7eb8 016a 9eb8 8c8a 92b8

convs.0.lin.weight f4 [128, 19]
-0.16991487 0.13333032 -0.118262604 0.16334993 0.024491722 0.05378837 0.19192378 -0.10546136
-0.025468284 0.035793632 0.06474155 -0.19806987 0.06487673 -0.11914264 0.030689374 0.13419013
-0.025844876 0.0022523017 -0.015094785 0.1751404 0.115075864 0.04750348 -0.12924798 -0.115335226
0.16345726 0.13626556 0.10690076 -0.15957321 0.1573399 -0.020672165 0.14600357 0.17037146
0.022144774 -0.07886346 0.19205226 -0.10876263 0.13133334 -0.19372505 -0.06415658 -0.17910434
-0.09155796 0.08546233 -0.13782734 -0.17693803 0.15057607 0.103808396 -0.008511504 -0.1424236
-0.054820824 -0.065333515 0.12870461 -0.066081464 -0.06429232 -0.13861728 -0.09570296 0.107317984
0.13016534 0.023988584 -0.073064186 0.20013586 0.03690335 -0.07814812 -0.071152866 -0.02449306
0.09678876 0.07697525 0.14646415 -0.00814605 0.16702947 -0.083658926 -0.09304579 -0.08445068
-0.18353721 -0.13034931 -0.18087995 -0.0119395275 -0.0021676156 -0.054359414 -0.1346917 0.1859542
-0.06466625 0.09316338 0.13971727 -0.13298364 -0.03216023 0.11676703 0.19990015 -0.025407696
0.14287019 -0.15856692 -0.12936047 0.1713174 -0.02452177 0.19599494 0.014691091 -0.08995656
0.18656084 0.1849174 0.0205211 -0.11966683 0.0006925288 -0.09463667 0.15279305 0.006344229
0.04253176 0.11187125 0.06298137 -0.121332675 0.16783164 0.12019289 -0.12577175 0.15903324
0.053017132 -0.03976948 -0.1432241 -0.03695469 -0.19986448 0.12012363 0.14378716 -0.059596356
0.18411322 -0.06933787 0.029997427 -0.14079386 -0.0027431308 0.07848365 0.089653425 -0.006774588
-0.10243629 0.1368403 0.1400229 0.031267647 -0.09290897 0.040397 0.0019375518 0.181003
0.028143236 0.018105803 0.015014959 0.11019234 0.0041951765 0.18309002 0.10525586 -0.14590782
-0.0018753322 -0.1766842 -0.15512076 0.0463889 0.038662687 -0.016611867 0.19449764 -0.10853317
-0.08685284 -0.030949945 -0.005138964 -0.0110696815 0.18563412 -0.08927937 -0.10480909 0.013424478
0.16103275 0.04795307 0.10884279 0.041753482 0.16968428 0.12134429 0.14312306 -0.026748221
-0.16814373 -0.091994315 0.068825394 0.1504051 -0.080564 0.16145247 0.023648728 0.004088568
0.01102731 -0.03694337 0.17086042 0.003628418 0.123745486 -0.17575666 -0.10532479 0.030279951
0.1613213 0.08618728 0.04695427 -0.2004818 0.0046743085 -0.13336067 -0.16108856 0.029886877
-0.13679722 0.17850016 -0.116471 0.073610425 0.12136149 -0.16430004 0.097814396 -0.0270511
0.10504256 0.19761184 -0.08450508 -0.08750021 0.15837885 0.018805 -0.020202855 0.16075036
-0.09760984 -0.0033772509 0.14148857 0.07477715 -0.12675194 0.050756305 -0.15559389 -0.11347415
0.12478047 -0.053063367 -0.102905676 0.012827523 0.05221372 -0.12038426 -0.13624197 -0.20278034
0.058411304 -0.13145229 0.014983318 -0.045185782 -0.12692986 -0.06266962 -0.1621733 -0.11054849
-0.0093758525 -0.17517236 -0.17975682 0.15062553 0.021614358 -0.08934876 -0.0035528513 0.15193157
-0.16995278 -0.10711326 -0.1419791 -0.0151678035 -0.011547692 -0.1557083 0.14022613 -0.15297003
0.19231868 -0.12644804 -0.03420062 0.033682276 -0.09092068 0.17821741 -0.1461032 -0.011118174
00000000: 2afe 2dbe be87 083e aa33 f2bd 3445 273e
00000010: dda2 c83c 3251 5c3d ab87 443e 20fc d7bd
00000020: dda2 d0bc 589c 123d 3897 843d d4d2 4abe
00000030: 17de 843d 0e01 f4bd 4868 fb3c 2369 093e
00000040: a2b8 d3bc 5a9b 133b 1e50 77bc 0158 333e
00000050: e5ac eb3d 0293 423d 9559 04be e034 ecbd
00000060: 5761 273e 3389 0b3e c9ee da3d 2967 23be
00000070: b61d 213e ac58 a9bc f681 153e db75 2e3e
00000080: f568 b53c 2a83 a1bd 59a9 443e f1be debd
00000090: 3f7c 063e dc5f 46be 8664 83bd 2167 37be
000000a0: bd82 bbbd e006 af3d 9c22 0dbe 3e2f 35be
000000b0: 9d30 1a3e 7f99 d43d d673 0bbc 7ed7 11be
000000c0: cd8b 60bd 94cd 85bd 24cb 033e b855 87bd
000000d0: b1ab 83bd b0f1 0dbe eaff c3bd 88c9 db3d
000000e0: 104a 053e b583 c43c ada2 95bd 6af0 4c3e
000000f0: f827 173d 1f0c a0bd 98b8 91bd aba5 c8bc
00000100: 2f39 c63d 33a5 9d3d b3fa 153e 0377 05bc
00000110: c609 2b3e 5f55 abbd cb8e bebd 7af4 acbd
00000120: 2ef1 3bbe 4a7a 05be 9838 39be 029e 43bc
00000130: 8e0e 0ebb faa7 5ebd 9fec 09be c76a 3e3e
00000140: bd6f 84bd 71cc be3d 0b12 0f3e dd2c 08be
00000150: 72ba 03bd 8d23 ef3d a0b2 4c3e cd23 d0bc
00000160: 904c 123e 5e5f 22be 1277 04be d46d 2f3e
00000170: e1e1 c8bc e6b2 483e e7b2 703c 253b b8bd
00000180: ce09 3f3e fd5a 3d3e de1b a83c e213 f5bd
00000190: d28a 353a dfd0 c1bd c875 1c3e 40e3 cf3b
000001a0: c835 2e3d c11c e53d 60fc 803d 447d f8bd
000001b0: 0fdc 2b3e b127 f63d 4fca 00be 9cd9 223e
000001c0: 7e28 593d 52e5 22bd 57a9 12be cd5d 17bd
000001d0: 46a9 4cbe 6103 f63d f13c 133e 4f1b 74bd
000001e0: 2d88 3c3e 0301 8ebd 2abd f53c 442c 10be
000001f0: 19c6 33bb 09bc a03d 379c b73d 5dfd ddbb
00000200: 1eca d1bd dd1f 0c3e 2a62 0f3e 8112 003d
00000210: 0f47 bebd 5377 253d 73f5 fd3a da58 393e
00000220: a58c e63c 9f52 943c 4d01 763c 86ac e13d
00000230: b177 893b f37b 3b3e 6290 d73d dc68 15be
00000240: b5cd f5ba b4ec 34be fad7 1ebe 4a02 3e3d
00000250: c45c 1e3d 9c15 88bc 642a 473e a346 debd
00000260: e7df b1bd bd8a fdbc c164 a8bb 9c5d 35bc
00000270: df16 3e3e 1ad8 b6bd 26a6 d6bd 57f2 5b3c
00000280: c5e5 243e 706a 443d f8e8 de3d b305 2b3d
00000290: b7c1 2d3e 5b83 f83d da8e 123e 161f dbbc
000002a0: df2d 2cbe 8467 bcbd 54f4 8c3d cb03 1a3e
000002b0: bdfe a4bd cc53 253e faba c13c 65f9 853b
000002c0: e4ab 343c ee51 17bd 09f6 2e3e c1ca 6d3b
000002d0: 466e fd3d 8ef9 33be 86b4 d7bd a90d f83c
000002e0: 6931 253e f582 b03d 1f53 403d 1a4b 4dbe
000002f0: f12a 993b b38f 08be 66f4 24be 53d5 f43c
00000300: 9214 0cbe bfc8 363e 5988 eebd 10c1 963d
00000310: 5f8c f83d 453e 28be ea52 c83d 459a ddbc
00000320: 8e20 d73d c25a 4a3e 0011 adbd 4f33 b3bd
00000330: 112e 223e f20c 9a3c 7580 a5bc be9b 243e
00000340: abe7 c7bd de54 5dbb 61e2 103e c324 993d
00000350: 43cb 01be d8e5 4f3d 0154 1fbe 2365 e8bd
00000360: e78c ff3d f958 59bd 36c0 d2bd 882a 523c
00000370: 0ede 553d 068c f6bd 0483 0bbe a6a5 4fbe
00000380: b140 6f3d 6e9b 06be 977c 753c ba14 39bd
00000390: e7f9 01be ee58 80bd c210 26be 3f67 e2bd
000003a0: 2d9d 19bc 6260 33be 2c12 38be 943d 1a3e
000003b0: 9810 b13c 7cfc b6bd f4d6 68bb f393 1b3e
000003c0: 1a08 2ebe 325e dbbd f862 11be 6182 78bc
000003d0: 8832 3dbc ff71 1fbe 7097 0f3e 2da4 1cbe
000003e0: 30ef 443e 987b 01be f315 0cbd 6df6 093d
000003f0: 9f34 babd a07e 363e 149c 15be 0029 36bc

convs.1.bias f4 [128]
5.958916e-06 -6.7164215e-06 -4.738104e-05 -1.9634565e-05 2.4654266e-05 3.3578675e-05 2.8332577e-05 4.6309697e-06
-2.0976697e-05 -7.4388954e-06 -9.96302e-07 -4.211434e-06 3.1445794e-05 -1.9584724e-05 1.1795739e-05 -3.1725137e-06
-1.7702394e-05 3.689993e-06 1.8173936e-05 -6.9093658e-06 -2.6263238e-05 -4.8767646e-07 -7.069209e-06 1.709749e-05
-3.0270947e-05 -2.4325296e-05 2.7715405e-05 8.2865765e-05 4.86569e-05 1.3591383e-05 -9.672212e-06 1.3113061e-05
-3.1262343e-06 1.7360348e-05 -1.1821717e-06 1.8556009e-06 -2.3764187e-06 -1.6404092e-05 -5.053908e-06 6.463517e-06
2.9764144e-07 1.3160444e-05 -2.1630742e-05 4.9455093e-06 -1.6544383e-05 4.5246965e-05 1.1926523e-05 1.6810125e-06
1.9254298e-05 4.6224195e-06 -6.8642116e-06 -2.493205e-05 3.289249e-05 -6.729576e-06 4.29884e-06 -6.481219e-06
2.0671418e-05 -2.5178178e-05 1.0456206e-05 -2.1815667e-06 -3.553939e-05 6.7481246e-06 -1.3070331e-06 -5.975359e-06
1.060551e-05 6.344713e-06 5.599583e-06 -1.999711e-05 -6.6572893e-06 -2.419504e-05 -2.7076421e-06 1.0618933e-05
-1.0469636e-06 -1.1217176e-05 1.8475086e-05 -2.0206258e-05 9.152239e-06 -3.8527425e-05 -3.603588e-06 1.7688712e-05
-9.224824e-06 -2.60064e-06 -2.5192621e-05 -2.0591668e-05 -1.43567e-06 3.0901e-05 8.1527305e-06 3.0581745e-05
-1.4367089e-05 2.034784e-05 -1.542183e-05 -2.0323068e-05 3.629355e-05 9.062723e-06 1.8013763e-05 6.7240658e-06
8.422187e-06 -1.5308235e-05 -7.6098167e-06 1.4633484e-05 4.7712138e-06 9.872167e-06 1.3409684e-05 -2.1477988e-05
-1.5797857e-05 -1.7191442e-05 -1.10032694e-07 -4.0790783e-05 2.267961e-05 -3.94153e-07 1.4519655e-06 -2.9667601e-06
9.095835e-06 -1.4893832e-06 -1.7166132e-05 -5.581713e-06 1.1486092e-05 8.434598e-06 1.0055054e-05 -4.786085e-06
1.4314009e-05 -5.880417e-06 -1.5631258e-05 -1.31300885e-05 -5.8945254e-05 -1.5827507e-05 -2.2549352e-06 -4.7327558e-05
00000000: b3f2 c736 9f5d e1b6 01bb 46b8 e8b4 a4b7
00000010: a2d0 ce37 d4d6 0c38 bfab ed37 ba63 9b36
00000020: 1df7 afb7 a09b f9b6 adb8 85b5 f14f 8db6
00000030: aae4 0338 e049 a4b7 50e6 4537 5fe7 54b6
00000040: 9a7f 94b7 99a1 7736 3b74 9837 00d7 e7b6
00000050: e04f dcb7 dfe8 02b5 0b34 edb6 956c 8f37
00000060: 5dee fdb7 2d0e ccb7 617e e837 38c8 ad38
00000070: f314 4c38 8c06 6437 d645 22b7 2b00 5c37
00000080: 4ccc 51b6 10a1 9137 1cab 9eb5 f60d f935
00000090: 907a 1fb6 859b 89b7 bd94 a9b6 30e1 d836
000000a0: 87cb 9f34 adcb 5c37 aa73 b5b7 9af1 a536
000000b0: cbc8 8ab7 8fc7 3d38 0718 4837 269f e135
000000c0: 4a84 a137 481a 9b36 2153 e6b6 2b25 d1b7
000000d0: 0bf6 0938 9ece e1b6 c13e 9036 3f79 d9b6
000000e0: 8867 ad37 ba35 d3b7 106d 2f37 0867 12b6
000000f0: 2110 15b8 f36d e236 516d afb5 f17f c8b6
00000100: 52ee 3137 abe4 d436 0de4 bb36 77bf a7b7
00000110: ae61 dfb6 74f6 cab7 f0b4 35b6 f827 3237
00000120: 6585 8cb5 6731 3cb7 f2fa 9a37 9c80 a9b7
00000130: 918c 1937 8298 21b8 2cd5 71b6 3862 9437
00000140: 51c4 1ab7 a886 2eb6 be54 d3b7 45bc acb7
00000150: 3fb1 c0b5 b29b 0138 b6c7 0837 e644 0038
00000160: 2d0a 71b7 a7b0 aa37 215e 81b7 757b aab7
00000170: e739 1838 190c 1837 431c 9737 499f e136
00000180: 054d 0d37 2f6a 80b7 d457 ffb6 5682 7537
00000190: 6a18 a036 a2a0 2537 27fa 6037 a12b b4b7
000001a0: a485 84b7 5736 90b7 1d4b ecb3 c516 2bb8
000001b0: 1740 be37 fa9b d3b4 28e1 c235 8d18 47b6
000001c0: 509a 1837 d1e6 c7b5 fdff 8fb7 8d4a bbb6
000001d0: 64b4 4037 5382 0d37 21b2 2837 2898 a0b6
000001e0: 3326 7037 6650 c5b6 df1f 83b7 4d49 5cb7
000001f0: fc3b 77b8 50c5 84b7 7e53 17b6 9481 46b8

convs.1.lin.weight f4 [128, 128]
-0.03984888 0.038905263 -0.04410053 0.042560056 0.029443983 0.10430273 -0.006382442 -0.08986285
-0.043540757 -0.11863963 -0.059444226 -0.080609344 -0.127993 -0.13500586 -0.1320582 0.059801683
-0.07385793 0.133595 -0.0715227 0.06400915 -0.10224794 0.15313883 0.045326274 0.01642995
0.041190222 0.040448476 -0.0678164 0.030986177 -0.095521964 0.06501955 0.15201548 0.14084075
-0.0230602 -0.02147177 0.14216366 -0.10736722 0.052122526 0.02899644 0.13146082 -0.05960766
0.11698844 -0.020660745 0.14468512 -0.15518427 -0.09313841 -0.03737313 -0.15274225 -0.019739617
-0.12895614 0.09345514 0.13132323 -0.015158526 0.08942443 0.07261263 0.06934657 0.01530437
-0.094342634 -0.13575128 0.06797658 -0.11113401 0.1138474 0.026169037 -0.07121001 -0.059712462
0.04482423 -0.012031857 0.13800587 -0.062274493 -0.08590374 -0.13345921 0.021637628 -0.11605184
-0.01734271 0.15849599 -0.06154891 0.13383062 0.099150226 -0.102233924 0.07326371 -0.065229766
0.07781426 -0.08454448 0.03272797 0.08602139 0.11945586 -0.05139765 0.08062726 0.113475055
-0.036180742 0.1002714 -0.03007306 -0.08925823 0.05990816 0.034956507 -0.134016 -0.06609613
-0.04514831 0.107714735 -0.016170345 -0.13864854 0.03058626 0.04407844 0.01828098 0.11759245
-0.15188016 0.02390351 -0.078327745 -0.075210534 -0.10621204 -0.041145418 -0.1422342 -0.13872728
0.1013864 0.09302703 -0.049668025 -0.05647313 -0.050297484 0.04313879 -0.05440825 0.058022108
0.004958034 0.031444453 -0.07650217 -0.069905594 0.061390683 0.12618004 -0.09098871 0.07193884
-0.017292226 0.14391147 -0.06940076 0.1368448 0.053987656 0.12233481 -0.011066762 0.11504822
-0.011172394 0.0057267137 -0.019664802 0.048480246 0.14842899 0.11409039 -0.090161115 -0.05084484
0.09787988 -0.059421316 -0.040019967 0.03594866 -0.0892459 -0.11983024 0.113070235 -0.1377632
-0.09541915 0.058409873 -0.018393515 0.0847615 -0.0076255547 0.012189777 -0.035767633 0.04596568
0.03504485 -0.028383758 0.094266005 -0.09098756 -0.051327433 0.011705964 0.08008017 -0.04931356
0.004729886 -0.13438532 0.082607806 0.10143392 -0.115866624 -0.11892279 0.007583003 0.1417059
0.0613815 0.12500809 -0.12784658 0.112823926 0.13905895 -0.10840391 0.024272228 -0.02841465
0.14306156 -0.06838015 -0.15218107 -0.12895896 0.11868271 0.04406415 -0.13971508 -0.13108194
0.07253508 -0.074644744 -0.110998504 -0.057642102 -0.05725346 -0.10401119 -0.0612664 0.018957524
0.03621865 0.12129713 -0.15248701 -0.03899572 -0.05509633 -0.07364934 0.060628045 -0.060548965
-0.04755853 -0.12277369 -0.062402453 0.0071466207 -0.098011196 -0.029965706 -0.07939969 0.020897344
0.047746226 -0.08425713 -0.0651243 -0.015186861 -0.086197615 -0.05993006 0.06521439 -0.01648194
0.07108476 -0.005008205 0.01950591 -0.11747237 0.005628578 0.13907622 0.1500058 0.11720373
-0.04279482 -0.009224542 0.13349637 -0.021303548 0.03967902 0.012663722 0.10062904 -0.074519254
0.028927157 -0.127978 -0.04485479 0.07310513 0.010089175 0.135493 -0.11625469 0.07944565
-0.010827328 0.15715829 0.13038665 0.12703304 -0.09093565 0.14489694 -0.094080955 -0.06633641
00000000: 9438 23bd 205b 1f3d c2a2 34bd 7453 2e3d
00000010: 8234 f13c ab9c d53d ce23 d1bb 040a b8bd
00000020: cb57 32bd 56f9 f2bd ca7b 73bd 8316 a5bd
00000030: 9910 03be fa3e 0abe 443a 07be 9cf2 743d
00000040: d442 97bd 21cd 083e 7e7a 92bd 3b17 833d
00000050: 5e67 d1bd 6dd0 1c3e 0ba8 393d 1a98 863c
00000060: 14b7 283d 4dad 253d 53e3 8abd b9d6 fd3c
00000070: 05a1 c3bd f828 853d f2a9 1b3e 8f38 103e
00000080: bfe8 bcbc 91e5 afbc 5a93 113e 58e3 dbbd
00000090: 6e7e 553d f189 ed3c aa9d 063e 2927 74bd
000000a0: a397 ef3d b940 a9bc 5628 143e a0e8 1ebe
000000b0: 5abf bebd 9114 19bd 7768 1cbe fab4 a1bc
000000c0: 140d 04be 6965 bf3d 9979 063e 775b 78bc
000000d0: 2824 b73d eeb5 943d 9305 8e3d 2ebf 7a3c
000000e0: b636 c1bd 6202 0bbe 4e37 8b3d 3a9a e3bd
000000f0: d328 e93d 7360 d63c 8ed6 91bd 0e95 74bd
00000100: 9d99 373d 4421 45bc 6951 0d3e 8a13 7fbd
00000110: 4dee afbd 88a9 08be 6541 b13c 96ac edbd
00000120: 4d12 8ebc c64c 223e b61a 7cbd e50a 093e
00000130: 460f cb3d 0560 d1bd 490b 963d 2f97 85bd
00000140: 155d 9f3d a825 adbd c40d 063d fc2b b03d
00000150: 46a5 f43d 5886 52bd e81f a53d 9c65 e83d
00000160: 4232 14bd 175b cd3d c75b f6bc 05cd b6bd
00000170: 4262 753d 8e2e 0f3d 7e3b 09be 685d 87bd
00000180: 6fed 38bd 8b99 dc3d ac77 84bc e2f9 0dbe
00000190: 0990 fa3c 988b 343d fec1 953c 4fd4 f03d
000001a0: 7986 1bbe 4bd1 c33c 4c6a a0bd fb07 9abd
000001b0: b385 d9bd 1988 28bd d8a5 11be 860e 0ebe
000001c0: aca3 cf3d f584 be3d b370 4bbd 5e50 67bd
000001d0: bc04 4ebd 4db2 303d 2fdb 5ebd 97a8 6d3d
000001e0: 0177 a23b e6cb 003d 2bad 9cbd aa2a 8fbd
000001f0: cc74 7b3d 5735 013e 4a58 babd ac54 933d
00000200: 6da8 8dbc 875d 133e fc21 8ebd 0b21 0c3e
00000210: 2922 5d3d ac8a fa3d 5d51 35bc 679e eb3d
00000220: 6b0c 37bc 28a7 bb3b 1418 a1bc 3993 463d
00000230: c5fd 173e 39a8 e93d 64a6 b8bd ae42 50bd
00000240: 3f75 c83d c463 73bd faeb 23bd e73e 133d
00000250: 8ec6 b6bd 8f69 f5bd 5e91 e73d cc11 0dbe
00000260: 1e6b c3bd 313f 6f3d ffad 96bc 7097 ad3d
00000270: cadf f9bb a1b7 473c 1581 12bd 8246 3c3d
00000280: 308b 0f3d 0e85 e8bc 890e c13d b057 babd
00000290: b73c 52bd 5fca 3f3c 1201 a43d 04fd 49bd
000002a0: 29fd 9a3b 4e9c 09be 482e a93d 96bc cf3d
000002b0: 7b4b edbd cb8d f3bd d77a f83b 5a1b 113e
000002c0: 2b6b 7b3d 1f02 003e 37ea 02be 3b10 e73d
000002d0: 7865 0e3e df02 debd 8dd6 c63c d7c5 e8bc
000002e0: bb7e 123e e40a 8cbd 5bd5 1bbe d10d 04be
000002f0: ec0f f33d 9c7c 343d 7811 0fbe 583a 06be
00000300: 468d 943d 58df 98bd 2f53 e3bd 201a 6cbd
00000310: 9b82 6abd d203 d5bd 7af2 7abd cf4c 9b3c
00000320: 025a 143d a16a f83d 8e25 1cbe fab9 1fbd
00000330: b0ac 61bd 77d5 96bd 1d55 783d 3102 78bd
00000340: bccc 42bd c670 fbbd b799 7fbd 332e ea3b
00000350: 18ba c8bd a47a f5bc 4e9c a2bd e830 ab3c
00000360: 8c91 433d 018f acbd e45f 85bd 50d2 78bc
00000370: 6088 b0bd 3979 75bd 1f8f 853d 2205 87bc
00000380: e394 913d de1b a4bb dcca 9f3c 5b95 f0bd
00000390: ef6f b83b ff69 0e3e 1f9b 193e 8208 f03d
000003a0: 9f49 2fbd 8922 17bc 46b3 083e c784 aebc
000003b0: 7886 223d 807b 4f3c 9916 ce3d 8d9d 98bd
000003c0: a5f8 ec3c aa0c 03be a8b9 37bd 24b8 953d
000003d0: 114d 253c adbe 0a3e f016 eebd 67b4 a23d
000003e0: 1b65 31bc 1aee 203e 1484 053e f314 023e
000003f0: 783c babd dd5f 143e 84ad c0bd 62db 87bd

convs.2.bias f4 [128]
-1.2886936e-05 8.403987e-06 -2.1373218e-05 -3.951772e-05 1.5968422e-05 -7.503351e-07 7.1671263e-07 -1.6301885e-05
-6.6185567e-06 -1.09335315e-05 -3.2598944e-06 -1.2384511e-05 -2.2754895e-05 -2.6498132e-05 -7.857751e-05 1.2325356e-05
-5.231631e-06 -6.4982523e-06 -3.4439956e-05 1.7886421e-05 -7.2173975e-06 -4.0626877e-05 7.326331e-06 -7.4437903e-06
5.9622507e-06 2.2888278e-05 -1.7958824e-05 -9.887583e-07 2.6153382e-06 -2.600738e-05 -7.7138833e-07 9.176407e-06
9.399738e-06 -2.072463e-05 -1.5825277e-05 1.8570561e-05 -1.2289155e-05 4.3251734e-05 -2.847726e-05 -4.808466e-07
1.0693585e-05 -3.6973222e-05 8.381493e-06 -4.8599573e-05 6.96625e-06 -1.3125826e-06 1.2586944e-05 2.4197183e-05
7.878548e-06 3.0936388e-07 -1.0395983e-05 -1.9816082e-06 -3.5230687e-06 5.1575216e-06 9.945741e-06 1.1439766e-05
1.6802707e-05 -6.1316537e-06 -1.8635888e-05 -4.704778e-06 1.0414291e-05 7.3153687e-06 -3.3450466e-05 4.6959216e-05
-5.200908e-06 -1.3937361e-05 -1.5708134e-05 -1.4278594e-06 -8.333217e-06 5.7652374e-05 -2.8340204e-05 -1.4984902e-05
-5.6417564e-05 1.5687394e-05 8.086113e-06 1.2335726e-05 -2.3124735e-06 -1.8555885e-06 -9.952997e-06 3.5381472e-06
7.2061066e-06 -3.1112613e-05 -3.7168488e-06 2.8262388e-05 1.8967039e-06 1.755942e-06 -4.479278e-06 -2.7137516e-05
4.5929955e-06 -5.226161e-06 4.8078913e-05 1.838699e-06 1.0631629e-05 -3.8064485e-05 1.2327664e-06 -7.0195542e-06
-9.661238e-06 -1.8778268e-05 -1.1538383e-05 -7.009797e-06 1.707325e-05 4.0365007e-06 5.024452e-06 9.407658e-06
4.1543735e-05 1.9994056e-06 -1.4085786e-06 -4.004326e-07 -3.5326857e-06 -9.235153e-06 6.89273e-06 -9.641166e-06
-1.1317514e-05 -6.4025776e-06 8.107547e-07 -2.03424e-05 -1.553422e-05 -2.1218375e-06 6.2152103e-06 5.0196533e-05
-9.47623e-06 3.3970825e-06 3.5480928e-06 1.4961606e-06 -5.686651e-07 -3.4244152e-08 1.2815121e-05 3.859487e-05
00000000: f834 58b7 d9fe 0c37 a34a b3b7 d4bf 25b8
00000010: edf3 8537 a36a 49b5 1e64 4035 08c0 88b7
00000020: f814 deb6 296f 37b7 8fc4 5ab6 12c7 4fb7
00000030: c4e1 beb7 4e48 deb7 fbc9 a4b8 00c9 4e37
00000040: 5e8b afb6 900b dab6 9f73 10b8 cc0a 9637
00000050: f92c f2b6 c766 2ab8 b4d4 f536 acc5 f9b6
00000060: 580f c836 3400 c037 48a6 96b7 7ab5 84b5
00000070: 2b83 2f36 6c2a dab7 6711 4fb5 5ef4 1937
00000080: 91b3 1d37 ced9 adb7 86c0 84b7 fac7 9b37
00000090: 852d 4eb7 3269 3538 73e2 eeb7 8713 01b5
000000a0: 9968 3337 b213 1bb8 3d9e 0c37 65d7 4bb8
000000b0: a2bf e936 ff2b b0b5 832c 5337 0efb ca37
000000c0: 1b2e 0437 a616 a634 686a 2eb7 c5fb 04b6
000000d0: dc6d 6cb6 c60e ad36 a2dc 2637 6ced 3f37
000000e0: 8af3 8c37 81be cdb6 4454 9cb7 bcdd 9db6
000000f0: 0ab9 2e37 8a76 f536 2a4d 0cb8 13f6 4438
00000100: 7683 aeb6 82d4 69b7 f6c4 83b7 e0a4 bfb5
00000110: e5ce 0bb7 c4cf 7138 20bc edb7 aa67 7bb7
00000120: e6a1 6cb8 6c98 8337 97a9 0737 8af5 4e37
00000130: fe2f 1bb6 890d f9b5 ccfb 26b7 e870 6d36
00000140: fccb f136 ea7e 02b8 fa6e 79b6 0415 ed37
00000150: 4092 fe35 b5ad eb35 b44c 96b6 5fa5 e3b7
00000160: 881d 9a36 625c afb6 57a8 4938 37c9 f635
00000170: 805e 3237 6ea7 1fb8 8875 a535 8389 ebb6
00000180: b416 22b7 0686 9db7 fa94 41b7 b335 ebb6
00000190: 8638 8f37 4771 8736 b797 a836 95d5 1d37
000001a0: 3f3f 2e38 872d 0636 640e bdb5 0afb d6b4
000001b0: 1413 6db6 aef0 1ab7 1a48 e736 7ec0 21b7
000001c0: 5ae0 3db7 b9d5 d6b6 a4a2 5935 f9a4 aab7
000001d0: 7c4f 82b7 e464 0eb6 408c d036 1e8a 5238
000001e0: 19fc 1eb7 6ff9 6336 c51b 6e36 b0cf c835
000001f0: 5ea6 18b5 d813 13b3 8700 5737 ede0 2138

convs.2.lin.weight f4 [128, 128]
0.019930452 -0.09745619 0.12611222 0.105006985 -0.06680686 -0.13873938 0.12848358 -0.12425596
0.039744142 -0.035811026 -0.014913046 0.15633552 -0.102611214 -0.0155485105 -0.06587021 0.0018587793
0.15025537 0.02220372 -0.14856763 0.1250804 -0.15131427 -0.14990309 0.11208953 -0.14531314
0.05903373 0.007248219 -0.005078744 0.136228 -0.11040232 0.15111384 -0.005906954 0.048691545
0.1299374 0.022009756 0.05868232 -0.03444162 -0.076663844 0.064552896 -0.13815439 -0.03147822
0.11969394 0.011532093 0.1143997 -0.12395419 0.015844649 0.06098822 -0.13827054 0.042007525
0.054170594 -0.12721735 -0.020313503 -0.09542673 -0.07686685 -0.13277347 -0.105492085 0.008491103
-0.055807576 0.046733756 -0.05727015 0.11482935 0.109228075 0.05523591 0.020900583 -0.05182696
0.12030595 0.030676568 0.04544945 -0.13769534 -0.064966485 -0.017594162 0.077261075 0.01764659
0.038547 0.09148301 -0.12743178 -0.11755506 -0.019269574 0.12059915 0.08569256 0.069001235
-0.11561074 -0.10739251 0.045672882 0.025685538 -0.1014664 0.116452865 -0.03632132 -0.02116969
0.014557243 0.1343797 -0.16004595 -0.13186008 0.033689573 -0.036081053 -0.07132515 -0.008034672
0.013146642 0.1033823 0.07661147 0.081797816 -0.026589302 -0.015257759 -0.136797 -0.084611125
0.0319377 0.1483275 0.024528813 -0.07874334 0.00650718 -0.08882512 -0.08282893 -0.03573025
0.051141508 0.024624666 0.008362196 -0.14167114 -0.11170088 -0.086674154 0.02171786 -0.109423414
-0.12750396 0.1322901 0.0021583217 0.032965645 0.063602485 -0.12373713 0.0027389426 0.073577754
0.07244085 -0.0007138332 0.0049211136 -0.065545216 0.04007218 -0.0027156225 0.08985251 -0.021523211
0.13459681 0.08099553 -0.03134576 -0.15011044 0.115992434 0.1381789 -0.05939895 -0.10505285
0.04171736 -0.037827417 0.0119855665 0.023762215 0.11387524 -0.1459018 0.102603845 -0.14140743
-0.019951511 0.0912057 0.042497016 -0.12691428 -0.042742494 0.070084766 0.029692924 0.11340779
0.14922976 -0.093288474 0.05064356 0.12899849 0.11721875 0.112205066 -0.111798905 -0.010022876
-0.051533036 0.10879059 0.12114171 -0.113694586 0.11302353 0.035056267 -0.07875658 -0.13729933
0.070665725 -0.04670354 0.04552471 -0.103495136 -0.0011668103 -0.05889289 0.09454573 0.12353373
-0.022026887 0.11455429 -0.03375526 0.10887375 0.002339451 -0.062150672 -0.094540656 -0.08229235
0.076025404 -0.016718838 -0.014242166 -0.05389646 0.06383561 -0.024598401 -0.024095587 0.13706264
-0.07937179 0.050672203 0.124364525 0.030395364 -0.09901622 -0.11232713 -0.130811 -0.014068315
0.09274074 -0.06779849 -0.046429634 0.0061599016 0.07725608 -0.04451007 0.011242213 0.13737556
-0.13170126 -0.04208858 0.08189855 0.028952286 -0.0157182 -0.07725761 0.059709992 0.07307631
-0.13192485 0.037899684 0.05394364 0.020891415 0.0047336635 -0.05243572 -0.022670003 0.10214227
0.03663613 0.14632414 -0.018869305 -0.113660924 0.07575055 -0.049318668 0.026906405 0.043303195
0.020088632 0.01056142 -0.05149877 0.058533072 -0.06609264 0.0012714677 0.13724022 0.021106495
-0.03257872 0.08795137 -0.0055526276 -0.07904245 0.07149911 0.09722608 -0.111333475 -0.04714728
00000000: 3045 a33c 1c97 c7bd 9023 013e e70d d73d
00000010: 09d2 88bd b211 0ebe 3391 033e e979 febd
00000020: c1ca 223d 95ae 12bd d955 74bc 6b16 203e
00000030: d425 d2bd 2ebf 7ebc f6e6 86bd 49a2 f33a
00000040: 8bdc 193e 93e4 b53c 1d22 18be 1415 003e
00000050: 21f2 1abe 3280 19be 328f e53d f8cc 14be
00000060: 5acd 713d 7882 ed3b 986b a6bb 5a7f 0b3e
00000070: 9d1a e2bd 96bd 1a3e 1f8f c1bb c970 473d
00000080: 4f0e 053e ce4d b43c df5c 703d a812 0dbd
00000090: ef01 9dbd 4f34 843d 5878 0dbe 4eef 00bd
000000a0: 1922 f53d 1bf1 3c3c 644a ea3d b2db fdbd
000000b0: a3cc 813c c9ce 793d cb96 0dbe 1510 2c3d
000000c0: fce1 5d3d 4445 02be 8168 a6bc 176f c3bd
000000d0: 5e6c 9dbd c5f5 07be 3c0c d8bd 441e 0b3c
000000e0: 7c96 64bd e56b 3f3d 1b94 6abd a62b eb3d
000000f0: f8b2 df3d 0d3f 623d b337 ab3c 8248 54bd
00000100: f762 f63d 6d4d fb3c 3429 3a3d 0200 0dbe
00000110: 260d 85bd a221 90bc 0e3b 9e3d 958f 903c
00000120: 76e3 1d3d 725b bb3d 7a7d 02be b5c0 f0bd
00000130: 3adb 9dbc b0fc f63d 957f af3d 8550 8d3d
00000140: 53c5 ecbd 9bf0 dbbd 7d13 3b3d 7a6a d23c
00000150: 9ecd cfbd d77e ee3d aac5 14bd 0f6c adbc
00000160: 8181 6e3c d59a 093e 16e3 23be 5406 07be
00000170: 14fe 093d bac9 13bd ec12 92bd dba3 03bc
00000180: 0365 573c 19ba d33d 79e6 9c3d 9d85 a73d
00000190: cfd1 d9bc aefb 79bc 8314 0cbe 9948 adbd
000001a0: 1bd1 023d 2ae3 173e a6f0 c83c 3044 a1bd
000001b0: 2f3a d53b f2e9 b5bd 37a2 a9bd e259 12bd
000001c0: c279 513d abb9 c93c 9801 093c 3d12 11be
000001d0: 6ec3 e4bd 3882 b1bd a7e9 b13c 6219 e0bd
000001e0: 6690 02be 0e77 073e a172 0d3b fc06 073d
000001f0: 0542 823d e469 fdbd d57f 333b efaf 963d
00000200: de5b 943d 8920 3bba 4b41 a13b 923c 86bd
00000210: ba22 243d 96f8 31bb 9804 b83d 7251 b0bc
00000220: bfd3 093e fce0 a53d 6964 00bd 8db6 19be
00000230: 718d ed3d c57e 0d3e 504c 73bd f325 d7bd
00000240: d3df 2a3d ecf0 1abd 1c5f 443c faa8 c23c
00000250: 6c37 e93d 4867 15be f721 d23d 1ccd 10be
00000260: 5a71 a3bc 0eca ba3d 5a11 2e3d d1f5 01be
00000270: c112 2fbd 9a88 8f3d 933e f33c 5842 e83d
00000280: b0cf 183e 070e bfbd 9f6f 4f3d 2e18 043e
00000290: 6210 f03d c5cb e53d d3f6 e4bd fd36 24bc
000002a0: 4e14 53bd 9acd de3d 2519 f83d b5d8 e8bd
000002b0: e178 e73d 2997 0f3d 214b a1bd 3298 0cbe
000002c0: 31b9 903d 364c 3fbd 1e78 3a3d 42f5 d3bd
000002d0: a8ef 98ba ac39 71bd 31a1 c13d 41ff fc3d
000002e0: bb71 b4bc 719b ea3d f542 0abd 33f9 de3d
000002f0: 7a51 193b b491 7ebd 889e c1bd e488 a8bd
00000300: 35b3 9b3d f2f5 88bc f957 69bc 89c2 5cbd
00000310: 3fbc 823d 9682 c9bc 1c64 c5bc 265a 0c3e
00000320: ad8d a2bd a88d 4f3d d4b2 fe3d b3ff f83c
00000330: 04c9 cabd c40b e6bd 52f3 05be ca7e 66bc
00000340: dbee bd3d efd9 8abd 002d 3ebd 00d9 c93b
00000350: 7038 9e3d 3150 36bd 4231 383c 2eac 0c3e
00000360: b2dc 06be 1365 2cbd 6dba a73d 582d ed3c
00000370: 74c3 80bc 3d39 9ebd 7792 743d 08a9 953d
00000380: 4f17 07be b33c 1b3d 02f4 5c3d 7924 ab3c
00000390: d91c 9b3b d6c6 56bd 71b6 b9bc f72f d13d
000003a0: c40f 163d ffd5 153e cd93 9abc 0fc7 e8bd
000003b0: 1b23 9b3d 5f02 4abd d26a dc3c b15e 313d
000003c0: ea90 a43c ce09 2d3c 60f0 52bd 60c0 6f3d
000003d0: 945b 87bd 60a7 a63a b388 0c3e 87e7 ac3c
000003e0: 4471 05bd d91f b43d d1f2 b5bb 02e1 a1bd
000003f0: 206e 923d 781e c73d ce02 e4bd 821d 41bd

bns.0.weight f4 [128]
1.0049429 0.99562085 0.9990267 1.0018524 0.9987524 0.99998283 0.9997981 1.0039536
1.0084692 0.99587744 0.9977661 0.9972228 0.9939194 0.99152064 0.99226874 1.0011185
1.0075699 0.9967019 0.9990403 1.0073452 0.98980427 1.0001297 1.0015618 0.9933505
0.9953345 1.0011698 0.99431986 1.004097 1.008036 0.9951128 0.9986035 0.99522024
1.0039005 0.9967155 1.0038104 0.9984904 0.99828494 0.99835736 1.003417 1.0011888
1.0005307 1.0063138 0.9920051 1.0021489 0.9958869 1.0000976 1.0041108 1.0013793
1.0089402 1.0022368 1.0122496 0.9952425 0.99907213 0.9865742 1.001093 1.0011933
1.0005714 1.0049313 1.0023326 0.9955448 1.0031852 0.99735147 0.99531996 0.9993448
0.9984177 0.9987024 0.9977044 1.0023751 0.9931889 1.0040499 1.0007246 1.0050149
1.0051795 0.9950064 1.002587 1.0069695 0.9949535 0.9969917 1.0012128 1.0009452
1.0062002 0.9972283 0.99604625 0.9875223 0.9953979 1.0007885 1.0031668 0.9913869
1.0052713 0.99498725 0.9998046 0.99492645 1.0074403 0.9965106 0.9957741 1.00024
1.0032585 1.0043645 0.9953504 1.0030446 0.99477696 1.0001215 1.006044 1.0010855
0.99780697 0.9987742 1.0005577 1.0060093 0.99936783 0.9951986 1.001626 1.0061789
0.99581736 1.0082983 0.99906766 1.004279 1.0059016 0.9956329 1.0007272 1.0013162
1.0115641 0.99736106 1.0053204 0.99498516 0.99552464 0.9922901 1.0071656 0.9926291
00000000: f8a1 803f 02e1 7e3f 37c0 7f3f b33c 803f
00000010: 3dae 7f3f e0fe 7f3f c5f2 7f3f 8d81 803f
00000020: 8515 813f d3f1 7e3f 996d 7f3f fe49 7f3f
00000030: 8071 7e3f 4cd4 7d3f 5305 7e3f a724 803f
00000040: 0df8 803f db27 7f3f 1bc1 7f3f b0f0 803f
00000050: d063 7d3f 4004 803f 2d33 803f 384c 7e3f
00000060: 3ece 7e3f 5526 803f bf8b 7e3f 4086 803f
00000070: 5307 813f b6bf 7e3f 7ba4 7f3f c1c6 7e3f
00000080: d07f 803f bf28 7f3f dc7c 803f 119d 7f3f
00000090: 9a8f 7f3f 5994 7f3f f86f 803f f426 803f
000000a0: 6411 803f e4ce 803f 0cf4 7d3f 6a46 803f
000000b0: 72f2 7e3f 3303 803f b486 803f 322d 803f
000000c0: f424 813f 4c49 803f 6591 813f 36c8 7e3f
000000d0: 31c3 7f3f 2090 7c3f d123 803f 1a27 803f
000000e0: b912 803f 97a1 803f 6f4c 803f 06dc 7e3f
000000f0: 5f68 803f 6d52 7f3f 4acd 7e3f 10d5 7f3f
00000100: 4d98 7f3f f6aa 7f3f 8e69 7f3f d44d 803f
00000110: a141 7e3f b584 803f be17 803f 54a4 803f
00000120: b9a9 803f bdb8 7e3f c554 803f 60e4 803f
00000130: 46b5 7e3f d93a 7f3f be27 803f f91e 803f
00000140: 2bcb 803f 5b4a 7f3f e3fc 7e3f 43ce 7c3f
00000150: 66d2 7e3f d619 803f c567 803f 88cb 7d3f
00000160: bbac 803f 7cb7 7e3f 32f3 7f3f 80b3 7e3f
00000170: cef3 803f 521b 7f3f 0deb 7e3f dd07 803f
00000180: c66a 803f 048f 803f 49cf 7e3f c463 803f
00000190: b4a9 7e3f fb03 803f 0dc6 803f 9223 803f
000001a0: 4770 7f3f aaaf 7f3f 4612 803f eac4 803f
000001b0: 92d6 7f3f 56c5 7e3f 4835 803f 78ca 803f
000001c0: e3ed 7e3f eb0f 813f e6c2 7f3f 378c 803f
000001d0: 62c1 803f cce1 7e3f d417 803f 212b 803f
000001e0: ef7a 813f 0e53 7f3f 57ae 803f 59b7 7e3f
000001f0: b4da 7e3f b906 7e3f cdea 803f f11c 7e3f

bns.0.bias f4 [128]
0.0009670888 -0.0020605163 -0.0038748586 0.0011340863 -0.0025093178 6.610312e-05 0.0014564784 0.0012544153
0.0038382348 -0.002403134 -0.0039514895 -0.0037058203 -0.005786065 -0.00824903 -0.007022377 0.00025218472
-0.0005535077 -0.0068034003 -0.002698767 0.0065656034 -0.005854102 -0.0015788964 -0.0012314668 -0.0049373386
-0.002468548 0.0024317338 -0.0030425093 0.0010207747 0.0016544972 -0.0052009467 5.851243e-05 -0.0031913347
0.004512055 -0.00424261 0.007128301 -0.0032263014 -0.0026213634 0.0025009566 -0.004882711 -0.006663598
0.0051002554 0.003686695 -0.0021197926 -0.00019498011 -0.005899979 -0.0015515488 -0.0009695688 0.0058071716
0.0030956946 -0.0027359359 0.009191452 -0.0042157797 -0.00041256158 -0.009075257 -0.001611259 0.0064471336
0.0014442581 0.009442433 0.0022766653 0.00066273875 0.006659385 -0.0064678933 -0.006897199 0.0007928578
-0.0023257772 -0.0002967099 0.0015091235 -0.004653021 -0.007925362 0.0010043697 0.003689791 0.0030157594
0.0023522095 -0.002575392 -0.0005644957 0.005563426 -0.003958658 0.00022938347 -0.0003893171 0.002820372
0.002565628 -0.006492786 0.00041835618 -0.013675719 -0.0024103224 -0.0009034867 0.0021649357 -0.0062866625
0.00081787864 -0.0030378248 -0.0016228041 -0.00586448 0.004504704 -0.004576618 -0.005438124 -0.0015054594
0.002722227 0.00079288776 -0.0034718798 0.0044883075 -0.0042872634 -0.00010028112 0.0058679157 0.0033627097
0.0037991123 -0.0031699887 -0.0004638459 0.00547997 0.004474802 -0.00061702053 -0.003311193 0.00073597004
-0.0056834472 0.0010054973 -0.0051451623 0.0029258332 0.010865 -0.0039039305 0.00030911117 -0.0005067525
0.0061710337 -0.0015105393 0.0013650176 -0.007299897 -0.0064534354 -0.004449455 0.0064932783 -0.0070739537
00000000: 3b84 7d3a ba09 07bb 57f1 7dbb 9fa5 943a
00000010: 5e73 24bb d8a0 8a38 4ee7 be3a 316b a43a
00000020: e58a 7b3b e67d 1dbb 7f7b 81bb 59dd 72bb
00000030: 0899 bdbb f126 07bc f81b e6bb a937 8439
00000040: 4619 11ba 0fef debb ccdd 30bb 4624 d73b
00000050: c4d3 bfbb f9f2 ceba 2b69 a1ba 66c9 a1bb
00000060: 5dc7 21bb b95d 1f3b d664 47bb 84cb 853a
00000070: b7db d83a b46c aabb 3e6b 7538 b625 51bb
00000080: dcd9 933b 9805 8bbb 8694 e93b 5b70 53bb
00000090: 2ecb 2bbb 17e7 233b 26ff 9fbb 505a dabb
000000a0: 0b20 a73b 7a9c 713b 38ec 0abb 9373 4cb9
000000b0: 9c54 c1bb 575d cbba a92a 7eba 164a be3b
000000c0: 23e1 4a3b 634d 33bb be97 163c 8624 8abb
000000d0: 144d d8b9 63b0 14bc e130 d3ba 7a42 d33b
000000e0: 434d bd3a 6fb4 1a3c 1b34 153b a5bb 2d3a
000000f0: f836 da3b 9ff0 d3bb e601 e2bb c9d7 4f3a
00000100: 116c 18bb bb8f 9bb9 c8cd c53a 5f78 98bb
00000110: 61d9 01bc 0ea5 833a 6cd0 713b 0ca4 453b
00000120: 8727 1a3b e8c7 28bb aafa 13ba 664d b63b
00000130: a1b7 81bb a886 7039 421d ccb9 fed5 383b
00000140: 1824 283b 70c1 d4bb d156 db39 1f10 60bc
00000150: 80f6 1dbb f7d7 6cba 98e1 0d3b 5900 cebb
00000160: e866 563a 3e16 47bb 45b4 d4ba d32a c0bb
00000170: 329c 933b 74f7 95bb 4a32 b2bb d652 c5ba
00000180: 6467 323b ccd9 4f3a 7a88 63bb a712 933b
00000190: 2c7c 8cbb 044e d2b8 a547 c03b e860 5c3b
000001a0: 87fa 783b 96bf 4fbb 5830 f3b9 5291 b33b
000001b0: 5ca1 923b 8cbf 21ba 9a00 59bb 1dee 403a
000001c0: 363c babb e4ca 833a c098 a8bb 56bf 3f3b
000001d0: 1d03 323c 16d9 7fbb 3310 a239 96d7 04ba
000001e0: 6236 ca3b 4afd c5ba 64ea b23a f933 efbb
000001f0: 5777 d3bb bccc 91bb 91c5 d43b a0cc e7bb

bns.0.running_mean f4 [128]
-0.03413275 0.2768787 -0.107997596 -0.15723336 0.13731 -0.107825466 0.014139628 -0.019678997
-0.016355298 0.11743953 -0.13494197 -0.098871656 -0.23873182 0.05732092 0.1329057 0.11725267
0.2459711 -0.076551065 -0.1685018 -0.15550639 -0.15576191 0.0573955 -0.011019541 -0.17137161
-0.11004188 0.21602625 -0.036561888 -0.092257015 0.037186056 -0.0517615 0.20970578 -0.1916395
0.16647598 0.055516765 0.13689934 0.059358682 -0.03210136 -0.18625449 -0.08571326 -0.19050555
-0.02392331 0.0051845177 -0.020682788 -0.15669829 -0.038928352 0.00038992098 -0.11998783 -0.1213201
-0.13902353 0.16534863 0.080962874 -0.165732 0.1789076 -0.10059261 0.08906507 0.0035489418
0.10471086 -0.25016186 0.15480536 -0.043853346 0.0244868 -0.09428739 -0.0008079264 0.11426146
0.10630483 -0.05480742 0.17550187 -0.086668745 0.032919876 -0.088984385 0.07374658 0.051131435
0.102390625 0.10838931 0.11514234 -0.17232896 0.03898253 -0.01611828 0.031341564 0.13122402
-0.039712694 0.10231949 -0.11381335 -0.11127753 0.065976605 0.25665468 0.018441668 -0.07965939
0.025427926 -0.026213333 0.07676754 -0.06206507 0.17376249 -0.04817329 0.16342777 -0.06436827
0.053184714 -2.5294185e-05 -0.056227766 0.26593027 -0.014404603 0.09266933 -0.24226008 0.028225353
-0.07950197 -0.0770951 0.07825822 -0.12560104 -0.11051753 -0.17654112 -0.158448 0.15440999
-0.14020072 -0.12338696 0.21755406 -0.20172374 0.1257894 0.13958296 0.036123175 -0.013172658
-0.13568975 -0.04075072 -0.02577344 0.06925941 0.120013855 0.38616434 -0.14753121 0.03959521
00000000: c8ce 0bbd 0cc3 8d3e d82d ddbd c801 21be
00000010: fe9a 0c3e 99d3 dcbd e6a9 673c d935 a1bc
00000020: 8cfb 85bc 2384 f03d 3a2e 0abe 397d cabd
00000030: 1d76 74be 57c9 6a3d 6f18 083e 2b22 f03d
00000040: d9df 7b3e cec6 9cbd bc8b 2cbe 113d 1fbe
00000050: 0d80 1fbe 8b17 6b3d 4e8b 34bc 0a7c 2fbe
00000060: a35d e1bd fc35 5d3e ebc1 15bd 3ff1 bcbd
00000070: 6850 183d de03 54bd 1dbd 563e 253d 44be
00000080: ae78 2a3e 8c65 633d 572f 0c3e 1722 733d
00000090: b77c 03bd 7fb9 3ebe 6f8a afbd e313 43be
000000a0: d1fa c3bc e3e2 a93b f36e a9bc 8475 20be
000000b0: 5673 1fbd 4f6e cc39 2ebc f5bd ac76 f8bd
000000c0: 2f5c 0ebe 2751 293e ddcf a53d a6b5 29be
000000d0: 8e33 373e 8003 cebd bf67 b63d 5d95 683b
000000e0: a672 d63d 3715 80be 4c85 1e3e 919f 33bd
000000f0: 8b98 c83c bf19 c1bd 06cb 53ba ea01 ea3d
00000100: 59b6 d93d bf7d 60bd c3b6 333e 627f b1bd
00000110: fed6 063d 723d b6bd 7208 973d 326f 513d
00000120: 2db2 d13d 37fb dd3d bfcf eb3d 0177 30be
00000130: 25ac 1f3d 7c0a 84bc 0360 003d 975f 063e
00000140: c7a9 22bd e18c d13d f916 e9bd 79e5 e3bd
00000150: be1e 873d 3e68 833e fb12 973c 7624 a3bd
00000160: 3a4e d03c 58bd d6bc 4d38 9d3d f137 7ebd
00000170: cbee 313e 5b51 45bd 9c59 273e 83d3 83bd
00000180: 37d8 593d d92e d4b7 164f 66bd 0328 883e
00000190: 4901 6cbc 6bc9 bd3d 0713 78be db38 e73c
000001a0: eed1 a2bd 09e4 9dbd d845 a03d 8f9d 00be
000001b0: 0457 e2bd 32c7 34be 3140 22be a71d 1e3e
000001c0: c790 0fbe 4db2 fcbd 7ec6 5e3e ab90 4ebe
000001d0: f0ce 003e d6ee 0e3e e5f5 133d 22d2 57bc
000001e0: 41f2 0abe 3aea 26bd d222 d3bc e1d7 8d3d
000001f0: d3c9 f53d 55b7 c53e 6c12 17be 962e 223d

bns.0.running_var f4 [128]
0.002722493 0.025423268 0.003107504 0.005128107 0.013603075 0.02161939 0.00741639 0.008491955
0.0046745455 0.005027171 0.011361121 0.005485318 0.0048740795 0.014367434 0.0028559135 0.0041972413
0.003999378 0.00314618 0.0053522973 0.009508103 0.011284684 0.0062418524 0.012321081 0.012060733
0.003205289 0.002315115 0.008526589 0.007956144 0.0008604384 0.015699435 0.0038121715 0.0050410326
0.009425597 0.002119617 0.0079508005 0.004284331 0.0018933583 0.005277564 0.011642667 0.0015378554
0.011105403 0.0064130006 0.0044733933 0.0015324649 0.004956951 0.0052382466 0.00504738 0.0108779725
0.0055633886 0.0027466966 0.0028977194 0.012269291 0.007808633 0.003749269 0.013196573 0.0069515747
0.009917765 0.0024263454 0.006890652 0.008902858 0.005259164 0.0046161935 0.0018721941 0.0052139084
0.008693288 0.0027645628 0.013623437 0.0031883304 0.0019900228 0.0035516284 0.008059633 0.013416306
0.0044105262 0.00615235 0.0115460735 0.0075110425 0.008043249 0.002607482 0.004526901 0.0021185807
0.0065948614 0.004757568 0.0059977463 0.014413959 0.0033704827 0.004004071 0.009722931 0.008847692
0.0036989192 0.0050307414 0.006445822 0.004209156 0.008736252 0.011912563 0.011192269 0.0014642319
0.0053065503 0.007846302 0.00408339 0.015261576 0.009021662 0.003988596 0.014220954 0.003911451
0.008126121 0.004998625 0.01169914 0.01227945 0.008403491 0.008872935 0.0071451375 0.00637722
0.012057334 0.0022373383 0.009205532 0.011537506 0.010993045 0.009615622 0.0074336617 0.005115077
0.0015376554 0.0044178655 0.0008652289 0.010856515 0.0052045514 0.017092036 0.021954665 0.005794114
00000000: da6b 323b 7544 d03c 44a7 4b3b ae09 a83b
00000010: 6fdf 5e3c 261b b13c 3005 f33b d721 0b3c
00000020: ee2c 993b f8ba a43b ff23 3a3c 2fbe b33b
00000030: beb6 9f3b 6365 6b3c 472a 3b3b 0389 893b
00000040: 370d 833b 2430 4e3b 5362 af3b e0c7 1b3c
00000050: 65e3 383c 7488 cc3b 5cde 493c 619a 453c
00000060: d30f 523b 2fb9 173b 1bb3 0b3c 7d5a 023c
00000070: 0b8f 613a 1a9c 803c a0d5 793b 3f2f a53b
00000080: d26d 1a3c 46e9 0a3b 1344 023c 9363 8c3b
00000090: 902a f83a 6aef ac3b e3c0 3e3c dd91 c93a
000000a0: 70f3 353c 2624 d23b 8b95 923b fddc c83a
000000b0: eb6d a23b 99a5 ab3b 7e64 a53b 8639 323c
000000c0: 164d b63b ec01 343b aae7 3d3b 2305 493c
000000d0: 90df ff3b 4cb6 753b 7036 583c 09ca e33b
000000e0: 1f7e 223c 5203 1f3b faca e13b 4bdd 113c
000000f0: 1155 ac3b 7043 973b 6964 f53a 6fd9 aa3b
00000100: 4b6e 0e3c ab2d 353b d634 5f3c 4ff3 503b
00000110: 0b6b 023b 70c2 683b 8d0c 043c 11d0 5b3c
00000120: 2d86 903b a799 c93b be2b 3d3c 311f f63b
00000130: d5c7 033c 4ae2 2a3b 6656 943b e3d7 0a3b
00000140: b519 d83b 5fe5 9b3b be88 c43b 8728 6c3c
00000150: 51e3 5c3b 9534 833b ee4c 1f3c e9f5 103c
00000160: 9169 723b ebd8 a43b 7937 d33b f6ec 893b
00000170: 7f22 0f3c e92c 433c c75f 373c 78eb bf3a
00000180: 92e2 ad3b c78d 003c f5cd 853b b00b 7a3c
00000190: 98cf 133c c5b2 823b 01ff 683c a12b 803b
000001a0: 6c23 053c 81cb a33b c0ad 3f3c bf2f 493c
000001b0: ccae 093c c95f 113c c221 ea3b 00f8 d03b
000001c0: 208c 453c 4fa0 123b cdd2 163c cf07 3d3c
000001d0: 2c1c 343c d88a 1d3c 1396 f33b 609c a73b
000001e0: 278b c93a bec3 903b 87d0 623a 86df 313c
000001f0: f18a aa3b 9904 8c3c 45da b33c 8ddc bd3b

bns.1.weight f4 [128]
0.99636954 1.0027571 0.9971001 0.992475 1.0019519 0.99994713 1.0014038 1.0027514
0.99425423 0.99267924 1.0052114 1.0059296 1.0068488 0.9988577 1.002606 1.0012597
0.9974664 0.9957737 0.99790245 1.0047218 0.99676555 0.9979531 1.0000427 1.006005
0.9910452 0.9992793 0.9980805 1.0071021 0.9993867 0.994349 1.0026921 0.9966367
0.99693274 0.9980249 1.0021384 0.9980373 0.99519163 1.0026056 0.99916625 1.0008204
0.9999893 0.99231476 0.99538183 1.0000324 0.9962674 1.0059569 1.0037185 0.99689305
1.0003259 0.998483 1.0104055 0.9996793 1.0031475 0.99942756 0.99348736 0.9978894
0.9924723 1.0039345 1.000029 1.004942 0.99389863 1.0095176 1.0017978 1.0026671
0.99881274 0.9976035 1.0037103 1.0031252 0.9947898 0.99696624 1.0032023 0.9973222
0.9938316 1.0013433 0.99512064 1.0077412 1.0036242 1.0055057 0.99327385 1.0013574
1.0068076 0.99917847 1.0027169 0.9982758 0.9973101 1.0087323 1.0100844 0.989217
0.99947804 0.9985307 1.0048585 0.9995769 0.99415594 1.0047572 1.0039881 0.99714136
0.99234605 1.0026639 1.0036483 0.99963886 1.0061078 0.9996419 0.9957696 1.0002344
0.9956153 0.9952299 0.9968725 1.0052348 0.9933239 0.99838865 1.0026942 1.004689
0.9951208 0.9968482 0.9965635 0.9958006 1.0017287 1.0019352 0.99560297 0.9932231
1.0054903 0.99572045 0.9929867 1.0007896 0.9973374 1.0071431 0.9895506 1.0004272
00000000: 1312 7f3f 585a 803f f441 7f3f d712 7e3f
00000010: f63f 803f 89fc 7f3f 002e 803f 285a 803f
00000020: 7287 7e3f 3a20 7e3f c4aa 803f 4dc2 803f
00000030: 6ce0 803f 23b5 7f3f 6555 803f 4729 803f
00000040: f559 7f3f 06eb 7e3f 8976 7f3f b99a 803f
00000050: 072c 7f3f db79 7f3f 6601 803f c6c4 803f
00000060: 23b5 7d3f c5d0 7f3f 3482 7f3f b9e8 803f
00000070: cfd7 7f3f a88d 7e3f 3758 803f 9523 7f3f
00000080: fc36 7f3f 8f7e 7f3f 1246 803f 5f7f 7f3f
00000090: e1c4 7e3f 6155 803f 5cc9 7f3f e21a 803f
000000a0: 4cff 7f3f 5708 7e3f 58d1 7e3f 1001 803f
000000b0: 610b 7f3f 32c3 803f d979 803f 6234 7f3f
000000c0: ae0a 803f 959c 7f3f f854 813f fcea 7f3f
000000d0: 2367 803f 7cda 7f3f 3055 7e3f ae75 7f3f
000000e0: aa12 7e3f ed80 803f f300 803f f1a1 803f
000000f0: 2470 7e3f df37 813f e93a 803f 6557 803f
00000100: 31b2 7f3f f162 7f3f 9479 803f 6866 803f
00000110: 8baa 7e3f 2e39 7f3f ef68 803f 8250 7f3f
00000120: bf6b 7e3f 042c 803f 3ac0 7e3f aafd 803f
00000130: c276 803f 69b4 803f 3247 7e3f 7b2c 803f
00000140: 12df 803f 29ca 7f3f 0759 803f 018f 7f3f
00000150: b74f 7f3f 241e 813f 724a 813f 533d 7d3f
00000160: cbdd 7f3f b59f 7f3f 349f 803f 46e4 7f3f
00000170: 0181 7e3f e29b 803f af82 803f a844 7f3f
00000180: 640a 7e3f 4a57 803f 8c77 803f 55e8 7f3f
00000190: 24c8 803f 88e8 7f3f c2ea 7e3f ae07 803f
000001a0: a5e0 7e3f 63c7 7e3f 0933 7f3f 89ab 803f
000001b0: 7a4a 7e3f 6696 7f3f 4958 803f a699 803f
000001c0: 3dc0 7e3f 7231 7f3f c91e 7f3f caec 7e3f
000001d0: a538 803f 6a3f 803f d6df 7e3f de43 7e3f
000001e0: e8b3 803f 89e7 7e3f 6034 7e3f e019 803f
000001f0: 8151 7f3f 11ea 803f 3053 7d3f 000e 803f

bns.1.bias f4 [128]
-0.00029437206 0.0010424429 0.00062322005 -0.008490472 0.004093754 -0.005802099 0.0056237853 0.0038102714
-0.000990333 -0.0025367308 0.00023238087 0.008070988 0.0047880267 0.0011344103 -0.00016838958 0.0024740223
-0.0028919647 -0.0021210178 -0.0037556007 0.0043399446 -0.0049932026 -0.00503015 0.0020213225 0.0027779625
-0.0078066722 0.00072399405 -0.0053137597 0.008759572 -0.0038851323 -0.0038422227 0.0021946437 -0.0015109794
-0.00089307234 -0.00029778885 0.00026687566 0.0011661679 -0.0025333883 0.0016832306 0.0012189458 -0.00022774923
-0.0039081117 -0.0037941968 -0.0028089534 0.0028266415 -0.0039450326 0.005298439 0.0021429854 -0.0008419971
-0.003476994 -0.0014900996 0.0040547703 0.0018322641 0.0044410103 -0.0015689962 -0.0034180973 -0.0043133143
-0.006561592 0.0068102228 0.0021421595 0.0037848738 -0.0018893896 0.009466986 0.0057720006 0.0027928636
0.000906498 -0.0029735854 0.0028961843 -0.0017618514 -0.0036020381 -0.002111296 0.0016894605 -0.0025813587
-0.006165554 0.0010591921 -0.0033548523 0.005073585 0.0051329993 0.008606351 -0.007978599 0.0013672565
0.0071051517 -0.0051498855 0.0068006464 -0.0011575888 -4.840484e-05 0.009349443 0.0046999166 -0.00665125
-0.0026829517 0.00041434384 0.005422175 -0.0010758505 0.0008279277 0.0030374941 0.0051826197 -0.0035460575
-0.008832078 -0.004405578 0.0056454483 -0.0025911764 0.002459792 -0.0042311256 -0.004133634 -0.001800601
-0.007613993 -0.0020794037 -0.0014761048 0.0069035483 -0.006816844 -0.002723939 0.00783083 0.0023791022
-0.0011490458 -0.0061874045 -0.0034674192 -0.0045049614 0.0024802622 -0.0018023278 -4.6472487e-05 -0.0038907507
0.0052888016 -0.0031417392 -0.006867402 0.0022591236 -0.0018116746 0.0009439627 -0.0041221115 -0.002200396
00000000: f355 9ab9 94a2 883a 975f 233a 9f1b 0bbc
00000010: e624 863b 891f bebb bb47 b83b bfb5 793b
00000020: 10ce 81ba 483f 26bb 44ab 7339 2d3c 043c
00000030: e1e4 9c3b 7eb0 943a bc91 30b9 3523 223b
00000040: 1e87 3dbb c600 0bbb 8620 76bb 1836 8e3b
00000050: 059e a3bb f5d3 a4bb 2a78 043b 7a0e 363b
00000060: 1dcf ffbb 6bca 3d3a 0c1f aebb 4f84 0f3c
00000070: b49d 7ebb cdcd 7bbb 03d4 0f3b 0e0c c6ba
00000080: 121d 6aba 8b20 9cb9 72eb 8b39 1ada 983a
00000090: 3407 26bb d99f dc3a 09c5 9f3a f8cf 6eb9
000000a0: 9e0f 80bb 0fa8 78bb 6b16 38bb 2d3f 393b
000000b0: 5545 81bb 879e ad3b 5471 0c3b 78b9 5cba
000000c0: 48de 63bb 724f c3ba e1dd 843b 9528 f03a
000000d0: e585 913b c7a6 cdba 2802 60bb b456 8dbb
000000e0: a002 d7bb 4a28 df3b 7963 0c3b a50b 783b
000000f0: 65a5 f7ba 6b1b 1b3c 0d23 bd3b 7a08 373b
00000100: 0da2 6d3a 7ce0 42bb e9cd 3d3b eced e6ba
00000110: 2c10 6cbb ab5d 0abb e370 dd3a 032c 29bb
00000120: 6a08 cabb 97d4 8a3a 15dd 5bbb 5140 a63b
00000130: b832 a83b a701 0d3c abb8 02bc 8435 b33a
00000140: 55d2 e83b 5fc0 a8bb f5d7 de3b 3cba 97ba
00000150: 4d06 4bb8 682e 193c c201 9a3b bbf2 d9bb
00000160: 76d4 2fbb 4a3c d939 80ac b13b 8d03 8dba
00000170: 4a09 593a b210 473b f7d2 a93b f964 68bb
00000180: 6cb4 10bc ab5c 90bb 74fd b83b bad0 29bb
00000190: 7634 213b 41a5 8abb 6f73 87bb 2502 ecba
000001a0: cd7e f9bb 9b46 08bb dc79 c1ba 2937 e23b
000001b0: d55f dfbb 1d84 32bb e24c 003c b6ea 1b3b
000001c0: 949b 96ba b6bf cabb a43d 63bb 5b9e 93bb
000001d0: e58b 223b 163c ecba 74eb 42b8 f7fb 7ebb
000001e0: af4d ad3b a3e5 4dbb f107 e1bb ce0d 143b
000001f0: b675 edba 4474 773a c712 87bb 8534 10bb
